{
  "nodes": [
    {
      "op": "null", 
      "name": "data", 
      "inputs": []
    }, 
    {
      "op": "null", 
      "name": "conv_1_conv2d_weight", 
      "attrs": {
        "kernel": "(3, 3)", 
        "no_bias": "True", 
        "num_filter": "32", 
        "num_group": "1", 
        "pad": "(1, 1)", 
        "stride": "(2, 2)"
      }, 
      "inputs": []
    }, 
    {
      "op": "Convolution", 
      "name": "conv_1_conv2d", 
      "attrs": {
        "kernel": "(3, 3)", 
        "no_bias": "True", 
        "num_filter": "32", 
        "num_group": "1", 
        "pad": "(1, 1)", 
        "stride": "(2, 2)"
      }, 
      "inputs": [[0, 0, 0], [1, 0, 0]]
    }, 
    {
      "op": "null", 
      "name": "conv_1_batchnorm_gamma", 
      "attrs": {"fix_gamma": "True"}, 
      "inputs": []
    }, 
    {
      "op": "null", 
      "name": "conv_1_batchnorm_beta", 
      "attrs": {"fix_gamma": "True"}, 
      "inputs": []
    }, 
    {
      "op": "null", 
      "name": "conv_1_batchnorm_moving_mean", 
      "attrs": {
        "__init__": "[\"zero\", {}]", 
        "fix_gamma": "True"
      }, 
      "inputs": []
    }, 
    {
      "op": "null", 
      "name": "conv_1_batchnorm_moving_var", 
      "attrs": {
        "__init__": "[\"one\", {}]", 
        "fix_gamma": "True"
      }, 
      "inputs": []
    }, 
    {
      "op": "BatchNorm", 
      "name": "conv_1_batchnorm", 
      "attrs": {"fix_gamma": "True"}, 
      "inputs": [[2, 0, 0], [3, 0, 0], [4, 0, 0], [5, 0, 1], [6, 0, 1]]
    }, 
    {
      "op": "Activation", 
      "name": "conv_1_relu", 
      "attrs": {"act_type": "relu"}, 
      "inputs": [[7, 0, 0]]
    }, 
    {
      "op": "null", 
      "name": "conv_2_dw_conv2d_weight", 
      "attrs": {
        "kernel": "(3, 3)", 
        "no_bias": "True", 
        "num_filter": "32", 
        "num_group": "32", 
        "pad": "(1, 1)", 
        "stride": "(1, 1)"
      }, 
      "inputs": []
    }, 
    {
      "op": "Convolution", 
      "name": "conv_2_dw_conv2d", 
      "attrs": {
        "kernel": "(3, 3)", 
        "no_bias": "True", 
        "num_filter": "32", 
        "num_group": "32", 
        "pad": "(1, 1)", 
        "stride": "(1, 1)"
      }, 
      "inputs": [[8, 0, 0], [9, 0, 0]]
    }, 
    {
      "op": "null", 
      "name": "conv_2_dw_batchnorm_gamma", 
      "attrs": {"fix_gamma": "True"}, 
      "inputs": []
    }, 
    {
      "op": "null", 
      "name": "conv_2_dw_batchnorm_beta", 
      "attrs": {"fix_gamma": "True"}, 
      "inputs": []
    }, 
    {
      "op": "null", 
      "name": "conv_2_dw_batchnorm_moving_mean", 
      "attrs": {
        "__init__": "[\"zero\", {}]", 
        "fix_gamma": "True"
      }, 
      "inputs": []
    }, 
    {
      "op": "null", 
      "name": "conv_2_dw_batchnorm_moving_var", 
      "attrs": {
        "__init__": "[\"one\", {}]", 
        "fix_gamma": "True"
      }, 
      "inputs": []
    }, 
    {
      "op": "BatchNorm", 
      "name": "conv_2_dw_batchnorm", 
      "attrs": {"fix_gamma": "True"}, 
      "inputs": [[10, 0, 0], [11, 0, 0], [12, 0, 0], [13, 0, 1], [14, 0, 1]]
    }, 
    {
      "op": "Activation", 
      "name": "conv_2_dw_relu", 
      "attrs": {"act_type": "relu"}, 
      "inputs": [[15, 0, 0]]
    }, 
    {
      "op": "null", 
      "name": "conv_2_conv2d_weight", 
      "attrs": {
        "kernel": "(1, 1)", 
        "no_bias": "True", 
        "num_filter": "64", 
        "num_group": "1", 
        "pad": "(0, 0)", 
        "stride": "(1, 1)"
      }, 
      "inputs": []
    }, 
    {
      "op": "Convolution", 
      "name": "conv_2_conv2d", 
      "attrs": {
        "kernel": "(1, 1)", 
        "no_bias": "True", 
        "num_filter": "64", 
        "num_group": "1", 
        "pad": "(0, 0)", 
        "stride": "(1, 1)"
      }, 
      "inputs": [[16, 0, 0], [17, 0, 0]]
    }, 
    {
      "op": "null", 
      "name": "conv_2_batchnorm_gamma", 
      "attrs": {"fix_gamma": "True"}, 
      "inputs": []
    }, 
    {
      "op": "null", 
      "name": "conv_2_batchnorm_beta", 
      "attrs": {"fix_gamma": "True"}, 
      "inputs": []
    }, 
    {
      "op": "null", 
      "name": "conv_2_batchnorm_moving_mean", 
      "attrs": {
        "__init__": "[\"zero\", {}]", 
        "fix_gamma": "True"
      }, 
      "inputs": []
    }, 
    {
      "op": "null", 
      "name": "conv_2_batchnorm_moving_var", 
      "attrs": {
        "__init__": "[\"one\", {}]", 
        "fix_gamma": "True"
      }, 
      "inputs": []
    }, 
    {
      "op": "BatchNorm", 
      "name": "conv_2_batchnorm", 
      "attrs": {"fix_gamma": "True"}, 
      "inputs": [[18, 0, 0], [19, 0, 0], [20, 0, 0], [21, 0, 1], [22, 0, 1]]
    }, 
    {
      "op": "Activation", 
      "name": "conv_2_relu", 
      "attrs": {"act_type": "relu"}, 
      "inputs": [[23, 0, 0]]
    }, 
    {
      "op": "null", 
      "name": "conv_3_dw_conv2d_weight", 
      "attrs": {
        "kernel": "(3, 3)", 
        "no_bias": "True", 
        "num_filter": "64", 
        "num_group": "64", 
        "pad": "(1, 1)", 
        "stride": "(2, 2)"
      }, 
      "inputs": []
    }, 
    {
      "op": "Convolution", 
      "name": "conv_3_dw_conv2d", 
      "attrs": {
        "kernel": "(3, 3)", 
        "no_bias": "True", 
        "num_filter": "64", 
        "num_group": "64", 
        "pad": "(1, 1)", 
        "stride": "(2, 2)"
      }, 
      "inputs": [[24, 0, 0], [25, 0, 0]]
    }, 
    {
      "op": "null", 
      "name": "conv_3_dw_batchnorm_gamma", 
      "attrs": {"fix_gamma": "True"}, 
      "inputs": []
    }, 
    {
      "op": "null", 
      "name": "conv_3_dw_batchnorm_beta", 
      "attrs": {"fix_gamma": "True"}, 
      "inputs": []
    }, 
    {
      "op": "null", 
      "name": "conv_3_dw_batchnorm_moving_mean", 
      "attrs": {
        "__init__": "[\"zero\", {}]", 
        "fix_gamma": "True"
      }, 
      "inputs": []
    }, 
    {
      "op": "null", 
      "name": "conv_3_dw_batchnorm_moving_var", 
      "attrs": {
        "__init__": "[\"one\", {}]", 
        "fix_gamma": "True"
      }, 
      "inputs": []
    }, 
    {
      "op": "BatchNorm", 
      "name": "conv_3_dw_batchnorm", 
      "attrs": {"fix_gamma": "True"}, 
      "inputs": [[26, 0, 0], [27, 0, 0], [28, 0, 0], [29, 0, 1], [30, 0, 1]]
    }, 
    {
      "op": "Activation", 
      "name": "conv_3_dw_relu", 
      "attrs": {"act_type": "relu"}, 
      "inputs": [[31, 0, 0]]
    }, 
    {
      "op": "null", 
      "name": "conv_3_conv2d_weight", 
      "attrs": {
        "kernel": "(1, 1)", 
        "no_bias": "True", 
        "num_filter": "128", 
        "num_group": "1", 
        "pad": "(0, 0)", 
        "stride": "(1, 1)"
      }, 
      "inputs": []
    }, 
    {
      "op": "Convolution", 
      "name": "conv_3_conv2d", 
      "attrs": {
        "kernel": "(1, 1)", 
        "no_bias": "True", 
        "num_filter": "128", 
        "num_group": "1", 
        "pad": "(0, 0)", 
        "stride": "(1, 1)"
      }, 
      "inputs": [[32, 0, 0], [33, 0, 0]]
    }, 
    {
      "op": "null", 
      "name": "conv_3_batchnorm_gamma", 
      "attrs": {"fix_gamma": "True"}, 
      "inputs": []
    }, 
    {
      "op": "null", 
      "name": "conv_3_batchnorm_beta", 
      "attrs": {"fix_gamma": "True"}, 
      "inputs": []
    }, 
    {
      "op": "null", 
      "name": "conv_3_batchnorm_moving_mean", 
      "attrs": {
        "__init__": "[\"zero\", {}]", 
        "fix_gamma": "True"
      }, 
      "inputs": []
    }, 
    {
      "op": "null", 
      "name": "conv_3_batchnorm_moving_var", 
      "attrs": {
        "__init__": "[\"one\", {}]", 
        "fix_gamma": "True"
      }, 
      "inputs": []
    }, 
    {
      "op": "BatchNorm", 
      "name": "conv_3_batchnorm", 
      "attrs": {"fix_gamma": "True"}, 
      "inputs": [[34, 0, 0], [35, 0, 0], [36, 0, 0], [37, 0, 1], [38, 0, 1]]
    }, 
    {
      "op": "Activation", 
      "name": "conv_3_relu", 
      "attrs": {"act_type": "relu"}, 
      "inputs": [[39, 0, 0]]
    }, 
    {
      "op": "null", 
      "name": "conv_4_dw_conv2d_weight", 
      "attrs": {
        "kernel": "(3, 3)", 
        "no_bias": "True", 
        "num_filter": "128", 
        "num_group": "128", 
        "pad": "(1, 1)", 
        "stride": "(1, 1)"
      }, 
      "inputs": []
    }, 
    {
      "op": "Convolution", 
      "name": "conv_4_dw_conv2d", 
      "attrs": {
        "kernel": "(3, 3)", 
        "no_bias": "True", 
        "num_filter": "128", 
        "num_group": "128", 
        "pad": "(1, 1)", 
        "stride": "(1, 1)"
      }, 
      "inputs": [[40, 0, 0], [41, 0, 0]]
    }, 
    {
      "op": "null", 
      "name": "conv_4_dw_batchnorm_gamma", 
      "attrs": {"fix_gamma": "True"}, 
      "inputs": []
    }, 
    {
      "op": "null", 
      "name": "conv_4_dw_batchnorm_beta", 
      "attrs": {"fix_gamma": "True"}, 
      "inputs": []
    }, 
    {
      "op": "null", 
      "name": "conv_4_dw_batchnorm_moving_mean", 
      "attrs": {
        "__init__": "[\"zero\", {}]", 
        "fix_gamma": "True"
      }, 
      "inputs": []
    }, 
    {
      "op": "null", 
      "name": "conv_4_dw_batchnorm_moving_var", 
      "attrs": {
        "__init__": "[\"one\", {}]", 
        "fix_gamma": "True"
      }, 
      "inputs": []
    }, 
    {
      "op": "BatchNorm", 
      "name": "conv_4_dw_batchnorm", 
      "attrs": {"fix_gamma": "True"}, 
      "inputs": [[42, 0, 0], [43, 0, 0], [44, 0, 0], [45, 0, 1], [46, 0, 1]]
    }, 
    {
      "op": "Activation", 
      "name": "conv_4_dw_relu", 
      "attrs": {"act_type": "relu"}, 
      "inputs": [[47, 0, 0]]
    }, 
    {
      "op": "null", 
      "name": "conv_4_conv2d_weight", 
      "attrs": {
        "kernel": "(1, 1)", 
        "no_bias": "True", 
        "num_filter": "128", 
        "num_group": "1", 
        "pad": "(0, 0)", 
        "stride": "(1, 1)"
      }, 
      "inputs": []
    }, 
    {
      "op": "Convolution", 
      "name": "conv_4_conv2d", 
      "attrs": {
        "kernel": "(1, 1)", 
        "no_bias": "True", 
        "num_filter": "128", 
        "num_group": "1", 
        "pad": "(0, 0)", 
        "stride": "(1, 1)"
      }, 
      "inputs": [[48, 0, 0], [49, 0, 0]]
    }, 
    {
      "op": "null", 
      "name": "conv_4_batchnorm_gamma", 
      "attrs": {"fix_gamma": "True"}, 
      "inputs": []
    }, 
    {
      "op": "null", 
      "name": "conv_4_batchnorm_beta", 
      "attrs": {"fix_gamma": "True"}, 
      "inputs": []
    }, 
    {
      "op": "null", 
      "name": "conv_4_batchnorm_moving_mean", 
      "attrs": {
        "__init__": "[\"zero\", {}]", 
        "fix_gamma": "True"
      }, 
      "inputs": []
    }, 
    {
      "op": "null", 
      "name": "conv_4_batchnorm_moving_var", 
      "attrs": {
        "__init__": "[\"one\", {}]", 
        "fix_gamma": "True"
      }, 
      "inputs": []
    }, 
    {
      "op": "BatchNorm", 
      "name": "conv_4_batchnorm", 
      "attrs": {"fix_gamma": "True"}, 
      "inputs": [[50, 0, 0], [51, 0, 0], [52, 0, 0], [53, 0, 1], [54, 0, 1]]
    }, 
    {
      "op": "Activation", 
      "name": "conv_4_relu", 
      "attrs": {"act_type": "relu"}, 
      "inputs": [[55, 0, 0]]
    }, 
    {
      "op": "null", 
      "name": "conv_5_dw_conv2d_weight", 
      "attrs": {
        "kernel": "(3, 3)", 
        "no_bias": "True", 
        "num_filter": "128", 
        "num_group": "128", 
        "pad": "(1, 1)", 
        "stride": "(2, 2)"
      }, 
      "inputs": []
    }, 
    {
      "op": "Convolution", 
      "name": "conv_5_dw_conv2d", 
      "attrs": {
        "kernel": "(3, 3)", 
        "no_bias": "True", 
        "num_filter": "128", 
        "num_group": "128", 
        "pad": "(1, 1)", 
        "stride": "(2, 2)"
      }, 
      "inputs": [[56, 0, 0], [57, 0, 0]]
    }, 
    {
      "op": "null", 
      "name": "conv_5_dw_batchnorm_gamma", 
      "attrs": {"fix_gamma": "True"}, 
      "inputs": []
    }, 
    {
      "op": "null", 
      "name": "conv_5_dw_batchnorm_beta", 
      "attrs": {"fix_gamma": "True"}, 
      "inputs": []
    }, 
    {
      "op": "null", 
      "name": "conv_5_dw_batchnorm_moving_mean", 
      "attrs": {
        "__init__": "[\"zero\", {}]", 
        "fix_gamma": "True"
      }, 
      "inputs": []
    }, 
    {
      "op": "null", 
      "name": "conv_5_dw_batchnorm_moving_var", 
      "attrs": {
        "__init__": "[\"one\", {}]", 
        "fix_gamma": "True"
      }, 
      "inputs": []
    }, 
    {
      "op": "BatchNorm", 
      "name": "conv_5_dw_batchnorm", 
      "attrs": {"fix_gamma": "True"}, 
      "inputs": [[58, 0, 0], [59, 0, 0], [60, 0, 0], [61, 0, 1], [62, 0, 1]]
    }, 
    {
      "op": "Activation", 
      "name": "conv_5_dw_relu", 
      "attrs": {"act_type": "relu"}, 
      "inputs": [[63, 0, 0]]
    }, 
    {
      "op": "null", 
      "name": "conv_5_conv2d_weight", 
      "attrs": {
        "kernel": "(1, 1)", 
        "no_bias": "True", 
        "num_filter": "256", 
        "num_group": "1", 
        "pad": "(0, 0)", 
        "stride": "(1, 1)"
      }, 
      "inputs": []
    }, 
    {
      "op": "Convolution", 
      "name": "conv_5_conv2d", 
      "attrs": {
        "kernel": "(1, 1)", 
        "no_bias": "True", 
        "num_filter": "256", 
        "num_group": "1", 
        "pad": "(0, 0)", 
        "stride": "(1, 1)"
      }, 
      "inputs": [[64, 0, 0], [65, 0, 0]]
    }, 
    {
      "op": "null", 
      "name": "conv_5_batchnorm_gamma", 
      "attrs": {"fix_gamma": "True"}, 
      "inputs": []
    }, 
    {
      "op": "null", 
      "name": "conv_5_batchnorm_beta", 
      "attrs": {"fix_gamma": "True"}, 
      "inputs": []
    }, 
    {
      "op": "null", 
      "name": "conv_5_batchnorm_moving_mean", 
      "attrs": {
        "__init__": "[\"zero\", {}]", 
        "fix_gamma": "True"
      }, 
      "inputs": []
    }, 
    {
      "op": "null", 
      "name": "conv_5_batchnorm_moving_var", 
      "attrs": {
        "__init__": "[\"one\", {}]", 
        "fix_gamma": "True"
      }, 
      "inputs": []
    }, 
    {
      "op": "BatchNorm", 
      "name": "conv_5_batchnorm", 
      "attrs": {"fix_gamma": "True"}, 
      "inputs": [[66, 0, 0], [67, 0, 0], [68, 0, 0], [69, 0, 1], [70, 0, 1]]
    }, 
    {
      "op": "Activation", 
      "name": "conv_5_relu", 
      "attrs": {"act_type": "relu"}, 
      "inputs": [[71, 0, 0]]
    }, 
    {
      "op": "null", 
      "name": "conv_6_dw_conv2d_weight", 
      "attrs": {
        "kernel": "(3, 3)", 
        "no_bias": "True", 
        "num_filter": "256", 
        "num_group": "256", 
        "pad": "(1, 1)", 
        "stride": "(1, 1)"
      }, 
      "inputs": []
    }, 
    {
      "op": "Convolution", 
      "name": "conv_6_dw_conv2d", 
      "attrs": {
        "kernel": "(3, 3)", 
        "no_bias": "True", 
        "num_filter": "256", 
        "num_group": "256", 
        "pad": "(1, 1)", 
        "stride": "(1, 1)"
      }, 
      "inputs": [[72, 0, 0], [73, 0, 0]]
    }, 
    {
      "op": "null", 
      "name": "conv_6_dw_batchnorm_gamma", 
      "attrs": {"fix_gamma": "True"}, 
      "inputs": []
    }, 
    {
      "op": "null", 
      "name": "conv_6_dw_batchnorm_beta", 
      "attrs": {"fix_gamma": "True"}, 
      "inputs": []
    }, 
    {
      "op": "null", 
      "name": "conv_6_dw_batchnorm_moving_mean", 
      "attrs": {
        "__init__": "[\"zero\", {}]", 
        "fix_gamma": "True"
      }, 
      "inputs": []
    }, 
    {
      "op": "null", 
      "name": "conv_6_dw_batchnorm_moving_var", 
      "attrs": {
        "__init__": "[\"one\", {}]", 
        "fix_gamma": "True"
      }, 
      "inputs": []
    }, 
    {
      "op": "BatchNorm", 
      "name": "conv_6_dw_batchnorm", 
      "attrs": {"fix_gamma": "True"}, 
      "inputs": [[74, 0, 0], [75, 0, 0], [76, 0, 0], [77, 0, 1], [78, 0, 1]]
    }, 
    {
      "op": "Activation", 
      "name": "conv_6_dw_relu", 
      "attrs": {"act_type": "relu"}, 
      "inputs": [[79, 0, 0]]
    }, 
    {
      "op": "null", 
      "name": "conv_6_conv2d_weight", 
      "attrs": {
        "kernel": "(1, 1)", 
        "no_bias": "True", 
        "num_filter": "256", 
        "num_group": "1", 
        "pad": "(0, 0)", 
        "stride": "(1, 1)"
      }, 
      "inputs": []
    }, 
    {
      "op": "Convolution", 
      "name": "conv_6_conv2d", 
      "attrs": {
        "kernel": "(1, 1)", 
        "no_bias": "True", 
        "num_filter": "256", 
        "num_group": "1", 
        "pad": "(0, 0)", 
        "stride": "(1, 1)"
      }, 
      "inputs": [[80, 0, 0], [81, 0, 0]]
    }, 
    {
      "op": "null", 
      "name": "conv_6_batchnorm_gamma", 
      "attrs": {"fix_gamma": "True"}, 
      "inputs": []
    }, 
    {
      "op": "null", 
      "name": "conv_6_batchnorm_beta", 
      "attrs": {"fix_gamma": "True"}, 
      "inputs": []
    }, 
    {
      "op": "null", 
      "name": "conv_6_batchnorm_moving_mean", 
      "attrs": {
        "__init__": "[\"zero\", {}]", 
        "fix_gamma": "True"
      }, 
      "inputs": []
    }, 
    {
      "op": "null", 
      "name": "conv_6_batchnorm_moving_var", 
      "attrs": {
        "__init__": "[\"one\", {}]", 
        "fix_gamma": "True"
      }, 
      "inputs": []
    }, 
    {
      "op": "BatchNorm", 
      "name": "conv_6_batchnorm", 
      "attrs": {"fix_gamma": "True"}, 
      "inputs": [[82, 0, 0], [83, 0, 0], [84, 0, 0], [85, 0, 1], [86, 0, 1]]
    }, 
    {
      "op": "Activation", 
      "name": "conv_6_relu", 
      "attrs": {"act_type": "relu"}, 
      "inputs": [[87, 0, 0]]
    }, 
    {
      "op": "null", 
      "name": "conv_7_dw_conv2d_weight", 
      "attrs": {
        "kernel": "(3, 3)", 
        "no_bias": "True", 
        "num_filter": "256", 
        "num_group": "256", 
        "pad": "(1, 1)", 
        "stride": "(2, 2)"
      }, 
      "inputs": []
    }, 
    {
      "op": "Convolution", 
      "name": "conv_7_dw_conv2d", 
      "attrs": {
        "kernel": "(3, 3)", 
        "no_bias": "True", 
        "num_filter": "256", 
        "num_group": "256", 
        "pad": "(1, 1)", 
        "stride": "(2, 2)"
      }, 
      "inputs": [[88, 0, 0], [89, 0, 0]]
    }, 
    {
      "op": "null", 
      "name": "conv_7_dw_batchnorm_gamma", 
      "attrs": {"fix_gamma": "True"}, 
      "inputs": []
    }, 
    {
      "op": "null", 
      "name": "conv_7_dw_batchnorm_beta", 
      "attrs": {"fix_gamma": "True"}, 
      "inputs": []
    }, 
    {
      "op": "null", 
      "name": "conv_7_dw_batchnorm_moving_mean", 
      "attrs": {
        "__init__": "[\"zero\", {}]", 
        "fix_gamma": "True"
      }, 
      "inputs": []
    }, 
    {
      "op": "null", 
      "name": "conv_7_dw_batchnorm_moving_var", 
      "attrs": {
        "__init__": "[\"one\", {}]", 
        "fix_gamma": "True"
      }, 
      "inputs": []
    }, 
    {
      "op": "BatchNorm", 
      "name": "conv_7_dw_batchnorm", 
      "attrs": {"fix_gamma": "True"}, 
      "inputs": [[90, 0, 0], [91, 0, 0], [92, 0, 0], [93, 0, 1], [94, 0, 1]]
    }, 
    {
      "op": "Activation", 
      "name": "conv_7_dw_relu", 
      "attrs": {"act_type": "relu"}, 
      "inputs": [[95, 0, 0]]
    }, 
    {
      "op": "null", 
      "name": "conv_7_conv2d_weight", 
      "attrs": {
        "kernel": "(1, 1)", 
        "no_bias": "True", 
        "num_filter": "512", 
        "num_group": "1", 
        "pad": "(0, 0)", 
        "stride": "(1, 1)"
      }, 
      "inputs": []
    }, 
    {
      "op": "Convolution", 
      "name": "conv_7_conv2d", 
      "attrs": {
        "kernel": "(1, 1)", 
        "no_bias": "True", 
        "num_filter": "512", 
        "num_group": "1", 
        "pad": "(0, 0)", 
        "stride": "(1, 1)"
      }, 
      "inputs": [[96, 0, 0], [97, 0, 0]]
    }, 
    {
      "op": "null", 
      "name": "conv_7_batchnorm_gamma", 
      "attrs": {"fix_gamma": "True"}, 
      "inputs": []
    }, 
    {
      "op": "null", 
      "name": "conv_7_batchnorm_beta", 
      "attrs": {"fix_gamma": "True"}, 
      "inputs": []
    }, 
    {
      "op": "null", 
      "name": "conv_7_batchnorm_moving_mean", 
      "attrs": {
        "__init__": "[\"zero\", {}]", 
        "fix_gamma": "True"
      }, 
      "inputs": []
    }, 
    {
      "op": "null", 
      "name": "conv_7_batchnorm_moving_var", 
      "attrs": {
        "__init__": "[\"one\", {}]", 
        "fix_gamma": "True"
      }, 
      "inputs": []
    }, 
    {
      "op": "BatchNorm", 
      "name": "conv_7_batchnorm", 
      "attrs": {"fix_gamma": "True"}, 
      "inputs": [[98, 0, 0], [99, 0, 0], [100, 0, 0], [101, 0, 1], [102, 0, 1]]
    }, 
    {
      "op": "Activation", 
      "name": "conv_7_relu", 
      "attrs": {"act_type": "relu"}, 
      "inputs": [[103, 0, 0]]
    }, 
    {
      "op": "null", 
      "name": "conv_7_relu_cls_pred_conv_weight", 
      "attrs": {
        "kernel": "(3, 3)", 
        "num_filter": "20", 
        "pad": "(1, 1)", 
        "stride": "(1, 1)"
      }, 
      "inputs": []
    }, 
    {
      "op": "null", 
      "name": "conv_7_relu_cls_pred_conv_bias", 
      "attrs": {
        "__init__": "[\"constant\", {\"value\": 0.0}]", 
        "__lr_mult__": "2.0"
      }, 
      "inputs": []
    }, 
    {
      "op": "Convolution", 
      "name": "conv_7_relu_cls_pred_conv", 
      "attrs": {
        "kernel": "(3, 3)", 
        "num_filter": "20", 
        "pad": "(1, 1)", 
        "stride": "(1, 1)"
      }, 
      "inputs": [[104, 0, 0], [105, 0, 0], [106, 0, 0]]
    }, 
    {
      "op": "transpose", 
      "name": "transpose1", 
      "attrs": {"axes": "(0, 2, 3, 1)"}, 
      "inputs": [[107, 0, 0]]
    }, 
    {
      "op": "Flatten", 
      "name": "flatten1", 
      "inputs": [[108, 0, 0]]
    }, 
    {
      "op": "null", 
      "name": "multi_feat_1_conv_1x1_conv_weight", 
      "attrs": {
        "kernel": "(1, 1)", 
        "num_filter": "256", 
        "pad": "(0, 0)", 
        "stride": "(1, 1)"
      }, 
      "inputs": []
    }, 
    {
      "op": "null", 
      "name": "multi_feat_1_conv_1x1_conv_bias", 
      "attrs": {
        "__init__": "[\"constant\", {\"value\": 0.0}]", 
        "__lr_mult__": "2.0"
      }, 
      "inputs": []
    }, 
    {
      "op": "Convolution", 
      "name": "multi_feat_1_conv_1x1_conv", 
      "attrs": {
        "kernel": "(1, 1)", 
        "num_filter": "256", 
        "pad": "(0, 0)", 
        "stride": "(1, 1)"
      }, 
      "inputs": [[104, 0, 0], [110, 0, 0], [111, 0, 0]]
    }, 
    {
      "op": "Activation", 
      "name": "multi_feat_1_conv_1x1_relu", 
      "attrs": {"act_type": "relu"}, 
      "inputs": [[112, 0, 0]]
    }, 
    {
      "op": "null", 
      "name": "multi_feat_1_conv_3x3_conv_weight", 
      "attrs": {
        "kernel": "(3, 3)", 
        "num_filter": "512", 
        "pad": "(1, 1)", 
        "stride": "(2, 2)"
      }, 
      "inputs": []
    }, 
    {
      "op": "null", 
      "name": "multi_feat_1_conv_3x3_conv_bias", 
      "attrs": {
        "__init__": "[\"constant\", {\"value\": 0.0}]", 
        "__lr_mult__": "2.0"
      }, 
      "inputs": []
    }, 
    {
      "op": "Convolution", 
      "name": "multi_feat_1_conv_3x3_conv", 
      "attrs": {
        "kernel": "(3, 3)", 
        "num_filter": "512", 
        "pad": "(1, 1)", 
        "stride": "(2, 2)"
      }, 
      "inputs": [[113, 0, 0], [114, 0, 0], [115, 0, 0]]
    }, 
    {
      "op": "Activation", 
      "name": "multi_feat_1_conv_3x3_relu", 
      "attrs": {"act_type": "relu"}, 
      "inputs": [[116, 0, 0]]
    }, 
    {
      "op": "null", 
      "name": "multi_feat_1_conv_3x3_relu_cls_pred_conv_weight", 
      "attrs": {
        "kernel": "(3, 3)", 
        "num_filter": "30", 
        "pad": "(1, 1)", 
        "stride": "(1, 1)"
      }, 
      "inputs": []
    }, 
    {
      "op": "null", 
      "name": "multi_feat_1_conv_3x3_relu_cls_pred_conv_bias", 
      "attrs": {
        "__init__": "[\"constant\", {\"value\": 0.0}]", 
        "__lr_mult__": "2.0"
      }, 
      "inputs": []
    }, 
    {
      "op": "Convolution", 
      "name": "multi_feat_1_conv_3x3_relu_cls_pred_conv", 
      "attrs": {
        "kernel": "(3, 3)", 
        "num_filter": "30", 
        "pad": "(1, 1)", 
        "stride": "(1, 1)"
      }, 
      "inputs": [[117, 0, 0], [118, 0, 0], [119, 0, 0]]
    }, 
    {
      "op": "transpose", 
      "name": "transpose3", 
      "attrs": {"axes": "(0, 2, 3, 1)"}, 
      "inputs": [[120, 0, 0]]
    }, 
    {
      "op": "Flatten", 
      "name": "flatten4", 
      "inputs": [[121, 0, 0]]
    }, 
    {
      "op": "null", 
      "name": "multi_feat_2_conv_1x1_conv_weight", 
      "attrs": {
        "kernel": "(1, 1)", 
        "num_filter": "256", 
        "pad": "(0, 0)", 
        "stride": "(1, 1)"
      }, 
      "inputs": []
    }, 
    {
      "op": "null", 
      "name": "multi_feat_2_conv_1x1_conv_bias", 
      "attrs": {
        "__init__": "[\"constant\", {\"value\": 0.0}]", 
        "__lr_mult__": "2.0"
      }, 
      "inputs": []
    }, 
    {
      "op": "Convolution", 
      "name": "multi_feat_2_conv_1x1_conv", 
      "attrs": {
        "kernel": "(1, 1)", 
        "num_filter": "256", 
        "pad": "(0, 0)", 
        "stride": "(1, 1)"
      }, 
      "inputs": [[117, 0, 0], [123, 0, 0], [124, 0, 0]]
    }, 
    {
      "op": "Activation", 
      "name": "multi_feat_2_conv_1x1_relu", 
      "attrs": {"act_type": "relu"}, 
      "inputs": [[125, 0, 0]]
    }, 
    {
      "op": "null", 
      "name": "multi_feat_2_conv_3x3_conv_weight", 
      "attrs": {
        "kernel": "(3, 3)", 
        "num_filter": "512", 
        "pad": "(1, 1)", 
        "stride": "(2, 2)"
      }, 
      "inputs": []
    }, 
    {
      "op": "null", 
      "name": "multi_feat_2_conv_3x3_conv_bias", 
      "attrs": {
        "__init__": "[\"constant\", {\"value\": 0.0}]", 
        "__lr_mult__": "2.0"
      }, 
      "inputs": []
    }, 
    {
      "op": "Convolution", 
      "name": "multi_feat_2_conv_3x3_conv", 
      "attrs": {
        "kernel": "(3, 3)", 
        "num_filter": "512", 
        "pad": "(1, 1)", 
        "stride": "(2, 2)"
      }, 
      "inputs": [[126, 0, 0], [127, 0, 0], [128, 0, 0]]
    }, 
    {
      "op": "Activation", 
      "name": "multi_feat_2_conv_3x3_relu", 
      "attrs": {"act_type": "relu"}, 
      "inputs": [[129, 0, 0]]
    }, 
    {
      "op": "null", 
      "name": "multi_feat_2_conv_3x3_relu_cls_pred_conv_weight", 
      "attrs": {
        "kernel": "(3, 3)", 
        "num_filter": "30", 
        "pad": "(1, 1)", 
        "stride": "(1, 1)"
      }, 
      "inputs": []
    }, 
    {
      "op": "null", 
      "name": "multi_feat_2_conv_3x3_relu_cls_pred_conv_bias", 
      "attrs": {
        "__init__": "[\"constant\", {\"value\": 0.0}]", 
        "__lr_mult__": "2.0"
      }, 
      "inputs": []
    }, 
    {
      "op": "Convolution", 
      "name": "multi_feat_2_conv_3x3_relu_cls_pred_conv", 
      "attrs": {
        "kernel": "(3, 3)", 
        "num_filter": "30", 
        "pad": "(1, 1)", 
        "stride": "(1, 1)"
      }, 
      "inputs": [[130, 0, 0], [131, 0, 0], [132, 0, 0]]
    }, 
    {
      "op": "transpose", 
      "name": "transpose5", 
      "attrs": {"axes": "(0, 2, 3, 1)"}, 
      "inputs": [[133, 0, 0]]
    }, 
    {
      "op": "Flatten", 
      "name": "flatten7", 
      "inputs": [[134, 0, 0]]
    }, 
    {
      "op": "null", 
      "name": "multi_feat_3_conv_1x1_conv_weight", 
      "attrs": {
        "kernel": "(1, 1)", 
        "num_filter": "128", 
        "pad": "(0, 0)", 
        "stride": "(1, 1)"
      }, 
      "inputs": []
    }, 
    {
      "op": "null", 
      "name": "multi_feat_3_conv_1x1_conv_bias", 
      "attrs": {
        "__init__": "[\"constant\", {\"value\": 0.0}]", 
        "__lr_mult__": "2.0"
      }, 
      "inputs": []
    }, 
    {
      "op": "Convolution", 
      "name": "multi_feat_3_conv_1x1_conv", 
      "attrs": {
        "kernel": "(1, 1)", 
        "num_filter": "128", 
        "pad": "(0, 0)", 
        "stride": "(1, 1)"
      }, 
      "inputs": [[130, 0, 0], [136, 0, 0], [137, 0, 0]]
    }, 
    {
      "op": "Activation", 
      "name": "multi_feat_3_conv_1x1_relu", 
      "attrs": {"act_type": "relu"}, 
      "inputs": [[138, 0, 0]]
    }, 
    {
      "op": "null", 
      "name": "multi_feat_3_conv_3x3_conv_weight", 
      "attrs": {
        "kernel": "(3, 3)", 
        "num_filter": "256", 
        "pad": "(1, 1)", 
        "stride": "(2, 2)"
      }, 
      "inputs": []
    }, 
    {
      "op": "null", 
      "name": "multi_feat_3_conv_3x3_conv_bias", 
      "attrs": {
        "__init__": "[\"constant\", {\"value\": 0.0}]", 
        "__lr_mult__": "2.0"
      }, 
      "inputs": []
    }, 
    {
      "op": "Convolution", 
      "name": "multi_feat_3_conv_3x3_conv", 
      "attrs": {
        "kernel": "(3, 3)", 
        "num_filter": "256", 
        "pad": "(1, 1)", 
        "stride": "(2, 2)"
      }, 
      "inputs": [[139, 0, 0], [140, 0, 0], [141, 0, 0]]
    }, 
    {
      "op": "Activation", 
      "name": "multi_feat_3_conv_3x3_relu", 
      "attrs": {"act_type": "relu"}, 
      "inputs": [[142, 0, 0]]
    }, 
    {
      "op": "null", 
      "name": "multi_feat_3_conv_3x3_relu_cls_pred_conv_weight", 
      "attrs": {
        "kernel": "(3, 3)", 
        "num_filter": "30", 
        "pad": "(1, 1)", 
        "stride": "(1, 1)"
      }, 
      "inputs": []
    }, 
    {
      "op": "null", 
      "name": "multi_feat_3_conv_3x3_relu_cls_pred_conv_bias", 
      "attrs": {
        "__init__": "[\"constant\", {\"value\": 0.0}]", 
        "__lr_mult__": "2.0"
      }, 
      "inputs": []
    }, 
    {
      "op": "Convolution", 
      "name": "multi_feat_3_conv_3x3_relu_cls_pred_conv", 
      "attrs": {
        "kernel": "(3, 3)", 
        "num_filter": "30", 
        "pad": "(1, 1)", 
        "stride": "(1, 1)"
      }, 
      "inputs": [[143, 0, 0], [144, 0, 0], [145, 0, 0]]
    }, 
    {
      "op": "transpose", 
      "name": "transpose7", 
      "attrs": {"axes": "(0, 2, 3, 1)"}, 
      "inputs": [[146, 0, 0]]
    }, 
    {
      "op": "Flatten", 
      "name": "flatten10", 
      "inputs": [[147, 0, 0]]
    }, 
    {
      "op": "null", 
      "name": "multi_feat_4_conv_1x1_conv_weight", 
      "attrs": {
        "kernel": "(1, 1)", 
        "num_filter": "128", 
        "pad": "(0, 0)", 
        "stride": "(1, 1)"
      }, 
      "inputs": []
    }, 
    {
      "op": "null", 
      "name": "multi_feat_4_conv_1x1_conv_bias", 
      "attrs": {
        "__init__": "[\"constant\", {\"value\": 0.0}]", 
        "__lr_mult__": "2.0"
      }, 
      "inputs": []
    }, 
    {
      "op": "Convolution", 
      "name": "multi_feat_4_conv_1x1_conv", 
      "attrs": {
        "kernel": "(1, 1)", 
        "num_filter": "128", 
        "pad": "(0, 0)", 
        "stride": "(1, 1)"
      }, 
      "inputs": [[143, 0, 0], [149, 0, 0], [150, 0, 0]]
    }, 
    {
      "op": "Activation", 
      "name": "multi_feat_4_conv_1x1_relu", 
      "attrs": {"act_type": "relu"}, 
      "inputs": [[151, 0, 0]]
    }, 
    {
      "op": "null", 
      "name": "multi_feat_4_conv_3x3_conv_weight", 
      "attrs": {
        "kernel": "(3, 3)", 
        "num_filter": "256", 
        "pad": "(1, 1)", 
        "stride": "(2, 2)"
      }, 
      "inputs": []
    }, 
    {
      "op": "null", 
      "name": "multi_feat_4_conv_3x3_conv_bias", 
      "attrs": {
        "__init__": "[\"constant\", {\"value\": 0.0}]", 
        "__lr_mult__": "2.0"
      }, 
      "inputs": []
    }, 
    {
      "op": "Convolution", 
      "name": "multi_feat_4_conv_3x3_conv", 
      "attrs": {
        "kernel": "(3, 3)", 
        "num_filter": "256", 
        "pad": "(1, 1)", 
        "stride": "(2, 2)"
      }, 
      "inputs": [[152, 0, 0], [153, 0, 0], [154, 0, 0]]
    }, 
    {
      "op": "Activation", 
      "name": "multi_feat_4_conv_3x3_relu", 
      "attrs": {"act_type": "relu"}, 
      "inputs": [[155, 0, 0]]
    }, 
    {
      "op": "null", 
      "name": "multi_feat_4_conv_3x3_relu_cls_pred_conv_weight", 
      "attrs": {
        "kernel": "(3, 3)", 
        "num_filter": "30", 
        "pad": "(1, 1)", 
        "stride": "(1, 1)"
      }, 
      "inputs": []
    }, 
    {
      "op": "null", 
      "name": "multi_feat_4_conv_3x3_relu_cls_pred_conv_bias", 
      "attrs": {
        "__init__": "[\"constant\", {\"value\": 0.0}]", 
        "__lr_mult__": "2.0"
      }, 
      "inputs": []
    }, 
    {
      "op": "Convolution", 
      "name": "multi_feat_4_conv_3x3_relu_cls_pred_conv", 
      "attrs": {
        "kernel": "(3, 3)", 
        "num_filter": "30", 
        "pad": "(1, 1)", 
        "stride": "(1, 1)"
      }, 
      "inputs": [[156, 0, 0], [157, 0, 0], [158, 0, 0]]
    }, 
    {
      "op": "transpose", 
      "name": "transpose9", 
      "attrs": {"axes": "(0, 2, 3, 1)"}, 
      "inputs": [[159, 0, 0]]
    }, 
    {
      "op": "Flatten", 
      "name": "flatten13", 
      "inputs": [[160, 0, 0]]
    }, 
    {
      "op": "null", 
      "name": "multi_feat_5_conv_1x1_conv_weight", 
      "attrs": {
        "kernel": "(1, 1)", 
        "num_filter": "128", 
        "pad": "(0, 0)", 
        "stride": "(1, 1)"
      }, 
      "inputs": []
    }, 
    {
      "op": "null", 
      "name": "multi_feat_5_conv_1x1_conv_bias", 
      "attrs": {
        "__init__": "[\"constant\", {\"value\": 0.0}]", 
        "__lr_mult__": "2.0"
      }, 
      "inputs": []
    }, 
    {
      "op": "Convolution", 
      "name": "multi_feat_5_conv_1x1_conv", 
      "attrs": {
        "kernel": "(1, 1)", 
        "num_filter": "128", 
        "pad": "(0, 0)", 
        "stride": "(1, 1)"
      }, 
      "inputs": [[156, 0, 0], [162, 0, 0], [163, 0, 0]]
    }, 
    {
      "op": "Activation", 
      "name": "multi_feat_5_conv_1x1_relu", 
      "attrs": {"act_type": "relu"}, 
      "inputs": [[164, 0, 0]]
    }, 
    {
      "op": "null", 
      "name": "multi_feat_5_conv_3x3_conv_weight", 
      "attrs": {
        "kernel": "(3, 3)", 
        "num_filter": "256", 
        "pad": "(1, 1)", 
        "stride": "(2, 2)"
      }, 
      "inputs": []
    }, 
    {
      "op": "null", 
      "name": "multi_feat_5_conv_3x3_conv_bias", 
      "attrs": {
        "__init__": "[\"constant\", {\"value\": 0.0}]", 
        "__lr_mult__": "2.0"
      }, 
      "inputs": []
    }, 
    {
      "op": "Convolution", 
      "name": "multi_feat_5_conv_3x3_conv", 
      "attrs": {
        "kernel": "(3, 3)", 
        "num_filter": "256", 
        "pad": "(1, 1)", 
        "stride": "(2, 2)"
      }, 
      "inputs": [[165, 0, 0], [166, 0, 0], [167, 0, 0]]
    }, 
    {
      "op": "Activation", 
      "name": "multi_feat_5_conv_3x3_relu", 
      "attrs": {"act_type": "relu"}, 
      "inputs": [[168, 0, 0]]
    }, 
    {
      "op": "null", 
      "name": "multi_feat_5_conv_3x3_relu_cls_pred_conv_weight", 
      "attrs": {
        "kernel": "(3, 3)", 
        "num_filter": "20", 
        "pad": "(1, 1)", 
        "stride": "(1, 1)"
      }, 
      "inputs": []
    }, 
    {
      "op": "null", 
      "name": "multi_feat_5_conv_3x3_relu_cls_pred_conv_bias", 
      "attrs": {
        "__init__": "[\"constant\", {\"value\": 0.0}]", 
        "__lr_mult__": "2.0"
      }, 
      "inputs": []
    }, 
    {
      "op": "Convolution", 
      "name": "multi_feat_5_conv_3x3_relu_cls_pred_conv", 
      "attrs": {
        "kernel": "(3, 3)", 
        "num_filter": "20", 
        "pad": "(1, 1)", 
        "stride": "(1, 1)"
      }, 
      "inputs": [[169, 0, 0], [170, 0, 0], [171, 0, 0]]
    }, 
    {
      "op": "transpose", 
      "name": "transpose11", 
      "attrs": {"axes": "(0, 2, 3, 1)"}, 
      "inputs": [[172, 0, 0]]
    }, 
    {
      "op": "Flatten", 
      "name": "flatten16", 
      "inputs": [[173, 0, 0]]
    }, 
    {
      "op": "null", 
      "name": "multi_feat_6_conv_1x1_conv_weight", 
      "attrs": {
        "kernel": "(1, 1)", 
        "num_filter": "128", 
        "pad": "(0, 0)", 
        "stride": "(1, 1)"
      }, 
      "inputs": []
    }, 
    {
      "op": "null", 
      "name": "multi_feat_6_conv_1x1_conv_bias", 
      "attrs": {
        "__init__": "[\"constant\", {\"value\": 0.0}]", 
        "__lr_mult__": "2.0"
      }, 
      "inputs": []
    }, 
    {
      "op": "Convolution", 
      "name": "multi_feat_6_conv_1x1_conv", 
      "attrs": {
        "kernel": "(1, 1)", 
        "num_filter": "128", 
        "pad": "(0, 0)", 
        "stride": "(1, 1)"
      }, 
      "inputs": [[169, 0, 0], [175, 0, 0], [176, 0, 0]]
    }, 
    {
      "op": "Activation", 
      "name": "multi_feat_6_conv_1x1_relu", 
      "attrs": {"act_type": "relu"}, 
      "inputs": [[177, 0, 0]]
    }, 
    {
      "op": "null", 
      "name": "multi_feat_6_conv_3x3_conv_weight", 
      "attrs": {
        "kernel": "(3, 3)", 
        "num_filter": "256", 
        "pad": "(1, 1)", 
        "stride": "(2, 2)"
      }, 
      "inputs": []
    }, 
    {
      "op": "null", 
      "name": "multi_feat_6_conv_3x3_conv_bias", 
      "attrs": {
        "__init__": "[\"constant\", {\"value\": 0.0}]", 
        "__lr_mult__": "2.0"
      }, 
      "inputs": []
    }, 
    {
      "op": "Convolution", 
      "name": "multi_feat_6_conv_3x3_conv", 
      "attrs": {
        "kernel": "(3, 3)", 
        "num_filter": "256", 
        "pad": "(1, 1)", 
        "stride": "(2, 2)"
      }, 
      "inputs": [[178, 0, 0], [179, 0, 0], [180, 0, 0]]
    }, 
    {
      "op": "Activation", 
      "name": "multi_feat_6_conv_3x3_relu", 
      "attrs": {"act_type": "relu"}, 
      "inputs": [[181, 0, 0]]
    }, 
    {
      "op": "null", 
      "name": "multi_feat_6_conv_3x3_relu_cls_pred_conv_weight", 
      "attrs": {
        "kernel": "(3, 3)", 
        "num_filter": "20", 
        "pad": "(1, 1)", 
        "stride": "(1, 1)"
      }, 
      "inputs": []
    }, 
    {
      "op": "null", 
      "name": "multi_feat_6_conv_3x3_relu_cls_pred_conv_bias", 
      "attrs": {
        "__init__": "[\"constant\", {\"value\": 0.0}]", 
        "__lr_mult__": "2.0"
      }, 
      "inputs": []
    }, 
    {
      "op": "Convolution", 
      "name": "multi_feat_6_conv_3x3_relu_cls_pred_conv", 
      "attrs": {
        "kernel": "(3, 3)", 
        "num_filter": "20", 
        "pad": "(1, 1)", 
        "stride": "(1, 1)"
      }, 
      "inputs": [[182, 0, 0], [183, 0, 0], [184, 0, 0]]
    }, 
    {
      "op": "transpose", 
      "name": "transpose13", 
      "attrs": {"axes": "(0, 2, 3, 1)"}, 
      "inputs": [[185, 0, 0]]
    }, 
    {
      "op": "Flatten", 
      "name": "flatten19", 
      "inputs": [[186, 0, 0]]
    }, 
    {
      "op": "Concat", 
      "name": "concat0", 
      "attrs": {
        "dim": "1", 
        "num_args": "7"
      }, 
      "inputs": [[109, 0, 0], [122, 0, 0], [135, 0, 0], [148, 0, 0], [161, 0, 0], [174, 0, 0], [187, 0, 0]]
    }, 
    {
      "op": "Reshape", 
      "name": "reshape0", 
      "attrs": {"shape": "(0, -1, 5)"}, 
      "inputs": [[188, 0, 0]]
    }, 
    {
      "op": "transpose", 
      "name": "multibox_cls_pred", 
      "attrs": {"axes": "(0, 2, 1)"}, 
      "inputs": [[189, 0, 0]]
    }, 
    {
      "op": "_contrib_MultiBoxPrior", 
      "name": "conv_7_relu_anchors", 
      "attrs": {
        "clip": "False", 
        "ratios": "(1,2,0.5)", 
        "sizes": "(0.07,0.10247)", 
        "steps": "(-1.0, -1.0)"
      }, 
      "inputs": [[104, 0, 0]]
    }, 
    {
      "op": "Flatten", 
      "name": "flatten2", 
      "inputs": [[191, 0, 0]]
    }, 
    {
      "op": "_contrib_MultiBoxPrior", 
      "name": "multi_feat_1_conv_3x3_relu_anchors", 
      "attrs": {
        "clip": "False", 
        "ratios": "(1,2,0.5,3,0.333333333333)", 
        "sizes": "(0.15,0.212132)", 
        "steps": "(-1.0, -1.0)"
      }, 
      "inputs": [[117, 0, 0]]
    }, 
    {
      "op": "Flatten", 
      "name": "flatten5", 
      "inputs": [[193, 0, 0]]
    }, 
    {
      "op": "_contrib_MultiBoxPrior", 
      "name": "multi_feat_2_conv_3x3_relu_anchors", 
      "attrs": {
        "clip": "False", 
        "ratios": "(1,2,0.5,3,0.333333333333)", 
        "sizes": "(0.3,0.367423)", 
        "steps": "(-1.0, -1.0)"
      }, 
      "inputs": [[130, 0, 0]]
    }, 
    {
      "op": "Flatten", 
      "name": "flatten8", 
      "inputs": [[195, 0, 0]]
    }, 
    {
      "op": "_contrib_MultiBoxPrior", 
      "name": "multi_feat_3_conv_3x3_relu_anchors", 
      "attrs": {
        "clip": "False", 
        "ratios": "(1,2,0.5,3,0.333333333333)", 
        "sizes": "(0.45,0.519615)", 
        "steps": "(-1.0, -1.0)"
      }, 
      "inputs": [[143, 0, 0]]
    }, 
    {
      "op": "Flatten", 
      "name": "flatten11", 
      "inputs": [[197, 0, 0]]
    }, 
    {
      "op": "_contrib_MultiBoxPrior", 
      "name": "multi_feat_4_conv_3x3_relu_anchors", 
      "attrs": {
        "clip": "False", 
        "ratios": "(1,2,0.5,3,0.333333333333)", 
        "sizes": "(0.6,0.67082)", 
        "steps": "(-1.0, -1.0)"
      }, 
      "inputs": [[156, 0, 0]]
    }, 
    {
      "op": "Flatten", 
      "name": "flatten14", 
      "inputs": [[199, 0, 0]]
    }, 
    {
      "op": "_contrib_MultiBoxPrior", 
      "name": "multi_feat_5_conv_3x3_relu_anchors", 
      "attrs": {
        "clip": "False", 
        "ratios": "(1,2,0.5)", 
        "sizes": "(0.75,0.821584)", 
        "steps": "(-1.0, -1.0)"
      }, 
      "inputs": [[169, 0, 0]]
    }, 
    {
      "op": "Flatten", 
      "name": "flatten17", 
      "inputs": [[201, 0, 0]]
    }, 
    {
      "op": "_contrib_MultiBoxPrior", 
      "name": "multi_feat_6_conv_3x3_relu_anchors", 
      "attrs": {
        "clip": "False", 
        "ratios": "(1,2,0.5)", 
        "sizes": "(0.9,0.972111)", 
        "steps": "(-1.0, -1.0)"
      }, 
      "inputs": [[182, 0, 0]]
    }, 
    {
      "op": "Flatten", 
      "name": "flatten20", 
      "inputs": [[203, 0, 0]]
    }, 
    {
      "op": "Concat", 
      "name": "concat1", 
      "attrs": {
        "dim": "1", 
        "num_args": "7"
      }, 
      "inputs": [[192, 0, 0], [194, 0, 0], [196, 0, 0], [198, 0, 0], [200, 0, 0], [202, 0, 0], [204, 0, 0]]
    }, 
    {
      "op": "Reshape", 
      "name": "multibox_anchors", 
      "attrs": {"shape": "(0, -1, 4)"}, 
      "inputs": [[205, 0, 0]]
    }, 
    {
      "op": "null", 
      "name": "label", 
      "inputs": []
    }, 
    {
      "op": "_contrib_MultiBoxTarget", 
      "name": "multibox_target", 
      "attrs": {
        "ignore_label": "-1", 
        "minimum_negative_samples": "0", 
        "negative_mining_ratio": "3", 
        "negative_mining_thresh": "0.5", 
        "overlap_threshold": "0.5", 
        "variances": "(0.1, 0.1, 0.2, 0.2)"
      }, 
      "inputs": [[206, 0, 0], [207, 0, 0], [190, 0, 0]]
    }, 
    {
      "op": "SoftmaxOutput", 
      "name": "cls_prob", 
      "attrs": {
        "grad_scale": "1.0", 
        "ignore_label": "-1", 
        "multi_output": "True", 
        "normalization": "valid", 
        "use_ignore": "True"
      }, 
      "inputs": [[190, 0, 0], [208, 2, 0]]
    }, 
    {
      "op": "null", 
      "name": "conv_7_relu_loc_pred_conv_weight", 
      "attrs": {
        "kernel": "(3, 3)", 
        "num_filter": "16", 
        "pad": "(1, 1)", 
        "stride": "(1, 1)"
      }, 
      "inputs": []
    }, 
    {
      "op": "null", 
      "name": "conv_7_relu_loc_pred_conv_bias", 
      "attrs": {
        "__init__": "[\"constant\", {\"value\": 0.0}]", 
        "__lr_mult__": "2.0"
      }, 
      "inputs": []
    }, 
    {
      "op": "Convolution", 
      "name": "conv_7_relu_loc_pred_conv", 
      "attrs": {
        "kernel": "(3, 3)", 
        "num_filter": "16", 
        "pad": "(1, 1)", 
        "stride": "(1, 1)"
      }, 
      "inputs": [[104, 0, 0], [210, 0, 0], [211, 0, 0]]
    }, 
    {
      "op": "transpose", 
      "name": "transpose0", 
      "attrs": {"axes": "(0, 2, 3, 1)"}, 
      "inputs": [[212, 0, 0]]
    }, 
    {
      "op": "Flatten", 
      "name": "flatten0", 
      "inputs": [[213, 0, 0]]
    }, 
    {
      "op": "null", 
      "name": "multi_feat_1_conv_3x3_relu_loc_pred_conv_weight", 
      "attrs": {
        "kernel": "(3, 3)", 
        "num_filter": "24", 
        "pad": "(1, 1)", 
        "stride": "(1, 1)"
      }, 
      "inputs": []
    }, 
    {
      "op": "null", 
      "name": "multi_feat_1_conv_3x3_relu_loc_pred_conv_bias", 
      "attrs": {
        "__init__": "[\"constant\", {\"value\": 0.0}]", 
        "__lr_mult__": "2.0"
      }, 
      "inputs": []
    }, 
    {
      "op": "Convolution", 
      "name": "multi_feat_1_conv_3x3_relu_loc_pred_conv", 
      "attrs": {
        "kernel": "(3, 3)", 
        "num_filter": "24", 
        "pad": "(1, 1)", 
        "stride": "(1, 1)"
      }, 
      "inputs": [[117, 0, 0], [215, 0, 0], [216, 0, 0]]
    }, 
    {
      "op": "transpose", 
      "name": "transpose2", 
      "attrs": {"axes": "(0, 2, 3, 1)"}, 
      "inputs": [[217, 0, 0]]
    }, 
    {
      "op": "Flatten", 
      "name": "flatten3", 
      "inputs": [[218, 0, 0]]
    }, 
    {
      "op": "null", 
      "name": "multi_feat_2_conv_3x3_relu_loc_pred_conv_weight", 
      "attrs": {
        "kernel": "(3, 3)", 
        "num_filter": "24", 
        "pad": "(1, 1)", 
        "stride": "(1, 1)"
      }, 
      "inputs": []
    }, 
    {
      "op": "null", 
      "name": "multi_feat_2_conv_3x3_relu_loc_pred_conv_bias", 
      "attrs": {
        "__init__": "[\"constant\", {\"value\": 0.0}]", 
        "__lr_mult__": "2.0"
      }, 
      "inputs": []
    }, 
    {
      "op": "Convolution", 
      "name": "multi_feat_2_conv_3x3_relu_loc_pred_conv", 
      "attrs": {
        "kernel": "(3, 3)", 
        "num_filter": "24", 
        "pad": "(1, 1)", 
        "stride": "(1, 1)"
      }, 
      "inputs": [[130, 0, 0], [220, 0, 0], [221, 0, 0]]
    }, 
    {
      "op": "transpose", 
      "name": "transpose4", 
      "attrs": {"axes": "(0, 2, 3, 1)"}, 
      "inputs": [[222, 0, 0]]
    }, 
    {
      "op": "Flatten", 
      "name": "flatten6", 
      "inputs": [[223, 0, 0]]
    }, 
    {
      "op": "null", 
      "name": "multi_feat_3_conv_3x3_relu_loc_pred_conv_weight", 
      "attrs": {
        "kernel": "(3, 3)", 
        "num_filter": "24", 
        "pad": "(1, 1)", 
        "stride": "(1, 1)"
      }, 
      "inputs": []
    }, 
    {
      "op": "null", 
      "name": "multi_feat_3_conv_3x3_relu_loc_pred_conv_bias", 
      "attrs": {
        "__init__": "[\"constant\", {\"value\": 0.0}]", 
        "__lr_mult__": "2.0"
      }, 
      "inputs": []
    }, 
    {
      "op": "Convolution", 
      "name": "multi_feat_3_conv_3x3_relu_loc_pred_conv", 
      "attrs": {
        "kernel": "(3, 3)", 
        "num_filter": "24", 
        "pad": "(1, 1)", 
        "stride": "(1, 1)"
      }, 
      "inputs": [[143, 0, 0], [225, 0, 0], [226, 0, 0]]
    }, 
    {
      "op": "transpose", 
      "name": "transpose6", 
      "attrs": {"axes": "(0, 2, 3, 1)"}, 
      "inputs": [[227, 0, 0]]
    }, 
    {
      "op": "Flatten", 
      "name": "flatten9", 
      "inputs": [[228, 0, 0]]
    }, 
    {
      "op": "null", 
      "name": "multi_feat_4_conv_3x3_relu_loc_pred_conv_weight", 
      "attrs": {
        "kernel": "(3, 3)", 
        "num_filter": "24", 
        "pad": "(1, 1)", 
        "stride": "(1, 1)"
      }, 
      "inputs": []
    }, 
    {
      "op": "null", 
      "name": "multi_feat_4_conv_3x3_relu_loc_pred_conv_bias", 
      "attrs": {
        "__init__": "[\"constant\", {\"value\": 0.0}]", 
        "__lr_mult__": "2.0"
      }, 
      "inputs": []
    }, 
    {
      "op": "Convolution", 
      "name": "multi_feat_4_conv_3x3_relu_loc_pred_conv", 
      "attrs": {
        "kernel": "(3, 3)", 
        "num_filter": "24", 
        "pad": "(1, 1)", 
        "stride": "(1, 1)"
      }, 
      "inputs": [[156, 0, 0], [230, 0, 0], [231, 0, 0]]
    }, 
    {
      "op": "transpose", 
      "name": "transpose8", 
      "attrs": {"axes": "(0, 2, 3, 1)"}, 
      "inputs": [[232, 0, 0]]
    }, 
    {
      "op": "Flatten", 
      "name": "flatten12", 
      "inputs": [[233, 0, 0]]
    }, 
    {
      "op": "null", 
      "name": "multi_feat_5_conv_3x3_relu_loc_pred_conv_weight", 
      "attrs": {
        "kernel": "(3, 3)", 
        "num_filter": "16", 
        "pad": "(1, 1)", 
        "stride": "(1, 1)"
      }, 
      "inputs": []
    }, 
    {
      "op": "null", 
      "name": "multi_feat_5_conv_3x3_relu_loc_pred_conv_bias", 
      "attrs": {
        "__init__": "[\"constant\", {\"value\": 0.0}]", 
        "__lr_mult__": "2.0"
      }, 
      "inputs": []
    }, 
    {
      "op": "Convolution", 
      "name": "multi_feat_5_conv_3x3_relu_loc_pred_conv", 
      "attrs": {
        "kernel": "(3, 3)", 
        "num_filter": "16", 
        "pad": "(1, 1)", 
        "stride": "(1, 1)"
      }, 
      "inputs": [[169, 0, 0], [235, 0, 0], [236, 0, 0]]
    }, 
    {
      "op": "transpose", 
      "name": "transpose10", 
      "attrs": {"axes": "(0, 2, 3, 1)"}, 
      "inputs": [[237, 0, 0]]
    }, 
    {
      "op": "Flatten", 
      "name": "flatten15", 
      "inputs": [[238, 0, 0]]
    }, 
    {
      "op": "null", 
      "name": "multi_feat_6_conv_3x3_relu_loc_pred_conv_weight", 
      "attrs": {
        "kernel": "(3, 3)", 
        "num_filter": "16", 
        "pad": "(1, 1)", 
        "stride": "(1, 1)"
      }, 
      "inputs": []
    }, 
    {
      "op": "null", 
      "name": "multi_feat_6_conv_3x3_relu_loc_pred_conv_bias", 
      "attrs": {
        "__init__": "[\"constant\", {\"value\": 0.0}]", 
        "__lr_mult__": "2.0"
      }, 
      "inputs": []
    }, 
    {
      "op": "Convolution", 
      "name": "multi_feat_6_conv_3x3_relu_loc_pred_conv", 
      "attrs": {
        "kernel": "(3, 3)", 
        "num_filter": "16", 
        "pad": "(1, 1)", 
        "stride": "(1, 1)"
      }, 
      "inputs": [[182, 0, 0], [240, 0, 0], [241, 0, 0]]
    }, 
    {
      "op": "transpose", 
      "name": "transpose12", 
      "attrs": {"axes": "(0, 2, 3, 1)"}, 
      "inputs": [[242, 0, 0]]
    }, 
    {
      "op": "Flatten", 
      "name": "flatten18", 
      "inputs": [[243, 0, 0]]
    }, 
    {
      "op": "Concat", 
      "name": "multibox_loc_pred", 
      "attrs": {
        "dim": "1", 
        "num_args": "7"
      }, 
      "inputs": [[214, 0, 0], [219, 0, 0], [224, 0, 0], [229, 0, 0], [234, 0, 0], [239, 0, 0], [244, 0, 0]]
    }, 
    {
      "op": "elemwise_sub", 
      "name": "_minus0", 
      "inputs": [[245, 0, 0], [208, 0, 0]]
    }, 
    {
      "op": "elemwise_mul", 
      "name": "_mul0", 
      "inputs": [[208, 1, 0], [246, 0, 0]]
    }, 
    {
      "op": "smooth_l1", 
      "name": "loc_loss_", 
      "attrs": {"scalar": "1.0"}, 
      "inputs": [[247, 0, 0]]
    }, 
    {
      "op": "MakeLoss", 
      "name": "loc_loss", 
      "attrs": {
        "grad_scale": "1.0", 
        "normalization": "valid"
      }, 
      "inputs": [[248, 0, 0]]
    }, 
    {
      "op": "MakeLoss", 
      "name": "cls_label", 
      "attrs": {"grad_scale": "0"}, 
      "inputs": [[208, 2, 0]]
    }, 
    {
      "op": "_contrib_MultiBoxDetection", 
      "name": "detection", 
      "attrs": {
        "force_suppress": "False", 
        "nms_threshold": "0.45", 
        "nms_topk": "400", 
        "variances": "(0.1, 0.1, 0.2, 0.2)"
      }, 
      "inputs": [[209, 0, 0], [245, 0, 0], [206, 0, 0]]
    }, 
    {
      "op": "MakeLoss", 
      "name": "det_out", 
      "attrs": {"grad_scale": "0"}, 
      "inputs": [[251, 0, 0]]
    }
  ], 
  "arg_nodes": [
    0, 
    1, 
    3, 
    4, 
    5, 
    6, 
    9, 
    11, 
    12, 
    13, 
    14, 
    17, 
    19, 
    20, 
    21, 
    22, 
    25, 
    27, 
    28, 
    29, 
    30, 
    33, 
    35, 
    36, 
    37, 
    38, 
    41, 
    43, 
    44, 
    45, 
    46, 
    49, 
    51, 
    52, 
    53, 
    54, 
    57, 
    59, 
    60, 
    61, 
    62, 
    65, 
    67, 
    68, 
    69, 
    70, 
    73, 
    75, 
    76, 
    77, 
    78, 
    81, 
    83, 
    84, 
    85, 
    86, 
    89, 
    91, 
    92, 
    93, 
    94, 
    97, 
    99, 
    100, 
    101, 
    102, 
    105, 
    106, 
    110, 
    111, 
    114, 
    115, 
    118, 
    119, 
    123, 
    124, 
    127, 
    128, 
    131, 
    132, 
    136, 
    137, 
    140, 
    141, 
    144, 
    145, 
    149, 
    150, 
    153, 
    154, 
    157, 
    158, 
    162, 
    163, 
    166, 
    167, 
    170, 
    171, 
    175, 
    176, 
    179, 
    180, 
    183, 
    184, 
    207, 
    210, 
    211, 
    215, 
    216, 
    220, 
    221, 
    225, 
    226, 
    230, 
    231, 
    235, 
    236, 
    240, 
    241
  ], 
  "node_row_ptr": [
    0, 
    1, 
    2, 
    3, 
    4, 
    5, 
    6, 
    7, 
    10, 
    11, 
    12, 
    13, 
    14, 
    15, 
    16, 
    17, 
    20, 
    21, 
    22, 
    23, 
    24, 
    25, 
    26, 
    27, 
    30, 
    31, 
    32, 
    33, 
    34, 
    35, 
    36, 
    37, 
    40, 
    41, 
    42, 
    43, 
    44, 
    45, 
    46, 
    47, 
    50, 
    51, 
    52, 
    53, 
    54, 
    55, 
    56, 
    57, 
    60, 
    61, 
    62, 
    63, 
    64, 
    65, 
    66, 
    67, 
    70, 
    71, 
    72, 
    73, 
    74, 
    75, 
    76, 
    77, 
    80, 
    81, 
    82, 
    83, 
    84, 
    85, 
    86, 
    87, 
    90, 
    91, 
    92, 
    93, 
    94, 
    95, 
    96, 
    97, 
    100, 
    101, 
    102, 
    103, 
    104, 
    105, 
    106, 
    107, 
    110, 
    111, 
    112, 
    113, 
    114, 
    115, 
    116, 
    117, 
    120, 
    121, 
    122, 
    123, 
    124, 
    125, 
    126, 
    127, 
    130, 
    131, 
    132, 
    133, 
    134, 
    135, 
    136, 
    137, 
    138, 
    139, 
    140, 
    141, 
    142, 
    143, 
    144, 
    145, 
    146, 
    147, 
    148, 
    149, 
    150, 
    151, 
    152, 
    153, 
    154, 
    155, 
    156, 
    157, 
    158, 
    159, 
    160, 
    161, 
    162, 
    163, 
    164, 
    165, 
    166, 
    167, 
    168, 
    169, 
    170, 
    171, 
    172, 
    173, 
    174, 
    175, 
    176, 
    177, 
    178, 
    179, 
    180, 
    181, 
    182, 
    183, 
    184, 
    185, 
    186, 
    187, 
    188, 
    189, 
    190, 
    191, 
    192, 
    193, 
    194, 
    195, 
    196, 
    197, 
    198, 
    199, 
    200, 
    201, 
    202, 
    203, 
    204, 
    205, 
    206, 
    207, 
    208, 
    209, 
    210, 
    211, 
    212, 
    213, 
    214, 
    215, 
    216, 
    217, 
    218, 
    219, 
    220, 
    221, 
    222, 
    223, 
    224, 
    225, 
    226, 
    227, 
    228, 
    229, 
    230, 
    231, 
    232, 
    233, 
    234, 
    237, 
    238, 
    239, 
    240, 
    241, 
    242, 
    243, 
    244, 
    245, 
    246, 
    247, 
    248, 
    249, 
    250, 
    251, 
    252, 
    253, 
    254, 
    255, 
    256, 
    257, 
    258, 
    259, 
    260, 
    261, 
    262, 
    263, 
    264, 
    265, 
    266, 
    267, 
    268, 
    269, 
    270, 
    271, 
    272, 
    273, 
    274, 
    275, 
    276, 
    277, 
    278, 
    279, 
    280, 
    281
  ], 
  "heads": [[209, 0, 0], [249, 0, 0], [250, 0, 0], [252, 0, 0]], 
  "attrs": {"mxnet_version": ["int", 10001]}
}