{
  "nodes": [
    {
      "op": "null", 
      "name": "data", 
      "inputs": []
    }, 
    {
      "op": "null", 
      "name": "conv1_1_conv2d_weight", 
      "attr": {
        "kernel": "(7, 7)", 
        "num_filter": "16", 
        "pad": "(3, 3)", 
        "stride": "(2, 2)"
      }, 
      "inputs": []
    }, 
    {
      "op": "null", 
      "name": "conv1_1_conv2d_bias", 
      "attr": {
        "kernel": "(7, 7)", 
        "num_filter": "16", 
        "pad": "(3, 3)", 
        "stride": "(2, 2)"
      }, 
      "inputs": []
    }, 
    {
      "op": "Convolution", 
      "name": "conv1_1_conv2d", 
      "attr": {
        "kernel": "(7, 7)", 
        "num_filter": "16", 
        "pad": "(3, 3)", 
        "stride": "(2, 2)"
      }, 
      "inputs": [[0, 0, 0], [1, 0, 0], [2, 0, 0]]
    }, 
    {
      "op": "null", 
      "name": "conv1_1_batchnorm_gamma", 
      "inputs": []
    }, 
    {
      "op": "null", 
      "name": "conv1_1_batchnorm_beta", 
      "inputs": []
    }, 
    {
      "op": "null", 
      "name": "conv1_1_batchnorm_moving_mean", 
      "attr": {"__init__": "[\"zero\", {}]"}, 
      "inputs": []
    }, 
    {
      "op": "null", 
      "name": "conv1_1_batchnorm_moving_var", 
      "attr": {"__init__": "[\"one\", {}]"}, 
      "inputs": []
    }, 
    {
      "op": "BatchNorm", 
      "name": "conv1_1_batchnorm", 
      "inputs": [[3, 0, 0], [4, 0, 0], [5, 0, 0], [6, 0, 1], [7, 0, 1]]
    }, 
    {
      "op": "negative", 
      "name": "negative", 
      "inputs": [[8, 0, 0]]
    }, 
    {
      "op": "Concat", 
      "name": "concat0", 
      "attr": {"num_args": "2"}, 
      "inputs": [[8, 0, 0], [9, 0, 0]]
    }, 
    {
      "op": "null", 
      "name": "16_alpha", 
      "attr": {
        "__dtype__": "0", 
        "__init__": "[\"one\", {}]", 
        "__shape__": "1"
      }, 
      "inputs": []
    }, 
    {
      "op": "broadcast_mul", 
      "name": "broadcast_mul0", 
      "inputs": [[10, 0, 0], [11, 0, 0]]
    }, 
    {
      "op": "null", 
      "name": "16_beta", 
      "attr": {
        "__dtype__": "0", 
        "__init__": "[\"zero\", {}]", 
        "__shape__": "1"
      }, 
      "inputs": []
    }, 
    {
      "op": "broadcast_add", 
      "name": "broadcast_add0", 
      "inputs": [[12, 0, 0], [13, 0, 0]]
    }, 
    {
      "op": "Activation", 
      "name": "conv1_1_relu", 
      "attr": {"act_type": "relu"}, 
      "inputs": [[14, 0, 0]]
    }, 
    {
      "op": "Pooling", 
      "name": "pool1_1", 
      "attr": {
        "kernel": "(3, 3)", 
        "pad": "(1, 1)", 
        "pool_type": "max", 
        "stride": "(2, 2)"
      }, 
      "inputs": [[15, 0, 0]]
    }, 
    {
      "op": "null", 
      "name": "conv2_1_1_con2d_weight", 
      "attr": {
        "kernel": "(1, 1)", 
        "num_filter": "24", 
        "pad": "(0, 0)", 
        "stride": "(1, 1)"
      }, 
      "inputs": []
    }, 
    {
      "op": "null", 
      "name": "conv2_1_1_con2d_bias", 
      "attr": {
        "kernel": "(1, 1)", 
        "num_filter": "24", 
        "pad": "(0, 0)", 
        "stride": "(1, 1)"
      }, 
      "inputs": []
    }, 
    {
      "op": "Convolution", 
      "name": "conv2_1_1_con2d", 
      "attr": {
        "kernel": "(1, 1)", 
        "num_filter": "24", 
        "pad": "(0, 0)", 
        "stride": "(1, 1)"
      }, 
      "inputs": [[16, 0, 0], [17, 0, 0], [18, 0, 0]]
    }, 
    {
      "op": "null", 
      "name": "conv2_1group_batchnorm_gamma", 
      "inputs": []
    }, 
    {
      "op": "null", 
      "name": "conv2_1group_batchnorm_beta", 
      "inputs": []
    }, 
    {
      "op": "null", 
      "name": "conv2_1group_batchnorm_moving_mean", 
      "attr": {"__init__": "[\"zero\", {}]"}, 
      "inputs": []
    }, 
    {
      "op": "null", 
      "name": "conv2_1group_batchnorm_moving_var", 
      "attr": {"__init__": "[\"one\", {}]"}, 
      "inputs": []
    }, 
    {
      "op": "BatchNorm", 
      "name": "conv2_1group_batchnorm", 
      "inputs": [[19, 0, 0], [20, 0, 0], [21, 0, 0], [22, 0, 1], [23, 0, 1]]
    }, 
    {
      "op": "null", 
      "name": "conv2_1group_alpha", 
      "attr": {
        "__dtype__": "0", 
        "__init__": "[\"one\", {}]", 
        "__shape__": "1"
      }, 
      "inputs": []
    }, 
    {
      "op": "broadcast_mul", 
      "name": "broadcast_mul1", 
      "inputs": [[24, 0, 0], [25, 0, 0]]
    }, 
    {
      "op": "null", 
      "name": "conv2_1group_beta", 
      "attr": {
        "__dtype__": "0", 
        "__init__": "[\"zero\", {}]", 
        "__shape__": "1"
      }, 
      "inputs": []
    }, 
    {
      "op": "broadcast_add", 
      "name": "broadcast_add1", 
      "inputs": [[26, 0, 0], [27, 0, 0]]
    }, 
    {
      "op": "Activation", 
      "name": "conv2_1group_relu", 
      "attr": {"act_type": "relu"}, 
      "inputs": [[28, 0, 0]]
    }, 
    {
      "op": "null", 
      "name": "conv2_1_2_con2d_weight", 
      "attr": {
        "kernel": "(3, 3)", 
        "num_filter": "24", 
        "pad": "(1, 1)", 
        "stride": "(1, 1)"
      }, 
      "inputs": []
    }, 
    {
      "op": "null", 
      "name": "conv2_1_2_con2d_bias", 
      "attr": {
        "kernel": "(3, 3)", 
        "num_filter": "24", 
        "pad": "(1, 1)", 
        "stride": "(1, 1)"
      }, 
      "inputs": []
    }, 
    {
      "op": "Convolution", 
      "name": "conv2_1_2_con2d", 
      "attr": {
        "kernel": "(3, 3)", 
        "num_filter": "24", 
        "pad": "(1, 1)", 
        "stride": "(1, 1)"
      }, 
      "inputs": [[29, 0, 0], [30, 0, 0], [31, 0, 0]]
    }, 
    {
      "op": "null", 
      "name": "conv2_1_batchnorm_gamma", 
      "attr": {"fix_gamma": "True"}, 
      "inputs": []
    }, 
    {
      "op": "null", 
      "name": "conv2_1_batchnorm_beta", 
      "attr": {"fix_gamma": "True"}, 
      "inputs": []
    }, 
    {
      "op": "null", 
      "name": "conv2_1_batchnorm_moving_mean", 
      "attr": {
        "__init__": "[\"zero\", {}]", 
        "fix_gamma": "True"
      }, 
      "inputs": []
    }, 
    {
      "op": "null", 
      "name": "conv2_1_batchnorm_moving_var", 
      "attr": {
        "__init__": "[\"one\", {}]", 
        "fix_gamma": "True"
      }, 
      "inputs": []
    }, 
    {
      "op": "BatchNorm", 
      "name": "conv2_1_batchnorm", 
      "attr": {"fix_gamma": "True"}, 
      "inputs": [[32, 0, 0], [33, 0, 0], [34, 0, 0], [35, 0, 1], [36, 0, 1]]
    }, 
    {
      "op": "negative", 
      "name": "conv2_1_negative", 
      "inputs": [[37, 0, 0]]
    }, 
    {
      "op": "Concat", 
      "name": "concat1", 
      "attr": {"num_args": "2"}, 
      "inputs": [[37, 0, 0], [38, 0, 0]]
    }, 
    {
      "op": "null", 
      "name": "conv2_1_alpha", 
      "attr": {
        "__dtype__": "0", 
        "__init__": "[\"one\", {}]", 
        "__shape__": "1"
      }, 
      "inputs": []
    }, 
    {
      "op": "broadcast_mul", 
      "name": "broadcast_mul2", 
      "inputs": [[39, 0, 0], [40, 0, 0]]
    }, 
    {
      "op": "null", 
      "name": "conv2_1_beta", 
      "attr": {
        "__dtype__": "0", 
        "__init__": "[\"zero\", {}]", 
        "__shape__": "1"
      }, 
      "inputs": []
    }, 
    {
      "op": "broadcast_add", 
      "name": "broadcast_add2", 
      "inputs": [[41, 0, 0], [42, 0, 0]]
    }, 
    {
      "op": "Activation", 
      "name": "conv2_1_relu", 
      "attr": {"act_type": "relu"}, 
      "inputs": [[43, 0, 0]]
    }, 
    {
      "op": "null", 
      "name": "conv2_1_3_con2d_weight", 
      "attr": {
        "kernel": "(1, 1)", 
        "num_filter": "64", 
        "pad": "(0, 0)", 
        "stride": "(1, 1)"
      }, 
      "inputs": []
    }, 
    {
      "op": "null", 
      "name": "conv2_1_3_con2d_bias", 
      "attr": {
        "kernel": "(1, 1)", 
        "num_filter": "64", 
        "pad": "(0, 0)", 
        "stride": "(1, 1)"
      }, 
      "inputs": []
    }, 
    {
      "op": "Convolution", 
      "name": "conv2_1_3_con2d", 
      "attr": {
        "kernel": "(1, 1)", 
        "num_filter": "64", 
        "pad": "(0, 0)", 
        "stride": "(1, 1)"
      }, 
      "inputs": [[44, 0, 0], [45, 0, 0], [46, 0, 0]]
    }, 
    {
      "op": "null", 
      "name": "conv2_1_proj_con2d_weight", 
      "attr": {
        "kernel": "(1, 1)", 
        "num_filter": "64", 
        "stride": "(1, 1)"
      }, 
      "inputs": []
    }, 
    {
      "op": "null", 
      "name": "conv2_1_proj_con2d_bias", 
      "attr": {
        "kernel": "(1, 1)", 
        "num_filter": "64", 
        "stride": "(1, 1)"
      }, 
      "inputs": []
    }, 
    {
      "op": "Convolution", 
      "name": "conv2_1_proj_con2d", 
      "attr": {
        "kernel": "(1, 1)", 
        "num_filter": "64", 
        "stride": "(1, 1)"
      }, 
      "inputs": [[16, 0, 0], [48, 0, 0], [49, 0, 0]]
    }, 
    {
      "op": "elemwise_add", 
      "name": "_plus0", 
      "inputs": [[47, 0, 0], [50, 0, 0]]
    }, 
    {
      "op": "null", 
      "name": "conv2_2bsr_batchnorm_gamma", 
      "inputs": []
    }, 
    {
      "op": "null", 
      "name": "conv2_2bsr_batchnorm_beta", 
      "inputs": []
    }, 
    {
      "op": "null", 
      "name": "conv2_2bsr_batchnorm_moving_mean", 
      "attr": {"__init__": "[\"zero\", {}]"}, 
      "inputs": []
    }, 
    {
      "op": "null", 
      "name": "conv2_2bsr_batchnorm_moving_var", 
      "attr": {"__init__": "[\"one\", {}]"}, 
      "inputs": []
    }, 
    {
      "op": "BatchNorm", 
      "name": "conv2_2bsr_batchnorm", 
      "inputs": [[51, 0, 0], [52, 0, 0], [53, 0, 0], [54, 0, 1], [55, 0, 1]]
    }, 
    {
      "op": "null", 
      "name": "conv2_2bsr_alpha", 
      "attr": {
        "__dtype__": "0", 
        "__init__": "[\"one\", {}]", 
        "__shape__": "1"
      }, 
      "inputs": []
    }, 
    {
      "op": "broadcast_mul", 
      "name": "broadcast_mul3", 
      "inputs": [[56, 0, 0], [57, 0, 0]]
    }, 
    {
      "op": "null", 
      "name": "conv2_2bsr_beta", 
      "attr": {
        "__dtype__": "0", 
        "__init__": "[\"zero\", {}]", 
        "__shape__": "1"
      }, 
      "inputs": []
    }, 
    {
      "op": "broadcast_add", 
      "name": "broadcast_add3", 
      "inputs": [[58, 0, 0], [59, 0, 0]]
    }, 
    {
      "op": "Activation", 
      "name": "conv2_2bsr_relu", 
      "attr": {"act_type": "relu"}, 
      "inputs": [[60, 0, 0]]
    }, 
    {
      "op": "null", 
      "name": "conv2_2_1_con2d_weight", 
      "attr": {
        "kernel": "(1, 1)", 
        "num_filter": "24", 
        "pad": "(0, 0)", 
        "stride": "(1, 1)"
      }, 
      "inputs": []
    }, 
    {
      "op": "null", 
      "name": "conv2_2_1_con2d_bias", 
      "attr": {
        "kernel": "(1, 1)", 
        "num_filter": "24", 
        "pad": "(0, 0)", 
        "stride": "(1, 1)"
      }, 
      "inputs": []
    }, 
    {
      "op": "Convolution", 
      "name": "conv2_2_1_con2d", 
      "attr": {
        "kernel": "(1, 1)", 
        "num_filter": "24", 
        "pad": "(0, 0)", 
        "stride": "(1, 1)"
      }, 
      "inputs": [[61, 0, 0], [62, 0, 0], [63, 0, 0]]
    }, 
    {
      "op": "null", 
      "name": "conv2_2group_batchnorm_gamma", 
      "inputs": []
    }, 
    {
      "op": "null", 
      "name": "conv2_2group_batchnorm_beta", 
      "inputs": []
    }, 
    {
      "op": "null", 
      "name": "conv2_2group_batchnorm_moving_mean", 
      "attr": {"__init__": "[\"zero\", {}]"}, 
      "inputs": []
    }, 
    {
      "op": "null", 
      "name": "conv2_2group_batchnorm_moving_var", 
      "attr": {"__init__": "[\"one\", {}]"}, 
      "inputs": []
    }, 
    {
      "op": "BatchNorm", 
      "name": "conv2_2group_batchnorm", 
      "inputs": [[64, 0, 0], [65, 0, 0], [66, 0, 0], [67, 0, 1], [68, 0, 1]]
    }, 
    {
      "op": "null", 
      "name": "conv2_2group_alpha", 
      "attr": {
        "__dtype__": "0", 
        "__init__": "[\"one\", {}]", 
        "__shape__": "1"
      }, 
      "inputs": []
    }, 
    {
      "op": "broadcast_mul", 
      "name": "broadcast_mul4", 
      "inputs": [[69, 0, 0], [70, 0, 0]]
    }, 
    {
      "op": "null", 
      "name": "conv2_2group_beta", 
      "attr": {
        "__dtype__": "0", 
        "__init__": "[\"zero\", {}]", 
        "__shape__": "1"
      }, 
      "inputs": []
    }, 
    {
      "op": "broadcast_add", 
      "name": "broadcast_add4", 
      "inputs": [[71, 0, 0], [72, 0, 0]]
    }, 
    {
      "op": "Activation", 
      "name": "conv2_2group_relu", 
      "attr": {"act_type": "relu"}, 
      "inputs": [[73, 0, 0]]
    }, 
    {
      "op": "null", 
      "name": "conv2_2_2_con2d_weight", 
      "attr": {
        "kernel": "(3, 3)", 
        "num_filter": "24", 
        "pad": "(1, 1)", 
        "stride": "(1, 1)"
      }, 
      "inputs": []
    }, 
    {
      "op": "null", 
      "name": "conv2_2_2_con2d_bias", 
      "attr": {
        "kernel": "(3, 3)", 
        "num_filter": "24", 
        "pad": "(1, 1)", 
        "stride": "(1, 1)"
      }, 
      "inputs": []
    }, 
    {
      "op": "Convolution", 
      "name": "conv2_2_2_con2d", 
      "attr": {
        "kernel": "(3, 3)", 
        "num_filter": "24", 
        "pad": "(1, 1)", 
        "stride": "(1, 1)"
      }, 
      "inputs": [[74, 0, 0], [75, 0, 0], [76, 0, 0]]
    }, 
    {
      "op": "null", 
      "name": "conv2_2_batchnorm_gamma", 
      "attr": {"fix_gamma": "True"}, 
      "inputs": []
    }, 
    {
      "op": "null", 
      "name": "conv2_2_batchnorm_beta", 
      "attr": {"fix_gamma": "True"}, 
      "inputs": []
    }, 
    {
      "op": "null", 
      "name": "conv2_2_batchnorm_moving_mean", 
      "attr": {
        "__init__": "[\"zero\", {}]", 
        "fix_gamma": "True"
      }, 
      "inputs": []
    }, 
    {
      "op": "null", 
      "name": "conv2_2_batchnorm_moving_var", 
      "attr": {
        "__init__": "[\"one\", {}]", 
        "fix_gamma": "True"
      }, 
      "inputs": []
    }, 
    {
      "op": "BatchNorm", 
      "name": "conv2_2_batchnorm", 
      "attr": {"fix_gamma": "True"}, 
      "inputs": [[77, 0, 0], [78, 0, 0], [79, 0, 0], [80, 0, 1], [81, 0, 1]]
    }, 
    {
      "op": "negative", 
      "name": "conv2_2_negative", 
      "inputs": [[82, 0, 0]]
    }, 
    {
      "op": "Concat", 
      "name": "concat2", 
      "attr": {"num_args": "2"}, 
      "inputs": [[82, 0, 0], [83, 0, 0]]
    }, 
    {
      "op": "null", 
      "name": "conv2_2_alpha", 
      "attr": {
        "__dtype__": "0", 
        "__init__": "[\"one\", {}]", 
        "__shape__": "1"
      }, 
      "inputs": []
    }, 
    {
      "op": "broadcast_mul", 
      "name": "broadcast_mul5", 
      "inputs": [[84, 0, 0], [85, 0, 0]]
    }, 
    {
      "op": "null", 
      "name": "conv2_2_beta", 
      "attr": {
        "__dtype__": "0", 
        "__init__": "[\"zero\", {}]", 
        "__shape__": "1"
      }, 
      "inputs": []
    }, 
    {
      "op": "broadcast_add", 
      "name": "broadcast_add5", 
      "inputs": [[86, 0, 0], [87, 0, 0]]
    }, 
    {
      "op": "Activation", 
      "name": "conv2_2_relu", 
      "attr": {"act_type": "relu"}, 
      "inputs": [[88, 0, 0]]
    }, 
    {
      "op": "null", 
      "name": "conv2_2_3_con2d_weight", 
      "attr": {
        "kernel": "(1, 1)", 
        "num_filter": "64", 
        "pad": "(0, 0)", 
        "stride": "(1, 1)"
      }, 
      "inputs": []
    }, 
    {
      "op": "null", 
      "name": "conv2_2_3_con2d_bias", 
      "attr": {
        "kernel": "(1, 1)", 
        "num_filter": "64", 
        "pad": "(0, 0)", 
        "stride": "(1, 1)"
      }, 
      "inputs": []
    }, 
    {
      "op": "Convolution", 
      "name": "conv2_2_3_con2d", 
      "attr": {
        "kernel": "(1, 1)", 
        "num_filter": "64", 
        "pad": "(0, 0)", 
        "stride": "(1, 1)"
      }, 
      "inputs": [[89, 0, 0], [90, 0, 0], [91, 0, 0]]
    }, 
    {
      "op": "elemwise_add", 
      "name": "_plus1", 
      "inputs": [[92, 0, 0], [51, 0, 0]]
    }, 
    {
      "op": "null", 
      "name": "conv2_3bsr_batchnorm_gamma", 
      "inputs": []
    }, 
    {
      "op": "null", 
      "name": "conv2_3bsr_batchnorm_beta", 
      "inputs": []
    }, 
    {
      "op": "null", 
      "name": "conv2_3bsr_batchnorm_moving_mean", 
      "attr": {"__init__": "[\"zero\", {}]"}, 
      "inputs": []
    }, 
    {
      "op": "null", 
      "name": "conv2_3bsr_batchnorm_moving_var", 
      "attr": {"__init__": "[\"one\", {}]"}, 
      "inputs": []
    }, 
    {
      "op": "BatchNorm", 
      "name": "conv2_3bsr_batchnorm", 
      "inputs": [[93, 0, 0], [94, 0, 0], [95, 0, 0], [96, 0, 1], [97, 0, 1]]
    }, 
    {
      "op": "null", 
      "name": "conv2_3bsr_alpha", 
      "attr": {
        "__dtype__": "0", 
        "__init__": "[\"one\", {}]", 
        "__shape__": "1"
      }, 
      "inputs": []
    }, 
    {
      "op": "broadcast_mul", 
      "name": "broadcast_mul6", 
      "inputs": [[98, 0, 0], [99, 0, 0]]
    }, 
    {
      "op": "null", 
      "name": "conv2_3bsr_beta", 
      "attr": {
        "__dtype__": "0", 
        "__init__": "[\"zero\", {}]", 
        "__shape__": "1"
      }, 
      "inputs": []
    }, 
    {
      "op": "broadcast_add", 
      "name": "broadcast_add6", 
      "inputs": [[100, 0, 0], [101, 0, 0]]
    }, 
    {
      "op": "Activation", 
      "name": "conv2_3bsr_relu", 
      "attr": {"act_type": "relu"}, 
      "inputs": [[102, 0, 0]]
    }, 
    {
      "op": "null", 
      "name": "conv2_3_1_con2d_weight", 
      "attr": {
        "kernel": "(1, 1)", 
        "num_filter": "24", 
        "pad": "(0, 0)", 
        "stride": "(1, 1)"
      }, 
      "inputs": []
    }, 
    {
      "op": "null", 
      "name": "conv2_3_1_con2d_bias", 
      "attr": {
        "kernel": "(1, 1)", 
        "num_filter": "24", 
        "pad": "(0, 0)", 
        "stride": "(1, 1)"
      }, 
      "inputs": []
    }, 
    {
      "op": "Convolution", 
      "name": "conv2_3_1_con2d", 
      "attr": {
        "kernel": "(1, 1)", 
        "num_filter": "24", 
        "pad": "(0, 0)", 
        "stride": "(1, 1)"
      }, 
      "inputs": [[103, 0, 0], [104, 0, 0], [105, 0, 0]]
    }, 
    {
      "op": "null", 
      "name": "conv2_3group_batchnorm_gamma", 
      "inputs": []
    }, 
    {
      "op": "null", 
      "name": "conv2_3group_batchnorm_beta", 
      "inputs": []
    }, 
    {
      "op": "null", 
      "name": "conv2_3group_batchnorm_moving_mean", 
      "attr": {"__init__": "[\"zero\", {}]"}, 
      "inputs": []
    }, 
    {
      "op": "null", 
      "name": "conv2_3group_batchnorm_moving_var", 
      "attr": {"__init__": "[\"one\", {}]"}, 
      "inputs": []
    }, 
    {
      "op": "BatchNorm", 
      "name": "conv2_3group_batchnorm", 
      "inputs": [[106, 0, 0], [107, 0, 0], [108, 0, 0], [109, 0, 1], [110, 0, 1]]
    }, 
    {
      "op": "null", 
      "name": "conv2_3group_alpha", 
      "attr": {
        "__dtype__": "0", 
        "__init__": "[\"one\", {}]", 
        "__shape__": "1"
      }, 
      "inputs": []
    }, 
    {
      "op": "broadcast_mul", 
      "name": "broadcast_mul7", 
      "inputs": [[111, 0, 0], [112, 0, 0]]
    }, 
    {
      "op": "null", 
      "name": "conv2_3group_beta", 
      "attr": {
        "__dtype__": "0", 
        "__init__": "[\"zero\", {}]", 
        "__shape__": "1"
      }, 
      "inputs": []
    }, 
    {
      "op": "broadcast_add", 
      "name": "broadcast_add7", 
      "inputs": [[113, 0, 0], [114, 0, 0]]
    }, 
    {
      "op": "Activation", 
      "name": "conv2_3group_relu", 
      "attr": {"act_type": "relu"}, 
      "inputs": [[115, 0, 0]]
    }, 
    {
      "op": "null", 
      "name": "conv2_3_2_con2d_weight", 
      "attr": {
        "kernel": "(3, 3)", 
        "num_filter": "24", 
        "pad": "(1, 1)", 
        "stride": "(1, 1)"
      }, 
      "inputs": []
    }, 
    {
      "op": "null", 
      "name": "conv2_3_2_con2d_bias", 
      "attr": {
        "kernel": "(3, 3)", 
        "num_filter": "24", 
        "pad": "(1, 1)", 
        "stride": "(1, 1)"
      }, 
      "inputs": []
    }, 
    {
      "op": "Convolution", 
      "name": "conv2_3_2_con2d", 
      "attr": {
        "kernel": "(3, 3)", 
        "num_filter": "24", 
        "pad": "(1, 1)", 
        "stride": "(1, 1)"
      }, 
      "inputs": [[116, 0, 0], [117, 0, 0], [118, 0, 0]]
    }, 
    {
      "op": "null", 
      "name": "conv2_3_batchnorm_gamma", 
      "attr": {"fix_gamma": "True"}, 
      "inputs": []
    }, 
    {
      "op": "null", 
      "name": "conv2_3_batchnorm_beta", 
      "attr": {"fix_gamma": "True"}, 
      "inputs": []
    }, 
    {
      "op": "null", 
      "name": "conv2_3_batchnorm_moving_mean", 
      "attr": {
        "__init__": "[\"zero\", {}]", 
        "fix_gamma": "True"
      }, 
      "inputs": []
    }, 
    {
      "op": "null", 
      "name": "conv2_3_batchnorm_moving_var", 
      "attr": {
        "__init__": "[\"one\", {}]", 
        "fix_gamma": "True"
      }, 
      "inputs": []
    }, 
    {
      "op": "BatchNorm", 
      "name": "conv2_3_batchnorm", 
      "attr": {"fix_gamma": "True"}, 
      "inputs": [[119, 0, 0], [120, 0, 0], [121, 0, 0], [122, 0, 1], [123, 0, 1]]
    }, 
    {
      "op": "negative", 
      "name": "conv2_3_negative", 
      "inputs": [[124, 0, 0]]
    }, 
    {
      "op": "Concat", 
      "name": "concat3", 
      "attr": {"num_args": "2"}, 
      "inputs": [[124, 0, 0], [125, 0, 0]]
    }, 
    {
      "op": "null", 
      "name": "conv2_3_alpha", 
      "attr": {
        "__dtype__": "0", 
        "__init__": "[\"one\", {}]", 
        "__shape__": "1"
      }, 
      "inputs": []
    }, 
    {
      "op": "broadcast_mul", 
      "name": "broadcast_mul8", 
      "inputs": [[126, 0, 0], [127, 0, 0]]
    }, 
    {
      "op": "null", 
      "name": "conv2_3_beta", 
      "attr": {
        "__dtype__": "0", 
        "__init__": "[\"zero\", {}]", 
        "__shape__": "1"
      }, 
      "inputs": []
    }, 
    {
      "op": "broadcast_add", 
      "name": "broadcast_add8", 
      "inputs": [[128, 0, 0], [129, 0, 0]]
    }, 
    {
      "op": "Activation", 
      "name": "conv2_3_relu", 
      "attr": {"act_type": "relu"}, 
      "inputs": [[130, 0, 0]]
    }, 
    {
      "op": "null", 
      "name": "conv2_3_3_con2d_weight", 
      "attr": {
        "kernel": "(1, 1)", 
        "num_filter": "64", 
        "pad": "(0, 0)", 
        "stride": "(1, 1)"
      }, 
      "inputs": []
    }, 
    {
      "op": "null", 
      "name": "conv2_3_3_con2d_bias", 
      "attr": {
        "kernel": "(1, 1)", 
        "num_filter": "64", 
        "pad": "(0, 0)", 
        "stride": "(1, 1)"
      }, 
      "inputs": []
    }, 
    {
      "op": "Convolution", 
      "name": "conv2_3_3_con2d", 
      "attr": {
        "kernel": "(1, 1)", 
        "num_filter": "64", 
        "pad": "(0, 0)", 
        "stride": "(1, 1)"
      }, 
      "inputs": [[131, 0, 0], [132, 0, 0], [133, 0, 0]]
    }, 
    {
      "op": "elemwise_add", 
      "name": "_plus2", 
      "inputs": [[134, 0, 0], [93, 0, 0]]
    }, 
    {
      "op": "null", 
      "name": "bsr3_1_batchnorm_gamma", 
      "inputs": []
    }, 
    {
      "op": "null", 
      "name": "bsr3_1_batchnorm_beta", 
      "inputs": []
    }, 
    {
      "op": "null", 
      "name": "bsr3_1_batchnorm_moving_mean", 
      "attr": {"__init__": "[\"zero\", {}]"}, 
      "inputs": []
    }, 
    {
      "op": "null", 
      "name": "bsr3_1_batchnorm_moving_var", 
      "attr": {"__init__": "[\"one\", {}]"}, 
      "inputs": []
    }, 
    {
      "op": "BatchNorm", 
      "name": "bsr3_1_batchnorm", 
      "inputs": [[135, 0, 0], [136, 0, 0], [137, 0, 0], [138, 0, 1], [139, 0, 1]]
    }, 
    {
      "op": "null", 
      "name": "bsr3_1_alpha", 
      "attr": {
        "__dtype__": "0", 
        "__init__": "[\"one\", {}]", 
        "__shape__": "1"
      }, 
      "inputs": []
    }, 
    {
      "op": "broadcast_mul", 
      "name": "broadcast_mul9", 
      "inputs": [[140, 0, 0], [141, 0, 0]]
    }, 
    {
      "op": "null", 
      "name": "bsr3_1_beta", 
      "attr": {
        "__dtype__": "0", 
        "__init__": "[\"zero\", {}]", 
        "__shape__": "1"
      }, 
      "inputs": []
    }, 
    {
      "op": "broadcast_add", 
      "name": "broadcast_add9", 
      "inputs": [[142, 0, 0], [143, 0, 0]]
    }, 
    {
      "op": "Activation", 
      "name": "bsr3_1_relu", 
      "attr": {"act_type": "relu"}, 
      "inputs": [[144, 0, 0]]
    }, 
    {
      "op": "null", 
      "name": "conv3_1_1_con2d_weight", 
      "attr": {
        "kernel": "(1, 1)", 
        "num_filter": "48", 
        "pad": "(0, 0)", 
        "stride": "(2, 2)"
      }, 
      "inputs": []
    }, 
    {
      "op": "null", 
      "name": "conv3_1_1_con2d_bias", 
      "attr": {
        "kernel": "(1, 1)", 
        "num_filter": "48", 
        "pad": "(0, 0)", 
        "stride": "(2, 2)"
      }, 
      "inputs": []
    }, 
    {
      "op": "Convolution", 
      "name": "conv3_1_1_con2d", 
      "attr": {
        "kernel": "(1, 1)", 
        "num_filter": "48", 
        "pad": "(0, 0)", 
        "stride": "(2, 2)"
      }, 
      "inputs": [[145, 0, 0], [146, 0, 0], [147, 0, 0]]
    }, 
    {
      "op": "null", 
      "name": "conv3_1group_batchnorm_gamma", 
      "inputs": []
    }, 
    {
      "op": "null", 
      "name": "conv3_1group_batchnorm_beta", 
      "inputs": []
    }, 
    {
      "op": "null", 
      "name": "conv3_1group_batchnorm_moving_mean", 
      "attr": {"__init__": "[\"zero\", {}]"}, 
      "inputs": []
    }, 
    {
      "op": "null", 
      "name": "conv3_1group_batchnorm_moving_var", 
      "attr": {"__init__": "[\"one\", {}]"}, 
      "inputs": []
    }, 
    {
      "op": "BatchNorm", 
      "name": "conv3_1group_batchnorm", 
      "inputs": [[148, 0, 0], [149, 0, 0], [150, 0, 0], [151, 0, 1], [152, 0, 1]]
    }, 
    {
      "op": "null", 
      "name": "conv3_1group_alpha", 
      "attr": {
        "__dtype__": "0", 
        "__init__": "[\"one\", {}]", 
        "__shape__": "1"
      }, 
      "inputs": []
    }, 
    {
      "op": "broadcast_mul", 
      "name": "broadcast_mul10", 
      "inputs": [[153, 0, 0], [154, 0, 0]]
    }, 
    {
      "op": "null", 
      "name": "conv3_1group_beta", 
      "attr": {
        "__dtype__": "0", 
        "__init__": "[\"zero\", {}]", 
        "__shape__": "1"
      }, 
      "inputs": []
    }, 
    {
      "op": "broadcast_add", 
      "name": "broadcast_add10", 
      "inputs": [[155, 0, 0], [156, 0, 0]]
    }, 
    {
      "op": "Activation", 
      "name": "conv3_1group_relu", 
      "attr": {"act_type": "relu"}, 
      "inputs": [[157, 0, 0]]
    }, 
    {
      "op": "null", 
      "name": "conv3_1_2_con2d_weight", 
      "attr": {
        "kernel": "(3, 3)", 
        "num_filter": "48", 
        "pad": "(1, 1)", 
        "stride": "(1, 1)"
      }, 
      "inputs": []
    }, 
    {
      "op": "null", 
      "name": "conv3_1_2_con2d_bias", 
      "attr": {
        "kernel": "(3, 3)", 
        "num_filter": "48", 
        "pad": "(1, 1)", 
        "stride": "(1, 1)"
      }, 
      "inputs": []
    }, 
    {
      "op": "Convolution", 
      "name": "conv3_1_2_con2d", 
      "attr": {
        "kernel": "(3, 3)", 
        "num_filter": "48", 
        "pad": "(1, 1)", 
        "stride": "(1, 1)"
      }, 
      "inputs": [[158, 0, 0], [159, 0, 0], [160, 0, 0]]
    }, 
    {
      "op": "null", 
      "name": "conv3_1_batchnorm_gamma", 
      "attr": {"fix_gamma": "True"}, 
      "inputs": []
    }, 
    {
      "op": "null", 
      "name": "conv3_1_batchnorm_beta", 
      "attr": {"fix_gamma": "True"}, 
      "inputs": []
    }, 
    {
      "op": "null", 
      "name": "conv3_1_batchnorm_moving_mean", 
      "attr": {
        "__init__": "[\"zero\", {}]", 
        "fix_gamma": "True"
      }, 
      "inputs": []
    }, 
    {
      "op": "null", 
      "name": "conv3_1_batchnorm_moving_var", 
      "attr": {
        "__init__": "[\"one\", {}]", 
        "fix_gamma": "True"
      }, 
      "inputs": []
    }, 
    {
      "op": "BatchNorm", 
      "name": "conv3_1_batchnorm", 
      "attr": {"fix_gamma": "True"}, 
      "inputs": [[161, 0, 0], [162, 0, 0], [163, 0, 0], [164, 0, 1], [165, 0, 1]]
    }, 
    {
      "op": "negative", 
      "name": "conv3_1_negative", 
      "inputs": [[166, 0, 0]]
    }, 
    {
      "op": "Concat", 
      "name": "concat4", 
      "attr": {"num_args": "2"}, 
      "inputs": [[166, 0, 0], [167, 0, 0]]
    }, 
    {
      "op": "null", 
      "name": "conv3_1_alpha", 
      "attr": {
        "__dtype__": "0", 
        "__init__": "[\"one\", {}]", 
        "__shape__": "1"
      }, 
      "inputs": []
    }, 
    {
      "op": "broadcast_mul", 
      "name": "broadcast_mul11", 
      "inputs": [[168, 0, 0], [169, 0, 0]]
    }, 
    {
      "op": "null", 
      "name": "conv3_1_beta", 
      "attr": {
        "__dtype__": "0", 
        "__init__": "[\"zero\", {}]", 
        "__shape__": "1"
      }, 
      "inputs": []
    }, 
    {
      "op": "broadcast_add", 
      "name": "broadcast_add11", 
      "inputs": [[170, 0, 0], [171, 0, 0]]
    }, 
    {
      "op": "Activation", 
      "name": "conv3_1_relu", 
      "attr": {"act_type": "relu"}, 
      "inputs": [[172, 0, 0]]
    }, 
    {
      "op": "null", 
      "name": "conv3_1_3_con2d_weight", 
      "attr": {
        "kernel": "(1, 1)", 
        "num_filter": "128", 
        "pad": "(0, 0)", 
        "stride": "(1, 1)"
      }, 
      "inputs": []
    }, 
    {
      "op": "null", 
      "name": "conv3_1_3_con2d_bias", 
      "attr": {
        "kernel": "(1, 1)", 
        "num_filter": "128", 
        "pad": "(0, 0)", 
        "stride": "(1, 1)"
      }, 
      "inputs": []
    }, 
    {
      "op": "Convolution", 
      "name": "conv3_1_3_con2d", 
      "attr": {
        "kernel": "(1, 1)", 
        "num_filter": "128", 
        "pad": "(0, 0)", 
        "stride": "(1, 1)"
      }, 
      "inputs": [[173, 0, 0], [174, 0, 0], [175, 0, 0]]
    }, 
    {
      "op": "null", 
      "name": "conv3_1_proj_con2d_weight", 
      "attr": {
        "kernel": "(1, 1)", 
        "num_filter": "128", 
        "stride": "(2, 2)"
      }, 
      "inputs": []
    }, 
    {
      "op": "null", 
      "name": "conv3_1_proj_con2d_bias", 
      "attr": {
        "kernel": "(1, 1)", 
        "num_filter": "128", 
        "stride": "(2, 2)"
      }, 
      "inputs": []
    }, 
    {
      "op": "Convolution", 
      "name": "conv3_1_proj_con2d", 
      "attr": {
        "kernel": "(1, 1)", 
        "num_filter": "128", 
        "stride": "(2, 2)"
      }, 
      "inputs": [[145, 0, 0], [177, 0, 0], [178, 0, 0]]
    }, 
    {
      "op": "elemwise_add", 
      "name": "_plus3", 
      "inputs": [[176, 0, 0], [179, 0, 0]]
    }, 
    {
      "op": "null", 
      "name": "conv3_2bsr_batchnorm_gamma", 
      "inputs": []
    }, 
    {
      "op": "null", 
      "name": "conv3_2bsr_batchnorm_beta", 
      "inputs": []
    }, 
    {
      "op": "null", 
      "name": "conv3_2bsr_batchnorm_moving_mean", 
      "attr": {"__init__": "[\"zero\", {}]"}, 
      "inputs": []
    }, 
    {
      "op": "null", 
      "name": "conv3_2bsr_batchnorm_moving_var", 
      "attr": {"__init__": "[\"one\", {}]"}, 
      "inputs": []
    }, 
    {
      "op": "BatchNorm", 
      "name": "conv3_2bsr_batchnorm", 
      "inputs": [[180, 0, 0], [181, 0, 0], [182, 0, 0], [183, 0, 1], [184, 0, 1]]
    }, 
    {
      "op": "null", 
      "name": "conv3_2bsr_alpha", 
      "attr": {
        "__dtype__": "0", 
        "__init__": "[\"one\", {}]", 
        "__shape__": "1"
      }, 
      "inputs": []
    }, 
    {
      "op": "broadcast_mul", 
      "name": "broadcast_mul12", 
      "inputs": [[185, 0, 0], [186, 0, 0]]
    }, 
    {
      "op": "null", 
      "name": "conv3_2bsr_beta", 
      "attr": {
        "__dtype__": "0", 
        "__init__": "[\"zero\", {}]", 
        "__shape__": "1"
      }, 
      "inputs": []
    }, 
    {
      "op": "broadcast_add", 
      "name": "broadcast_add12", 
      "inputs": [[187, 0, 0], [188, 0, 0]]
    }, 
    {
      "op": "Activation", 
      "name": "conv3_2bsr_relu", 
      "attr": {"act_type": "relu"}, 
      "inputs": [[189, 0, 0]]
    }, 
    {
      "op": "null", 
      "name": "conv3_2_1_con2d_weight", 
      "attr": {
        "kernel": "(1, 1)", 
        "num_filter": "48", 
        "pad": "(0, 0)", 
        "stride": "(1, 1)"
      }, 
      "inputs": []
    }, 
    {
      "op": "null", 
      "name": "conv3_2_1_con2d_bias", 
      "attr": {
        "kernel": "(1, 1)", 
        "num_filter": "48", 
        "pad": "(0, 0)", 
        "stride": "(1, 1)"
      }, 
      "inputs": []
    }, 
    {
      "op": "Convolution", 
      "name": "conv3_2_1_con2d", 
      "attr": {
        "kernel": "(1, 1)", 
        "num_filter": "48", 
        "pad": "(0, 0)", 
        "stride": "(1, 1)"
      }, 
      "inputs": [[190, 0, 0], [191, 0, 0], [192, 0, 0]]
    }, 
    {
      "op": "null", 
      "name": "conv3_2group_batchnorm_gamma", 
      "inputs": []
    }, 
    {
      "op": "null", 
      "name": "conv3_2group_batchnorm_beta", 
      "inputs": []
    }, 
    {
      "op": "null", 
      "name": "conv3_2group_batchnorm_moving_mean", 
      "attr": {"__init__": "[\"zero\", {}]"}, 
      "inputs": []
    }, 
    {
      "op": "null", 
      "name": "conv3_2group_batchnorm_moving_var", 
      "attr": {"__init__": "[\"one\", {}]"}, 
      "inputs": []
    }, 
    {
      "op": "BatchNorm", 
      "name": "conv3_2group_batchnorm", 
      "inputs": [[193, 0, 0], [194, 0, 0], [195, 0, 0], [196, 0, 1], [197, 0, 1]]
    }, 
    {
      "op": "null", 
      "name": "conv3_2group_alpha", 
      "attr": {
        "__dtype__": "0", 
        "__init__": "[\"one\", {}]", 
        "__shape__": "1"
      }, 
      "inputs": []
    }, 
    {
      "op": "broadcast_mul", 
      "name": "broadcast_mul13", 
      "inputs": [[198, 0, 0], [199, 0, 0]]
    }, 
    {
      "op": "null", 
      "name": "conv3_2group_beta", 
      "attr": {
        "__dtype__": "0", 
        "__init__": "[\"zero\", {}]", 
        "__shape__": "1"
      }, 
      "inputs": []
    }, 
    {
      "op": "broadcast_add", 
      "name": "broadcast_add13", 
      "inputs": [[200, 0, 0], [201, 0, 0]]
    }, 
    {
      "op": "Activation", 
      "name": "conv3_2group_relu", 
      "attr": {"act_type": "relu"}, 
      "inputs": [[202, 0, 0]]
    }, 
    {
      "op": "null", 
      "name": "conv3_2_2_con2d_weight", 
      "attr": {
        "kernel": "(3, 3)", 
        "num_filter": "48", 
        "pad": "(1, 1)", 
        "stride": "(1, 1)"
      }, 
      "inputs": []
    }, 
    {
      "op": "null", 
      "name": "conv3_2_2_con2d_bias", 
      "attr": {
        "kernel": "(3, 3)", 
        "num_filter": "48", 
        "pad": "(1, 1)", 
        "stride": "(1, 1)"
      }, 
      "inputs": []
    }, 
    {
      "op": "Convolution", 
      "name": "conv3_2_2_con2d", 
      "attr": {
        "kernel": "(3, 3)", 
        "num_filter": "48", 
        "pad": "(1, 1)", 
        "stride": "(1, 1)"
      }, 
      "inputs": [[203, 0, 0], [204, 0, 0], [205, 0, 0]]
    }, 
    {
      "op": "null", 
      "name": "conv3_2_batchnorm_gamma", 
      "attr": {"fix_gamma": "True"}, 
      "inputs": []
    }, 
    {
      "op": "null", 
      "name": "conv3_2_batchnorm_beta", 
      "attr": {"fix_gamma": "True"}, 
      "inputs": []
    }, 
    {
      "op": "null", 
      "name": "conv3_2_batchnorm_moving_mean", 
      "attr": {
        "__init__": "[\"zero\", {}]", 
        "fix_gamma": "True"
      }, 
      "inputs": []
    }, 
    {
      "op": "null", 
      "name": "conv3_2_batchnorm_moving_var", 
      "attr": {
        "__init__": "[\"one\", {}]", 
        "fix_gamma": "True"
      }, 
      "inputs": []
    }, 
    {
      "op": "BatchNorm", 
      "name": "conv3_2_batchnorm", 
      "attr": {"fix_gamma": "True"}, 
      "inputs": [[206, 0, 0], [207, 0, 0], [208, 0, 0], [209, 0, 1], [210, 0, 1]]
    }, 
    {
      "op": "negative", 
      "name": "conv3_2_negative", 
      "inputs": [[211, 0, 0]]
    }, 
    {
      "op": "Concat", 
      "name": "concat5", 
      "attr": {"num_args": "2"}, 
      "inputs": [[211, 0, 0], [212, 0, 0]]
    }, 
    {
      "op": "null", 
      "name": "conv3_2_alpha", 
      "attr": {
        "__dtype__": "0", 
        "__init__": "[\"one\", {}]", 
        "__shape__": "1"
      }, 
      "inputs": []
    }, 
    {
      "op": "broadcast_mul", 
      "name": "broadcast_mul14", 
      "inputs": [[213, 0, 0], [214, 0, 0]]
    }, 
    {
      "op": "null", 
      "name": "conv3_2_beta", 
      "attr": {
        "__dtype__": "0", 
        "__init__": "[\"zero\", {}]", 
        "__shape__": "1"
      }, 
      "inputs": []
    }, 
    {
      "op": "broadcast_add", 
      "name": "broadcast_add14", 
      "inputs": [[215, 0, 0], [216, 0, 0]]
    }, 
    {
      "op": "Activation", 
      "name": "conv3_2_relu", 
      "attr": {"act_type": "relu"}, 
      "inputs": [[217, 0, 0]]
    }, 
    {
      "op": "null", 
      "name": "conv3_2_3_con2d_weight", 
      "attr": {
        "kernel": "(1, 1)", 
        "num_filter": "128", 
        "pad": "(0, 0)", 
        "stride": "(1, 1)"
      }, 
      "inputs": []
    }, 
    {
      "op": "null", 
      "name": "conv3_2_3_con2d_bias", 
      "attr": {
        "kernel": "(1, 1)", 
        "num_filter": "128", 
        "pad": "(0, 0)", 
        "stride": "(1, 1)"
      }, 
      "inputs": []
    }, 
    {
      "op": "Convolution", 
      "name": "conv3_2_3_con2d", 
      "attr": {
        "kernel": "(1, 1)", 
        "num_filter": "128", 
        "pad": "(0, 0)", 
        "stride": "(1, 1)"
      }, 
      "inputs": [[218, 0, 0], [219, 0, 0], [220, 0, 0]]
    }, 
    {
      "op": "elemwise_add", 
      "name": "_plus4", 
      "inputs": [[221, 0, 0], [180, 0, 0]]
    }, 
    {
      "op": "null", 
      "name": "conv3_3bsr_batchnorm_gamma", 
      "inputs": []
    }, 
    {
      "op": "null", 
      "name": "conv3_3bsr_batchnorm_beta", 
      "inputs": []
    }, 
    {
      "op": "null", 
      "name": "conv3_3bsr_batchnorm_moving_mean", 
      "attr": {"__init__": "[\"zero\", {}]"}, 
      "inputs": []
    }, 
    {
      "op": "null", 
      "name": "conv3_3bsr_batchnorm_moving_var", 
      "attr": {"__init__": "[\"one\", {}]"}, 
      "inputs": []
    }, 
    {
      "op": "BatchNorm", 
      "name": "conv3_3bsr_batchnorm", 
      "inputs": [[222, 0, 0], [223, 0, 0], [224, 0, 0], [225, 0, 1], [226, 0, 1]]
    }, 
    {
      "op": "null", 
      "name": "conv3_3bsr_alpha", 
      "attr": {
        "__dtype__": "0", 
        "__init__": "[\"one\", {}]", 
        "__shape__": "1"
      }, 
      "inputs": []
    }, 
    {
      "op": "broadcast_mul", 
      "name": "broadcast_mul15", 
      "inputs": [[227, 0, 0], [228, 0, 0]]
    }, 
    {
      "op": "null", 
      "name": "conv3_3bsr_beta", 
      "attr": {
        "__dtype__": "0", 
        "__init__": "[\"zero\", {}]", 
        "__shape__": "1"
      }, 
      "inputs": []
    }, 
    {
      "op": "broadcast_add", 
      "name": "broadcast_add15", 
      "inputs": [[229, 0, 0], [230, 0, 0]]
    }, 
    {
      "op": "Activation", 
      "name": "conv3_3bsr_relu", 
      "attr": {"act_type": "relu"}, 
      "inputs": [[231, 0, 0]]
    }, 
    {
      "op": "null", 
      "name": "conv3_3_1_con2d_weight", 
      "attr": {
        "kernel": "(1, 1)", 
        "num_filter": "48", 
        "pad": "(0, 0)", 
        "stride": "(1, 1)"
      }, 
      "inputs": []
    }, 
    {
      "op": "null", 
      "name": "conv3_3_1_con2d_bias", 
      "attr": {
        "kernel": "(1, 1)", 
        "num_filter": "48", 
        "pad": "(0, 0)", 
        "stride": "(1, 1)"
      }, 
      "inputs": []
    }, 
    {
      "op": "Convolution", 
      "name": "conv3_3_1_con2d", 
      "attr": {
        "kernel": "(1, 1)", 
        "num_filter": "48", 
        "pad": "(0, 0)", 
        "stride": "(1, 1)"
      }, 
      "inputs": [[232, 0, 0], [233, 0, 0], [234, 0, 0]]
    }, 
    {
      "op": "null", 
      "name": "conv3_3group_batchnorm_gamma", 
      "inputs": []
    }, 
    {
      "op": "null", 
      "name": "conv3_3group_batchnorm_beta", 
      "inputs": []
    }, 
    {
      "op": "null", 
      "name": "conv3_3group_batchnorm_moving_mean", 
      "attr": {"__init__": "[\"zero\", {}]"}, 
      "inputs": []
    }, 
    {
      "op": "null", 
      "name": "conv3_3group_batchnorm_moving_var", 
      "attr": {"__init__": "[\"one\", {}]"}, 
      "inputs": []
    }, 
    {
      "op": "BatchNorm", 
      "name": "conv3_3group_batchnorm", 
      "inputs": [[235, 0, 0], [236, 0, 0], [237, 0, 0], [238, 0, 1], [239, 0, 1]]
    }, 
    {
      "op": "null", 
      "name": "conv3_3group_alpha", 
      "attr": {
        "__dtype__": "0", 
        "__init__": "[\"one\", {}]", 
        "__shape__": "1"
      }, 
      "inputs": []
    }, 
    {
      "op": "broadcast_mul", 
      "name": "broadcast_mul16", 
      "inputs": [[240, 0, 0], [241, 0, 0]]
    }, 
    {
      "op": "null", 
      "name": "conv3_3group_beta", 
      "attr": {
        "__dtype__": "0", 
        "__init__": "[\"zero\", {}]", 
        "__shape__": "1"
      }, 
      "inputs": []
    }, 
    {
      "op": "broadcast_add", 
      "name": "broadcast_add16", 
      "inputs": [[242, 0, 0], [243, 0, 0]]
    }, 
    {
      "op": "Activation", 
      "name": "conv3_3group_relu", 
      "attr": {"act_type": "relu"}, 
      "inputs": [[244, 0, 0]]
    }, 
    {
      "op": "null", 
      "name": "conv3_3_2_con2d_weight", 
      "attr": {
        "kernel": "(3, 3)", 
        "num_filter": "48", 
        "pad": "(1, 1)", 
        "stride": "(1, 1)"
      }, 
      "inputs": []
    }, 
    {
      "op": "null", 
      "name": "conv3_3_2_con2d_bias", 
      "attr": {
        "kernel": "(3, 3)", 
        "num_filter": "48", 
        "pad": "(1, 1)", 
        "stride": "(1, 1)"
      }, 
      "inputs": []
    }, 
    {
      "op": "Convolution", 
      "name": "conv3_3_2_con2d", 
      "attr": {
        "kernel": "(3, 3)", 
        "num_filter": "48", 
        "pad": "(1, 1)", 
        "stride": "(1, 1)"
      }, 
      "inputs": [[245, 0, 0], [246, 0, 0], [247, 0, 0]]
    }, 
    {
      "op": "null", 
      "name": "conv3_3_batchnorm_gamma", 
      "attr": {"fix_gamma": "True"}, 
      "inputs": []
    }, 
    {
      "op": "null", 
      "name": "conv3_3_batchnorm_beta", 
      "attr": {"fix_gamma": "True"}, 
      "inputs": []
    }, 
    {
      "op": "null", 
      "name": "conv3_3_batchnorm_moving_mean", 
      "attr": {
        "__init__": "[\"zero\", {}]", 
        "fix_gamma": "True"
      }, 
      "inputs": []
    }, 
    {
      "op": "null", 
      "name": "conv3_3_batchnorm_moving_var", 
      "attr": {
        "__init__": "[\"one\", {}]", 
        "fix_gamma": "True"
      }, 
      "inputs": []
    }, 
    {
      "op": "BatchNorm", 
      "name": "conv3_3_batchnorm", 
      "attr": {"fix_gamma": "True"}, 
      "inputs": [[248, 0, 0], [249, 0, 0], [250, 0, 0], [251, 0, 1], [252, 0, 1]]
    }, 
    {
      "op": "negative", 
      "name": "conv3_3_negative", 
      "inputs": [[253, 0, 0]]
    }, 
    {
      "op": "Concat", 
      "name": "concat6", 
      "attr": {"num_args": "2"}, 
      "inputs": [[253, 0, 0], [254, 0, 0]]
    }, 
    {
      "op": "null", 
      "name": "conv3_3_alpha", 
      "attr": {
        "__dtype__": "0", 
        "__init__": "[\"one\", {}]", 
        "__shape__": "1"
      }, 
      "inputs": []
    }, 
    {
      "op": "broadcast_mul", 
      "name": "broadcast_mul17", 
      "inputs": [[255, 0, 0], [256, 0, 0]]
    }, 
    {
      "op": "null", 
      "name": "conv3_3_beta", 
      "attr": {
        "__dtype__": "0", 
        "__init__": "[\"zero\", {}]", 
        "__shape__": "1"
      }, 
      "inputs": []
    }, 
    {
      "op": "broadcast_add", 
      "name": "broadcast_add17", 
      "inputs": [[257, 0, 0], [258, 0, 0]]
    }, 
    {
      "op": "Activation", 
      "name": "conv3_3_relu", 
      "attr": {"act_type": "relu"}, 
      "inputs": [[259, 0, 0]]
    }, 
    {
      "op": "null", 
      "name": "conv3_3_3_con2d_weight", 
      "attr": {
        "kernel": "(1, 1)", 
        "num_filter": "128", 
        "pad": "(0, 0)", 
        "stride": "(1, 1)"
      }, 
      "inputs": []
    }, 
    {
      "op": "null", 
      "name": "conv3_3_3_con2d_bias", 
      "attr": {
        "kernel": "(1, 1)", 
        "num_filter": "128", 
        "pad": "(0, 0)", 
        "stride": "(1, 1)"
      }, 
      "inputs": []
    }, 
    {
      "op": "Convolution", 
      "name": "conv3_3_3_con2d", 
      "attr": {
        "kernel": "(1, 1)", 
        "num_filter": "128", 
        "pad": "(0, 0)", 
        "stride": "(1, 1)"
      }, 
      "inputs": [[260, 0, 0], [261, 0, 0], [262, 0, 0]]
    }, 
    {
      "op": "elemwise_add", 
      "name": "_plus5", 
      "inputs": [[263, 0, 0], [222, 0, 0]]
    }, 
    {
      "op": "null", 
      "name": "conv3_4bsr_batchnorm_gamma", 
      "inputs": []
    }, 
    {
      "op": "null", 
      "name": "conv3_4bsr_batchnorm_beta", 
      "inputs": []
    }, 
    {
      "op": "null", 
      "name": "conv3_4bsr_batchnorm_moving_mean", 
      "attr": {"__init__": "[\"zero\", {}]"}, 
      "inputs": []
    }, 
    {
      "op": "null", 
      "name": "conv3_4bsr_batchnorm_moving_var", 
      "attr": {"__init__": "[\"one\", {}]"}, 
      "inputs": []
    }, 
    {
      "op": "BatchNorm", 
      "name": "conv3_4bsr_batchnorm", 
      "inputs": [[264, 0, 0], [265, 0, 0], [266, 0, 0], [267, 0, 1], [268, 0, 1]]
    }, 
    {
      "op": "null", 
      "name": "conv3_4bsr_alpha", 
      "attr": {
        "__dtype__": "0", 
        "__init__": "[\"one\", {}]", 
        "__shape__": "1"
      }, 
      "inputs": []
    }, 
    {
      "op": "broadcast_mul", 
      "name": "broadcast_mul18", 
      "inputs": [[269, 0, 0], [270, 0, 0]]
    }, 
    {
      "op": "null", 
      "name": "conv3_4bsr_beta", 
      "attr": {
        "__dtype__": "0", 
        "__init__": "[\"zero\", {}]", 
        "__shape__": "1"
      }, 
      "inputs": []
    }, 
    {
      "op": "broadcast_add", 
      "name": "broadcast_add18", 
      "inputs": [[271, 0, 0], [272, 0, 0]]
    }, 
    {
      "op": "Activation", 
      "name": "conv3_4bsr_relu", 
      "attr": {"act_type": "relu"}, 
      "inputs": [[273, 0, 0]]
    }, 
    {
      "op": "null", 
      "name": "conv3_4_1_con2d_weight", 
      "attr": {
        "kernel": "(1, 1)", 
        "num_filter": "48", 
        "pad": "(0, 0)", 
        "stride": "(1, 1)"
      }, 
      "inputs": []
    }, 
    {
      "op": "null", 
      "name": "conv3_4_1_con2d_bias", 
      "attr": {
        "kernel": "(1, 1)", 
        "num_filter": "48", 
        "pad": "(0, 0)", 
        "stride": "(1, 1)"
      }, 
      "inputs": []
    }, 
    {
      "op": "Convolution", 
      "name": "conv3_4_1_con2d", 
      "attr": {
        "kernel": "(1, 1)", 
        "num_filter": "48", 
        "pad": "(0, 0)", 
        "stride": "(1, 1)"
      }, 
      "inputs": [[274, 0, 0], [275, 0, 0], [276, 0, 0]]
    }, 
    {
      "op": "null", 
      "name": "conv3_4group_batchnorm_gamma", 
      "inputs": []
    }, 
    {
      "op": "null", 
      "name": "conv3_4group_batchnorm_beta", 
      "inputs": []
    }, 
    {
      "op": "null", 
      "name": "conv3_4group_batchnorm_moving_mean", 
      "attr": {"__init__": "[\"zero\", {}]"}, 
      "inputs": []
    }, 
    {
      "op": "null", 
      "name": "conv3_4group_batchnorm_moving_var", 
      "attr": {"__init__": "[\"one\", {}]"}, 
      "inputs": []
    }, 
    {
      "op": "BatchNorm", 
      "name": "conv3_4group_batchnorm", 
      "inputs": [[277, 0, 0], [278, 0, 0], [279, 0, 0], [280, 0, 1], [281, 0, 1]]
    }, 
    {
      "op": "null", 
      "name": "conv3_4group_alpha", 
      "attr": {
        "__dtype__": "0", 
        "__init__": "[\"one\", {}]", 
        "__shape__": "1"
      }, 
      "inputs": []
    }, 
    {
      "op": "broadcast_mul", 
      "name": "broadcast_mul19", 
      "inputs": [[282, 0, 0], [283, 0, 0]]
    }, 
    {
      "op": "null", 
      "name": "conv3_4group_beta", 
      "attr": {
        "__dtype__": "0", 
        "__init__": "[\"zero\", {}]", 
        "__shape__": "1"
      }, 
      "inputs": []
    }, 
    {
      "op": "broadcast_add", 
      "name": "broadcast_add19", 
      "inputs": [[284, 0, 0], [285, 0, 0]]
    }, 
    {
      "op": "Activation", 
      "name": "conv3_4group_relu", 
      "attr": {"act_type": "relu"}, 
      "inputs": [[286, 0, 0]]
    }, 
    {
      "op": "null", 
      "name": "conv3_4_2_con2d_weight", 
      "attr": {
        "kernel": "(3, 3)", 
        "num_filter": "48", 
        "pad": "(1, 1)", 
        "stride": "(1, 1)"
      }, 
      "inputs": []
    }, 
    {
      "op": "null", 
      "name": "conv3_4_2_con2d_bias", 
      "attr": {
        "kernel": "(3, 3)", 
        "num_filter": "48", 
        "pad": "(1, 1)", 
        "stride": "(1, 1)"
      }, 
      "inputs": []
    }, 
    {
      "op": "Convolution", 
      "name": "conv3_4_2_con2d", 
      "attr": {
        "kernel": "(3, 3)", 
        "num_filter": "48", 
        "pad": "(1, 1)", 
        "stride": "(1, 1)"
      }, 
      "inputs": [[287, 0, 0], [288, 0, 0], [289, 0, 0]]
    }, 
    {
      "op": "null", 
      "name": "conv3_4_batchnorm_gamma", 
      "attr": {"fix_gamma": "True"}, 
      "inputs": []
    }, 
    {
      "op": "null", 
      "name": "conv3_4_batchnorm_beta", 
      "attr": {"fix_gamma": "True"}, 
      "inputs": []
    }, 
    {
      "op": "null", 
      "name": "conv3_4_batchnorm_moving_mean", 
      "attr": {
        "__init__": "[\"zero\", {}]", 
        "fix_gamma": "True"
      }, 
      "inputs": []
    }, 
    {
      "op": "null", 
      "name": "conv3_4_batchnorm_moving_var", 
      "attr": {
        "__init__": "[\"one\", {}]", 
        "fix_gamma": "True"
      }, 
      "inputs": []
    }, 
    {
      "op": "BatchNorm", 
      "name": "conv3_4_batchnorm", 
      "attr": {"fix_gamma": "True"}, 
      "inputs": [[290, 0, 0], [291, 0, 0], [292, 0, 0], [293, 0, 1], [294, 0, 1]]
    }, 
    {
      "op": "negative", 
      "name": "conv3_4_negative", 
      "inputs": [[295, 0, 0]]
    }, 
    {
      "op": "Concat", 
      "name": "concat7", 
      "attr": {"num_args": "2"}, 
      "inputs": [[295, 0, 0], [296, 0, 0]]
    }, 
    {
      "op": "null", 
      "name": "conv3_4_alpha", 
      "attr": {
        "__dtype__": "0", 
        "__init__": "[\"one\", {}]", 
        "__shape__": "1"
      }, 
      "inputs": []
    }, 
    {
      "op": "broadcast_mul", 
      "name": "broadcast_mul20", 
      "inputs": [[297, 0, 0], [298, 0, 0]]
    }, 
    {
      "op": "null", 
      "name": "conv3_4_beta", 
      "attr": {
        "__dtype__": "0", 
        "__init__": "[\"zero\", {}]", 
        "__shape__": "1"
      }, 
      "inputs": []
    }, 
    {
      "op": "broadcast_add", 
      "name": "broadcast_add20", 
      "inputs": [[299, 0, 0], [300, 0, 0]]
    }, 
    {
      "op": "Activation", 
      "name": "conv3_4_relu", 
      "attr": {"act_type": "relu"}, 
      "inputs": [[301, 0, 0]]
    }, 
    {
      "op": "null", 
      "name": "conv3_4_3_con2d_weight", 
      "attr": {
        "kernel": "(1, 1)", 
        "num_filter": "128", 
        "pad": "(0, 0)", 
        "stride": "(1, 1)"
      }, 
      "inputs": []
    }, 
    {
      "op": "null", 
      "name": "conv3_4_3_con2d_bias", 
      "attr": {
        "kernel": "(1, 1)", 
        "num_filter": "128", 
        "pad": "(0, 0)", 
        "stride": "(1, 1)"
      }, 
      "inputs": []
    }, 
    {
      "op": "Convolution", 
      "name": "conv3_4_3_con2d", 
      "attr": {
        "kernel": "(1, 1)", 
        "num_filter": "128", 
        "pad": "(0, 0)", 
        "stride": "(1, 1)"
      }, 
      "inputs": [[302, 0, 0], [303, 0, 0], [304, 0, 0]]
    }, 
    {
      "op": "elemwise_add", 
      "name": "_plus6", 
      "inputs": [[305, 0, 0], [264, 0, 0]]
    }, 
    {
      "op": "null", 
      "name": "_plus6_cls_pred_conv_weight", 
      "attr": {
        "kernel": "(3, 3)", 
        "num_filter": "30", 
        "pad": "(1, 1)", 
        "stride": "(1, 1)"
      }, 
      "inputs": []
    }, 
    {
      "op": "null", 
      "name": "_plus6_cls_pred_conv_bias", 
      "attr": {
        "__init__": "[\"constant\", {\"value\": 0.0}]", 
        "__lr_mult__": "2.0"
      }, 
      "inputs": []
    }, 
    {
      "op": "Convolution", 
      "name": "_plus6_cls_pred_conv", 
      "attr": {
        "kernel": "(3, 3)", 
        "num_filter": "30", 
        "pad": "(1, 1)", 
        "stride": "(1, 1)"
      }, 
      "inputs": [[306, 0, 0], [307, 0, 0], [308, 0, 0]]
    }, 
    {
      "op": "transpose", 
      "name": "transpose1", 
      "attr": {"axes": "(0, 2, 3, 1)"}, 
      "inputs": [[309, 0, 0]]
    }, 
    {
      "op": "Flatten", 
      "name": "flatten1", 
      "inputs": [[310, 0, 0]]
    }, 
    {
      "op": "null", 
      "name": "conv4_1bsr_batchnorm_gamma", 
      "inputs": []
    }, 
    {
      "op": "null", 
      "name": "conv4_1bsr_batchnorm_beta", 
      "inputs": []
    }, 
    {
      "op": "null", 
      "name": "conv4_1bsr_batchnorm_moving_mean", 
      "attr": {"__init__": "[\"zero\", {}]"}, 
      "inputs": []
    }, 
    {
      "op": "null", 
      "name": "conv4_1bsr_batchnorm_moving_var", 
      "attr": {"__init__": "[\"one\", {}]"}, 
      "inputs": []
    }, 
    {
      "op": "BatchNorm", 
      "name": "conv4_1bsr_batchnorm", 
      "inputs": [[306, 0, 0], [312, 0, 0], [313, 0, 0], [314, 0, 1], [315, 0, 1]]
    }, 
    {
      "op": "null", 
      "name": "conv4_1bsr_alpha", 
      "attr": {
        "__dtype__": "0", 
        "__init__": "[\"one\", {}]", 
        "__shape__": "1"
      }, 
      "inputs": []
    }, 
    {
      "op": "broadcast_mul", 
      "name": "broadcast_mul21", 
      "inputs": [[316, 0, 0], [317, 0, 0]]
    }, 
    {
      "op": "null", 
      "name": "conv4_1bsr_beta", 
      "attr": {
        "__dtype__": "0", 
        "__init__": "[\"zero\", {}]", 
        "__shape__": "1"
      }, 
      "inputs": []
    }, 
    {
      "op": "broadcast_add", 
      "name": "broadcast_add21", 
      "inputs": [[318, 0, 0], [319, 0, 0]]
    }, 
    {
      "op": "Activation", 
      "name": "conv4_1bsr_relu", 
      "attr": {"act_type": "relu"}, 
      "inputs": [[320, 0, 0]]
    }, 
    {
      "op": "null", 
      "name": "conv4_1a_conv2d_weight", 
      "attr": {
        "kernel": "(1, 1)", 
        "no_bias": "True", 
        "num_filter": "64", 
        "pad": "(0, 0)", 
        "stride": "(2, 2)"
      }, 
      "inputs": []
    }, 
    {
      "op": "Convolution", 
      "name": "conv4_1a_conv2d", 
      "attr": {
        "kernel": "(1, 1)", 
        "no_bias": "True", 
        "num_filter": "64", 
        "pad": "(0, 0)", 
        "stride": "(2, 2)"
      }, 
      "inputs": [[321, 0, 0], [322, 0, 0]]
    }, 
    {
      "op": "null", 
      "name": "conv4_1a_batchnorm_gamma", 
      "inputs": []
    }, 
    {
      "op": "null", 
      "name": "conv4_1a_batchnorm_beta", 
      "inputs": []
    }, 
    {
      "op": "null", 
      "name": "conv4_1a_batchnorm_moving_mean", 
      "attr": {"__init__": "[\"zero\", {}]"}, 
      "inputs": []
    }, 
    {
      "op": "null", 
      "name": "conv4_1a_batchnorm_moving_var", 
      "attr": {"__init__": "[\"one\", {}]"}, 
      "inputs": []
    }, 
    {
      "op": "BatchNorm", 
      "name": "conv4_1a_batchnorm", 
      "inputs": [[323, 0, 0], [324, 0, 0], [325, 0, 0], [326, 0, 1], [327, 0, 1]]
    }, 
    {
      "op": "null", 
      "name": "conv4_1a_scale_and_shift_alpha", 
      "attr": {
        "__dtype__": "0", 
        "__init__": "[\"one\", {}]", 
        "__shape__": "1"
      }, 
      "inputs": []
    }, 
    {
      "op": "broadcast_mul", 
      "name": "broadcast_mul22", 
      "inputs": [[328, 0, 0], [329, 0, 0]]
    }, 
    {
      "op": "null", 
      "name": "conv4_1a_scale_and_shift_beta", 
      "attr": {
        "__dtype__": "0", 
        "__init__": "[\"zero\", {}]", 
        "__shape__": "1"
      }, 
      "inputs": []
    }, 
    {
      "op": "broadcast_add", 
      "name": "broadcast_add22", 
      "inputs": [[330, 0, 0], [331, 0, 0]]
    }, 
    {
      "op": "Activation", 
      "name": "conv4_1a_relu", 
      "attr": {"act_type": "relu"}, 
      "inputs": [[332, 0, 0]]
    }, 
    {
      "op": "null", 
      "name": "conv4_1b1_conv2d_weight", 
      "attr": {
        "kernel": "(1, 1)", 
        "no_bias": "True", 
        "num_filter": "48", 
        "pad": "(0, 0)", 
        "stride": "(2, 2)"
      }, 
      "inputs": []
    }, 
    {
      "op": "Convolution", 
      "name": "conv4_1b1_conv2d", 
      "attr": {
        "kernel": "(1, 1)", 
        "no_bias": "True", 
        "num_filter": "48", 
        "pad": "(0, 0)", 
        "stride": "(2, 2)"
      }, 
      "inputs": [[321, 0, 0], [334, 0, 0]]
    }, 
    {
      "op": "null", 
      "name": "conv4_1b1_batchnorm_gamma", 
      "inputs": []
    }, 
    {
      "op": "null", 
      "name": "conv4_1b1_batchnorm_beta", 
      "inputs": []
    }, 
    {
      "op": "null", 
      "name": "conv4_1b1_batchnorm_moving_mean", 
      "attr": {"__init__": "[\"zero\", {}]"}, 
      "inputs": []
    }, 
    {
      "op": "null", 
      "name": "conv4_1b1_batchnorm_moving_var", 
      "attr": {"__init__": "[\"one\", {}]"}, 
      "inputs": []
    }, 
    {
      "op": "BatchNorm", 
      "name": "conv4_1b1_batchnorm", 
      "inputs": [[335, 0, 0], [336, 0, 0], [337, 0, 0], [338, 0, 1], [339, 0, 1]]
    }, 
    {
      "op": "null", 
      "name": "conv4_1b1_scale_and_shift_alpha", 
      "attr": {
        "__dtype__": "0", 
        "__init__": "[\"one\", {}]", 
        "__shape__": "1"
      }, 
      "inputs": []
    }, 
    {
      "op": "broadcast_mul", 
      "name": "broadcast_mul23", 
      "inputs": [[340, 0, 0], [341, 0, 0]]
    }, 
    {
      "op": "null", 
      "name": "conv4_1b1_scale_and_shift_beta", 
      "attr": {
        "__dtype__": "0", 
        "__init__": "[\"zero\", {}]", 
        "__shape__": "1"
      }, 
      "inputs": []
    }, 
    {
      "op": "broadcast_add", 
      "name": "broadcast_add23", 
      "inputs": [[342, 0, 0], [343, 0, 0]]
    }, 
    {
      "op": "Activation", 
      "name": "conv4_1b1_relu", 
      "attr": {"act_type": "relu"}, 
      "inputs": [[344, 0, 0]]
    }, 
    {
      "op": "null", 
      "name": "conv4_1b2_conv2d_weight", 
      "attr": {
        "kernel": "(3, 3)", 
        "no_bias": "True", 
        "num_filter": "128", 
        "pad": "(1, 1)", 
        "stride": "(1, 1)"
      }, 
      "inputs": []
    }, 
    {
      "op": "Convolution", 
      "name": "conv4_1b2_conv2d", 
      "attr": {
        "kernel": "(3, 3)", 
        "no_bias": "True", 
        "num_filter": "128", 
        "pad": "(1, 1)", 
        "stride": "(1, 1)"
      }, 
      "inputs": [[345, 0, 0], [346, 0, 0]]
    }, 
    {
      "op": "null", 
      "name": "conv4_1b2_batchnorm_gamma", 
      "inputs": []
    }, 
    {
      "op": "null", 
      "name": "conv4_1b2_batchnorm_beta", 
      "inputs": []
    }, 
    {
      "op": "null", 
      "name": "conv4_1b2_batchnorm_moving_mean", 
      "attr": {"__init__": "[\"zero\", {}]"}, 
      "inputs": []
    }, 
    {
      "op": "null", 
      "name": "conv4_1b2_batchnorm_moving_var", 
      "attr": {"__init__": "[\"one\", {}]"}, 
      "inputs": []
    }, 
    {
      "op": "BatchNorm", 
      "name": "conv4_1b2_batchnorm", 
      "inputs": [[347, 0, 0], [348, 0, 0], [349, 0, 0], [350, 0, 1], [351, 0, 1]]
    }, 
    {
      "op": "null", 
      "name": "conv4_1b2_scale_and_shift_alpha", 
      "attr": {
        "__dtype__": "0", 
        "__init__": "[\"one\", {}]", 
        "__shape__": "1"
      }, 
      "inputs": []
    }, 
    {
      "op": "broadcast_mul", 
      "name": "broadcast_mul24", 
      "inputs": [[352, 0, 0], [353, 0, 0]]
    }, 
    {
      "op": "null", 
      "name": "conv4_1b2_scale_and_shift_beta", 
      "attr": {
        "__dtype__": "0", 
        "__init__": "[\"zero\", {}]", 
        "__shape__": "1"
      }, 
      "inputs": []
    }, 
    {
      "op": "broadcast_add", 
      "name": "broadcast_add24", 
      "inputs": [[354, 0, 0], [355, 0, 0]]
    }, 
    {
      "op": "Activation", 
      "name": "conv4_1b2_relu", 
      "attr": {"act_type": "relu"}, 
      "inputs": [[356, 0, 0]]
    }, 
    {
      "op": "null", 
      "name": "conv4_1c1_conv2d_weight", 
      "attr": {
        "kernel": "(1, 1)", 
        "no_bias": "True", 
        "num_filter": "24", 
        "pad": "(0, 0)", 
        "stride": "(2, 2)"
      }, 
      "inputs": []
    }, 
    {
      "op": "Convolution", 
      "name": "conv4_1c1_conv2d", 
      "attr": {
        "kernel": "(1, 1)", 
        "no_bias": "True", 
        "num_filter": "24", 
        "pad": "(0, 0)", 
        "stride": "(2, 2)"
      }, 
      "inputs": [[321, 0, 0], [358, 0, 0]]
    }, 
    {
      "op": "null", 
      "name": "conv4_1c1_batchnorm_gamma", 
      "inputs": []
    }, 
    {
      "op": "null", 
      "name": "conv4_1c1_batchnorm_beta", 
      "inputs": []
    }, 
    {
      "op": "null", 
      "name": "conv4_1c1_batchnorm_moving_mean", 
      "attr": {"__init__": "[\"zero\", {}]"}, 
      "inputs": []
    }, 
    {
      "op": "null", 
      "name": "conv4_1c1_batchnorm_moving_var", 
      "attr": {"__init__": "[\"one\", {}]"}, 
      "inputs": []
    }, 
    {
      "op": "BatchNorm", 
      "name": "conv4_1c1_batchnorm", 
      "inputs": [[359, 0, 0], [360, 0, 0], [361, 0, 0], [362, 0, 1], [363, 0, 1]]
    }, 
    {
      "op": "null", 
      "name": "conv4_1c1_scale_and_shift_alpha", 
      "attr": {
        "__dtype__": "0", 
        "__init__": "[\"one\", {}]", 
        "__shape__": "1"
      }, 
      "inputs": []
    }, 
    {
      "op": "broadcast_mul", 
      "name": "broadcast_mul25", 
      "inputs": [[364, 0, 0], [365, 0, 0]]
    }, 
    {
      "op": "null", 
      "name": "conv4_1c1_scale_and_shift_beta", 
      "attr": {
        "__dtype__": "0", 
        "__init__": "[\"zero\", {}]", 
        "__shape__": "1"
      }, 
      "inputs": []
    }, 
    {
      "op": "broadcast_add", 
      "name": "broadcast_add25", 
      "inputs": [[366, 0, 0], [367, 0, 0]]
    }, 
    {
      "op": "Activation", 
      "name": "conv4_1c1_relu", 
      "attr": {"act_type": "relu"}, 
      "inputs": [[368, 0, 0]]
    }, 
    {
      "op": "null", 
      "name": "conv4_1c2_conv2d_weight", 
      "attr": {
        "kernel": "(3, 3)", 
        "no_bias": "True", 
        "num_filter": "48", 
        "pad": "(1, 1)", 
        "stride": "(1, 1)"
      }, 
      "inputs": []
    }, 
    {
      "op": "Convolution", 
      "name": "conv4_1c2_conv2d", 
      "attr": {
        "kernel": "(3, 3)", 
        "no_bias": "True", 
        "num_filter": "48", 
        "pad": "(1, 1)", 
        "stride": "(1, 1)"
      }, 
      "inputs": [[369, 0, 0], [370, 0, 0]]
    }, 
    {
      "op": "null", 
      "name": "conv4_1c2_batchnorm_gamma", 
      "inputs": []
    }, 
    {
      "op": "null", 
      "name": "conv4_1c2_batchnorm_beta", 
      "inputs": []
    }, 
    {
      "op": "null", 
      "name": "conv4_1c2_batchnorm_moving_mean", 
      "attr": {"__init__": "[\"zero\", {}]"}, 
      "inputs": []
    }, 
    {
      "op": "null", 
      "name": "conv4_1c2_batchnorm_moving_var", 
      "attr": {"__init__": "[\"one\", {}]"}, 
      "inputs": []
    }, 
    {
      "op": "BatchNorm", 
      "name": "conv4_1c2_batchnorm", 
      "inputs": [[371, 0, 0], [372, 0, 0], [373, 0, 0], [374, 0, 1], [375, 0, 1]]
    }, 
    {
      "op": "null", 
      "name": "conv4_1c2_scale_and_shift_alpha", 
      "attr": {
        "__dtype__": "0", 
        "__init__": "[\"one\", {}]", 
        "__shape__": "1"
      }, 
      "inputs": []
    }, 
    {
      "op": "broadcast_mul", 
      "name": "broadcast_mul26", 
      "inputs": [[376, 0, 0], [377, 0, 0]]
    }, 
    {
      "op": "null", 
      "name": "conv4_1c2_scale_and_shift_beta", 
      "attr": {
        "__dtype__": "0", 
        "__init__": "[\"zero\", {}]", 
        "__shape__": "1"
      }, 
      "inputs": []
    }, 
    {
      "op": "broadcast_add", 
      "name": "broadcast_add26", 
      "inputs": [[378, 0, 0], [379, 0, 0]]
    }, 
    {
      "op": "Activation", 
      "name": "conv4_1c2_relu", 
      "attr": {"act_type": "relu"}, 
      "inputs": [[380, 0, 0]]
    }, 
    {
      "op": "null", 
      "name": "conv4_1c3_conv2d_weight", 
      "attr": {
        "kernel": "(3, 3)", 
        "no_bias": "True", 
        "num_filter": "48", 
        "pad": "(1, 1)", 
        "stride": "(1, 1)"
      }, 
      "inputs": []
    }, 
    {
      "op": "Convolution", 
      "name": "conv4_1c3_conv2d", 
      "attr": {
        "kernel": "(3, 3)", 
        "no_bias": "True", 
        "num_filter": "48", 
        "pad": "(1, 1)", 
        "stride": "(1, 1)"
      }, 
      "inputs": [[381, 0, 0], [382, 0, 0]]
    }, 
    {
      "op": "null", 
      "name": "conv4_1c3_batchnorm_gamma", 
      "inputs": []
    }, 
    {
      "op": "null", 
      "name": "conv4_1c3_batchnorm_beta", 
      "inputs": []
    }, 
    {
      "op": "null", 
      "name": "conv4_1c3_batchnorm_moving_mean", 
      "attr": {"__init__": "[\"zero\", {}]"}, 
      "inputs": []
    }, 
    {
      "op": "null", 
      "name": "conv4_1c3_batchnorm_moving_var", 
      "attr": {"__init__": "[\"one\", {}]"}, 
      "inputs": []
    }, 
    {
      "op": "BatchNorm", 
      "name": "conv4_1c3_batchnorm", 
      "inputs": [[383, 0, 0], [384, 0, 0], [385, 0, 0], [386, 0, 1], [387, 0, 1]]
    }, 
    {
      "op": "null", 
      "name": "conv4_1c3_scale_and_shift_alpha", 
      "attr": {
        "__dtype__": "0", 
        "__init__": "[\"one\", {}]", 
        "__shape__": "1"
      }, 
      "inputs": []
    }, 
    {
      "op": "broadcast_mul", 
      "name": "broadcast_mul27", 
      "inputs": [[388, 0, 0], [389, 0, 0]]
    }, 
    {
      "op": "null", 
      "name": "conv4_1c3_scale_and_shift_beta", 
      "attr": {
        "__dtype__": "0", 
        "__init__": "[\"zero\", {}]", 
        "__shape__": "1"
      }, 
      "inputs": []
    }, 
    {
      "op": "broadcast_add", 
      "name": "broadcast_add27", 
      "inputs": [[390, 0, 0], [391, 0, 0]]
    }, 
    {
      "op": "Activation", 
      "name": "conv4_1c3_relu", 
      "attr": {"act_type": "relu"}, 
      "inputs": [[392, 0, 0]]
    }, 
    {
      "op": "Pooling", 
      "name": "conv4_1pool", 
      "attr": {
        "kernel": "(3, 3)", 
        "pad": "(1, 1)", 
        "pool_type": "max", 
        "stride": "(2, 2)"
      }, 
      "inputs": [[321, 0, 0]]
    }, 
    {
      "op": "null", 
      "name": "conv4_1proj_conv_conv2d_weight", 
      "attr": {
        "kernel": "(1, 1)", 
        "no_bias": "True", 
        "num_filter": "128", 
        "pad": "(0, 0)", 
        "stride": "(1, 1)"
      }, 
      "inputs": []
    }, 
    {
      "op": "Convolution", 
      "name": "conv4_1proj_conv_conv2d", 
      "attr": {
        "kernel": "(1, 1)", 
        "no_bias": "True", 
        "num_filter": "128", 
        "pad": "(0, 0)", 
        "stride": "(1, 1)"
      }, 
      "inputs": [[394, 0, 0], [395, 0, 0]]
    }, 
    {
      "op": "null", 
      "name": "conv4_1proj_conv_batchnorm_gamma", 
      "inputs": []
    }, 
    {
      "op": "null", 
      "name": "conv4_1proj_conv_batchnorm_beta", 
      "inputs": []
    }, 
    {
      "op": "null", 
      "name": "conv4_1proj_conv_batchnorm_moving_mean", 
      "attr": {"__init__": "[\"zero\", {}]"}, 
      "inputs": []
    }, 
    {
      "op": "null", 
      "name": "conv4_1proj_conv_batchnorm_moving_var", 
      "attr": {"__init__": "[\"one\", {}]"}, 
      "inputs": []
    }, 
    {
      "op": "BatchNorm", 
      "name": "conv4_1proj_conv_batchnorm", 
      "inputs": [[396, 0, 0], [397, 0, 0], [398, 0, 0], [399, 0, 1], [400, 0, 1]]
    }, 
    {
      "op": "null", 
      "name": "conv4_1proj_conv_scale_and_shift_alpha", 
      "attr": {
        "__dtype__": "0", 
        "__init__": "[\"one\", {}]", 
        "__shape__": "1"
      }, 
      "inputs": []
    }, 
    {
      "op": "broadcast_mul", 
      "name": "broadcast_mul28", 
      "inputs": [[401, 0, 0], [402, 0, 0]]
    }, 
    {
      "op": "null", 
      "name": "conv4_1proj_conv_scale_and_shift_beta", 
      "attr": {
        "__dtype__": "0", 
        "__init__": "[\"zero\", {}]", 
        "__shape__": "1"
      }, 
      "inputs": []
    }, 
    {
      "op": "broadcast_add", 
      "name": "broadcast_add28", 
      "inputs": [[403, 0, 0], [404, 0, 0]]
    }, 
    {
      "op": "Activation", 
      "name": "conv4_1proj_conv_relu", 
      "attr": {"act_type": "relu"}, 
      "inputs": [[405, 0, 0]]
    }, 
    {
      "op": "Concat", 
      "name": "concat8", 
      "attr": {"num_args": "4"}, 
      "inputs": [[333, 0, 0], [357, 0, 0], [393, 0, 0], [406, 0, 0]]
    }, 
    {
      "op": "null", 
      "name": "conv4_1_conv_weight", 
      "attr": {
        "kernel": "(1, 1)", 
        "num_filter": "256", 
        "pad": "(0, 0)", 
        "stride": "(1, 1)"
      }, 
      "inputs": []
    }, 
    {
      "op": "null", 
      "name": "conv4_1_conv_bias", 
      "attr": {
        "kernel": "(1, 1)", 
        "num_filter": "256", 
        "pad": "(0, 0)", 
        "stride": "(1, 1)"
      }, 
      "inputs": []
    }, 
    {
      "op": "Convolution", 
      "name": "conv4_1_conv", 
      "attr": {
        "kernel": "(1, 1)", 
        "num_filter": "256", 
        "pad": "(0, 0)", 
        "stride": "(1, 1)"
      }, 
      "inputs": [[407, 0, 0], [408, 0, 0], [409, 0, 0]]
    }, 
    {
      "op": "null", 
      "name": "conv4_1_proj_weight", 
      "attr": {
        "kernel": "(1, 1)", 
        "num_filter": "256", 
        "stride": "(2, 2)"
      }, 
      "inputs": []
    }, 
    {
      "op": "null", 
      "name": "conv4_1_proj_bias", 
      "attr": {
        "kernel": "(1, 1)", 
        "num_filter": "256", 
        "stride": "(2, 2)"
      }, 
      "inputs": []
    }, 
    {
      "op": "Convolution", 
      "name": "conv4_1_proj", 
      "attr": {
        "kernel": "(1, 1)", 
        "num_filter": "256", 
        "stride": "(2, 2)"
      }, 
      "inputs": [[306, 0, 0], [411, 0, 0], [412, 0, 0]]
    }, 
    {
      "op": "elemwise_add", 
      "name": "_plus7", 
      "inputs": [[410, 0, 0], [413, 0, 0]]
    }, 
    {
      "op": "null", 
      "name": "conv4_2bsr_batchnorm_gamma", 
      "inputs": []
    }, 
    {
      "op": "null", 
      "name": "conv4_2bsr_batchnorm_beta", 
      "inputs": []
    }, 
    {
      "op": "null", 
      "name": "conv4_2bsr_batchnorm_moving_mean", 
      "attr": {"__init__": "[\"zero\", {}]"}, 
      "inputs": []
    }, 
    {
      "op": "null", 
      "name": "conv4_2bsr_batchnorm_moving_var", 
      "attr": {"__init__": "[\"one\", {}]"}, 
      "inputs": []
    }, 
    {
      "op": "BatchNorm", 
      "name": "conv4_2bsr_batchnorm", 
      "inputs": [[414, 0, 0], [415, 0, 0], [416, 0, 0], [417, 0, 1], [418, 0, 1]]
    }, 
    {
      "op": "null", 
      "name": "conv4_2bsr_alpha", 
      "attr": {
        "__dtype__": "0", 
        "__init__": "[\"one\", {}]", 
        "__shape__": "1"
      }, 
      "inputs": []
    }, 
    {
      "op": "broadcast_mul", 
      "name": "broadcast_mul29", 
      "inputs": [[419, 0, 0], [420, 0, 0]]
    }, 
    {
      "op": "null", 
      "name": "conv4_2bsr_beta", 
      "attr": {
        "__dtype__": "0", 
        "__init__": "[\"zero\", {}]", 
        "__shape__": "1"
      }, 
      "inputs": []
    }, 
    {
      "op": "broadcast_add", 
      "name": "broadcast_add29", 
      "inputs": [[421, 0, 0], [422, 0, 0]]
    }, 
    {
      "op": "Activation", 
      "name": "conv4_2bsr_relu", 
      "attr": {"act_type": "relu"}, 
      "inputs": [[423, 0, 0]]
    }, 
    {
      "op": "null", 
      "name": "conv4_2a_conv2d_weight", 
      "attr": {
        "kernel": "(1, 1)", 
        "no_bias": "True", 
        "num_filter": "64", 
        "pad": "(0, 0)", 
        "stride": "(1, 1)"
      }, 
      "inputs": []
    }, 
    {
      "op": "Convolution", 
      "name": "conv4_2a_conv2d", 
      "attr": {
        "kernel": "(1, 1)", 
        "no_bias": "True", 
        "num_filter": "64", 
        "pad": "(0, 0)", 
        "stride": "(1, 1)"
      }, 
      "inputs": [[424, 0, 0], [425, 0, 0]]
    }, 
    {
      "op": "null", 
      "name": "conv4_2a_batchnorm_gamma", 
      "inputs": []
    }, 
    {
      "op": "null", 
      "name": "conv4_2a_batchnorm_beta", 
      "inputs": []
    }, 
    {
      "op": "null", 
      "name": "conv4_2a_batchnorm_moving_mean", 
      "attr": {"__init__": "[\"zero\", {}]"}, 
      "inputs": []
    }, 
    {
      "op": "null", 
      "name": "conv4_2a_batchnorm_moving_var", 
      "attr": {"__init__": "[\"one\", {}]"}, 
      "inputs": []
    }, 
    {
      "op": "BatchNorm", 
      "name": "conv4_2a_batchnorm", 
      "inputs": [[426, 0, 0], [427, 0, 0], [428, 0, 0], [429, 0, 1], [430, 0, 1]]
    }, 
    {
      "op": "null", 
      "name": "conv4_2a_scale_and_shift_alpha", 
      "attr": {
        "__dtype__": "0", 
        "__init__": "[\"one\", {}]", 
        "__shape__": "1"
      }, 
      "inputs": []
    }, 
    {
      "op": "broadcast_mul", 
      "name": "broadcast_mul30", 
      "inputs": [[431, 0, 0], [432, 0, 0]]
    }, 
    {
      "op": "null", 
      "name": "conv4_2a_scale_and_shift_beta", 
      "attr": {
        "__dtype__": "0", 
        "__init__": "[\"zero\", {}]", 
        "__shape__": "1"
      }, 
      "inputs": []
    }, 
    {
      "op": "broadcast_add", 
      "name": "broadcast_add30", 
      "inputs": [[433, 0, 0], [434, 0, 0]]
    }, 
    {
      "op": "Activation", 
      "name": "conv4_2a_relu", 
      "attr": {"act_type": "relu"}, 
      "inputs": [[435, 0, 0]]
    }, 
    {
      "op": "null", 
      "name": "conv4_2b1_conv2d_weight", 
      "attr": {
        "kernel": "(1, 1)", 
        "no_bias": "True", 
        "num_filter": "64", 
        "pad": "(0, 0)", 
        "stride": "(1, 1)"
      }, 
      "inputs": []
    }, 
    {
      "op": "Convolution", 
      "name": "conv4_2b1_conv2d", 
      "attr": {
        "kernel": "(1, 1)", 
        "no_bias": "True", 
        "num_filter": "64", 
        "pad": "(0, 0)", 
        "stride": "(1, 1)"
      }, 
      "inputs": [[424, 0, 0], [437, 0, 0]]
    }, 
    {
      "op": "null", 
      "name": "conv4_2b1_batchnorm_gamma", 
      "inputs": []
    }, 
    {
      "op": "null", 
      "name": "conv4_2b1_batchnorm_beta", 
      "inputs": []
    }, 
    {
      "op": "null", 
      "name": "conv4_2b1_batchnorm_moving_mean", 
      "attr": {"__init__": "[\"zero\", {}]"}, 
      "inputs": []
    }, 
    {
      "op": "null", 
      "name": "conv4_2b1_batchnorm_moving_var", 
      "attr": {"__init__": "[\"one\", {}]"}, 
      "inputs": []
    }, 
    {
      "op": "BatchNorm", 
      "name": "conv4_2b1_batchnorm", 
      "inputs": [[438, 0, 0], [439, 0, 0], [440, 0, 0], [441, 0, 1], [442, 0, 1]]
    }, 
    {
      "op": "null", 
      "name": "conv4_2b1_scale_and_shift_alpha", 
      "attr": {
        "__dtype__": "0", 
        "__init__": "[\"one\", {}]", 
        "__shape__": "1"
      }, 
      "inputs": []
    }, 
    {
      "op": "broadcast_mul", 
      "name": "broadcast_mul31", 
      "inputs": [[443, 0, 0], [444, 0, 0]]
    }, 
    {
      "op": "null", 
      "name": "conv4_2b1_scale_and_shift_beta", 
      "attr": {
        "__dtype__": "0", 
        "__init__": "[\"zero\", {}]", 
        "__shape__": "1"
      }, 
      "inputs": []
    }, 
    {
      "op": "broadcast_add", 
      "name": "broadcast_add31", 
      "inputs": [[445, 0, 0], [446, 0, 0]]
    }, 
    {
      "op": "Activation", 
      "name": "conv4_2b1_relu", 
      "attr": {"act_type": "relu"}, 
      "inputs": [[447, 0, 0]]
    }, 
    {
      "op": "null", 
      "name": "conv4_2b2_conv2d_weight", 
      "attr": {
        "kernel": "(3, 3)", 
        "no_bias": "True", 
        "num_filter": "128", 
        "pad": "(1, 1)", 
        "stride": "(1, 1)"
      }, 
      "inputs": []
    }, 
    {
      "op": "Convolution", 
      "name": "conv4_2b2_conv2d", 
      "attr": {
        "kernel": "(3, 3)", 
        "no_bias": "True", 
        "num_filter": "128", 
        "pad": "(1, 1)", 
        "stride": "(1, 1)"
      }, 
      "inputs": [[448, 0, 0], [449, 0, 0]]
    }, 
    {
      "op": "null", 
      "name": "conv4_2b2_batchnorm_gamma", 
      "inputs": []
    }, 
    {
      "op": "null", 
      "name": "conv4_2b2_batchnorm_beta", 
      "inputs": []
    }, 
    {
      "op": "null", 
      "name": "conv4_2b2_batchnorm_moving_mean", 
      "attr": {"__init__": "[\"zero\", {}]"}, 
      "inputs": []
    }, 
    {
      "op": "null", 
      "name": "conv4_2b2_batchnorm_moving_var", 
      "attr": {"__init__": "[\"one\", {}]"}, 
      "inputs": []
    }, 
    {
      "op": "BatchNorm", 
      "name": "conv4_2b2_batchnorm", 
      "inputs": [[450, 0, 0], [451, 0, 0], [452, 0, 0], [453, 0, 1], [454, 0, 1]]
    }, 
    {
      "op": "null", 
      "name": "conv4_2b2_scale_and_shift_alpha", 
      "attr": {
        "__dtype__": "0", 
        "__init__": "[\"one\", {}]", 
        "__shape__": "1"
      }, 
      "inputs": []
    }, 
    {
      "op": "broadcast_mul", 
      "name": "broadcast_mul32", 
      "inputs": [[455, 0, 0], [456, 0, 0]]
    }, 
    {
      "op": "null", 
      "name": "conv4_2b2_scale_and_shift_beta", 
      "attr": {
        "__dtype__": "0", 
        "__init__": "[\"zero\", {}]", 
        "__shape__": "1"
      }, 
      "inputs": []
    }, 
    {
      "op": "broadcast_add", 
      "name": "broadcast_add32", 
      "inputs": [[457, 0, 0], [458, 0, 0]]
    }, 
    {
      "op": "Activation", 
      "name": "conv4_2b2_relu", 
      "attr": {"act_type": "relu"}, 
      "inputs": [[459, 0, 0]]
    }, 
    {
      "op": "null", 
      "name": "conv4_2c1_conv2d_weight", 
      "attr": {
        "kernel": "(1, 1)", 
        "no_bias": "True", 
        "num_filter": "24", 
        "pad": "(0, 0)", 
        "stride": "(1, 1)"
      }, 
      "inputs": []
    }, 
    {
      "op": "Convolution", 
      "name": "conv4_2c1_conv2d", 
      "attr": {
        "kernel": "(1, 1)", 
        "no_bias": "True", 
        "num_filter": "24", 
        "pad": "(0, 0)", 
        "stride": "(1, 1)"
      }, 
      "inputs": [[424, 0, 0], [461, 0, 0]]
    }, 
    {
      "op": "null", 
      "name": "conv4_2c1_batchnorm_gamma", 
      "inputs": []
    }, 
    {
      "op": "null", 
      "name": "conv4_2c1_batchnorm_beta", 
      "inputs": []
    }, 
    {
      "op": "null", 
      "name": "conv4_2c1_batchnorm_moving_mean", 
      "attr": {"__init__": "[\"zero\", {}]"}, 
      "inputs": []
    }, 
    {
      "op": "null", 
      "name": "conv4_2c1_batchnorm_moving_var", 
      "attr": {"__init__": "[\"one\", {}]"}, 
      "inputs": []
    }, 
    {
      "op": "BatchNorm", 
      "name": "conv4_2c1_batchnorm", 
      "inputs": [[462, 0, 0], [463, 0, 0], [464, 0, 0], [465, 0, 1], [466, 0, 1]]
    }, 
    {
      "op": "null", 
      "name": "conv4_2c1_scale_and_shift_alpha", 
      "attr": {
        "__dtype__": "0", 
        "__init__": "[\"one\", {}]", 
        "__shape__": "1"
      }, 
      "inputs": []
    }, 
    {
      "op": "broadcast_mul", 
      "name": "broadcast_mul33", 
      "inputs": [[467, 0, 0], [468, 0, 0]]
    }, 
    {
      "op": "null", 
      "name": "conv4_2c1_scale_and_shift_beta", 
      "attr": {
        "__dtype__": "0", 
        "__init__": "[\"zero\", {}]", 
        "__shape__": "1"
      }, 
      "inputs": []
    }, 
    {
      "op": "broadcast_add", 
      "name": "broadcast_add33", 
      "inputs": [[469, 0, 0], [470, 0, 0]]
    }, 
    {
      "op": "Activation", 
      "name": "conv4_2c1_relu", 
      "attr": {"act_type": "relu"}, 
      "inputs": [[471, 0, 0]]
    }, 
    {
      "op": "null", 
      "name": "conv4_2c2_conv2d_weight", 
      "attr": {
        "kernel": "(3, 3)", 
        "no_bias": "True", 
        "num_filter": "48", 
        "pad": "(1, 1)", 
        "stride": "(1, 1)"
      }, 
      "inputs": []
    }, 
    {
      "op": "Convolution", 
      "name": "conv4_2c2_conv2d", 
      "attr": {
        "kernel": "(3, 3)", 
        "no_bias": "True", 
        "num_filter": "48", 
        "pad": "(1, 1)", 
        "stride": "(1, 1)"
      }, 
      "inputs": [[472, 0, 0], [473, 0, 0]]
    }, 
    {
      "op": "null", 
      "name": "conv4_2c2_batchnorm_gamma", 
      "inputs": []
    }, 
    {
      "op": "null", 
      "name": "conv4_2c2_batchnorm_beta", 
      "inputs": []
    }, 
    {
      "op": "null", 
      "name": "conv4_2c2_batchnorm_moving_mean", 
      "attr": {"__init__": "[\"zero\", {}]"}, 
      "inputs": []
    }, 
    {
      "op": "null", 
      "name": "conv4_2c2_batchnorm_moving_var", 
      "attr": {"__init__": "[\"one\", {}]"}, 
      "inputs": []
    }, 
    {
      "op": "BatchNorm", 
      "name": "conv4_2c2_batchnorm", 
      "inputs": [[474, 0, 0], [475, 0, 0], [476, 0, 0], [477, 0, 1], [478, 0, 1]]
    }, 
    {
      "op": "null", 
      "name": "conv4_2c2_scale_and_shift_alpha", 
      "attr": {
        "__dtype__": "0", 
        "__init__": "[\"one\", {}]", 
        "__shape__": "1"
      }, 
      "inputs": []
    }, 
    {
      "op": "broadcast_mul", 
      "name": "broadcast_mul34", 
      "inputs": [[479, 0, 0], [480, 0, 0]]
    }, 
    {
      "op": "null", 
      "name": "conv4_2c2_scale_and_shift_beta", 
      "attr": {
        "__dtype__": "0", 
        "__init__": "[\"zero\", {}]", 
        "__shape__": "1"
      }, 
      "inputs": []
    }, 
    {
      "op": "broadcast_add", 
      "name": "broadcast_add34", 
      "inputs": [[481, 0, 0], [482, 0, 0]]
    }, 
    {
      "op": "Activation", 
      "name": "conv4_2c2_relu", 
      "attr": {"act_type": "relu"}, 
      "inputs": [[483, 0, 0]]
    }, 
    {
      "op": "null", 
      "name": "conv4_2c3_conv2d_weight", 
      "attr": {
        "kernel": "(3, 3)", 
        "no_bias": "True", 
        "num_filter": "48", 
        "pad": "(1, 1)", 
        "stride": "(1, 1)"
      }, 
      "inputs": []
    }, 
    {
      "op": "Convolution", 
      "name": "conv4_2c3_conv2d", 
      "attr": {
        "kernel": "(3, 3)", 
        "no_bias": "True", 
        "num_filter": "48", 
        "pad": "(1, 1)", 
        "stride": "(1, 1)"
      }, 
      "inputs": [[484, 0, 0], [485, 0, 0]]
    }, 
    {
      "op": "null", 
      "name": "conv4_2c3_batchnorm_gamma", 
      "inputs": []
    }, 
    {
      "op": "null", 
      "name": "conv4_2c3_batchnorm_beta", 
      "inputs": []
    }, 
    {
      "op": "null", 
      "name": "conv4_2c3_batchnorm_moving_mean", 
      "attr": {"__init__": "[\"zero\", {}]"}, 
      "inputs": []
    }, 
    {
      "op": "null", 
      "name": "conv4_2c3_batchnorm_moving_var", 
      "attr": {"__init__": "[\"one\", {}]"}, 
      "inputs": []
    }, 
    {
      "op": "BatchNorm", 
      "name": "conv4_2c3_batchnorm", 
      "inputs": [[486, 0, 0], [487, 0, 0], [488, 0, 0], [489, 0, 1], [490, 0, 1]]
    }, 
    {
      "op": "null", 
      "name": "conv4_2c3_scale_and_shift_alpha", 
      "attr": {
        "__dtype__": "0", 
        "__init__": "[\"one\", {}]", 
        "__shape__": "1"
      }, 
      "inputs": []
    }, 
    {
      "op": "broadcast_mul", 
      "name": "broadcast_mul35", 
      "inputs": [[491, 0, 0], [492, 0, 0]]
    }, 
    {
      "op": "null", 
      "name": "conv4_2c3_scale_and_shift_beta", 
      "attr": {
        "__dtype__": "0", 
        "__init__": "[\"zero\", {}]", 
        "__shape__": "1"
      }, 
      "inputs": []
    }, 
    {
      "op": "broadcast_add", 
      "name": "broadcast_add35", 
      "inputs": [[493, 0, 0], [494, 0, 0]]
    }, 
    {
      "op": "Activation", 
      "name": "conv4_2c3_relu", 
      "attr": {"act_type": "relu"}, 
      "inputs": [[495, 0, 0]]
    }, 
    {
      "op": "Concat", 
      "name": "concat9", 
      "attr": {"num_args": "3"}, 
      "inputs": [[436, 0, 0], [460, 0, 0], [496, 0, 0]]
    }, 
    {
      "op": "null", 
      "name": "conv4_2_conv_weight", 
      "attr": {
        "kernel": "(1, 1)", 
        "num_filter": "256", 
        "pad": "(0, 0)", 
        "stride": "(1, 1)"
      }, 
      "inputs": []
    }, 
    {
      "op": "null", 
      "name": "conv4_2_conv_bias", 
      "attr": {
        "kernel": "(1, 1)", 
        "num_filter": "256", 
        "pad": "(0, 0)", 
        "stride": "(1, 1)"
      }, 
      "inputs": []
    }, 
    {
      "op": "Convolution", 
      "name": "conv4_2_conv", 
      "attr": {
        "kernel": "(1, 1)", 
        "num_filter": "256", 
        "pad": "(0, 0)", 
        "stride": "(1, 1)"
      }, 
      "inputs": [[497, 0, 0], [498, 0, 0], [499, 0, 0]]
    }, 
    {
      "op": "elemwise_add", 
      "name": "_plus8", 
      "inputs": [[500, 0, 0], [414, 0, 0]]
    }, 
    {
      "op": "null", 
      "name": "conv4_3bsr_batchnorm_gamma", 
      "inputs": []
    }, 
    {
      "op": "null", 
      "name": "conv4_3bsr_batchnorm_beta", 
      "inputs": []
    }, 
    {
      "op": "null", 
      "name": "conv4_3bsr_batchnorm_moving_mean", 
      "attr": {"__init__": "[\"zero\", {}]"}, 
      "inputs": []
    }, 
    {
      "op": "null", 
      "name": "conv4_3bsr_batchnorm_moving_var", 
      "attr": {"__init__": "[\"one\", {}]"}, 
      "inputs": []
    }, 
    {
      "op": "BatchNorm", 
      "name": "conv4_3bsr_batchnorm", 
      "inputs": [[501, 0, 0], [502, 0, 0], [503, 0, 0], [504, 0, 1], [505, 0, 1]]
    }, 
    {
      "op": "null", 
      "name": "conv4_3bsr_alpha", 
      "attr": {
        "__dtype__": "0", 
        "__init__": "[\"one\", {}]", 
        "__shape__": "1"
      }, 
      "inputs": []
    }, 
    {
      "op": "broadcast_mul", 
      "name": "broadcast_mul36", 
      "inputs": [[506, 0, 0], [507, 0, 0]]
    }, 
    {
      "op": "null", 
      "name": "conv4_3bsr_beta", 
      "attr": {
        "__dtype__": "0", 
        "__init__": "[\"zero\", {}]", 
        "__shape__": "1"
      }, 
      "inputs": []
    }, 
    {
      "op": "broadcast_add", 
      "name": "broadcast_add36", 
      "inputs": [[508, 0, 0], [509, 0, 0]]
    }, 
    {
      "op": "Activation", 
      "name": "conv4_3bsr_relu", 
      "attr": {"act_type": "relu"}, 
      "inputs": [[510, 0, 0]]
    }, 
    {
      "op": "null", 
      "name": "conv4_3a_conv2d_weight", 
      "attr": {
        "kernel": "(1, 1)", 
        "no_bias": "True", 
        "num_filter": "64", 
        "pad": "(0, 0)", 
        "stride": "(1, 1)"
      }, 
      "inputs": []
    }, 
    {
      "op": "Convolution", 
      "name": "conv4_3a_conv2d", 
      "attr": {
        "kernel": "(1, 1)", 
        "no_bias": "True", 
        "num_filter": "64", 
        "pad": "(0, 0)", 
        "stride": "(1, 1)"
      }, 
      "inputs": [[511, 0, 0], [512, 0, 0]]
    }, 
    {
      "op": "null", 
      "name": "conv4_3a_batchnorm_gamma", 
      "inputs": []
    }, 
    {
      "op": "null", 
      "name": "conv4_3a_batchnorm_beta", 
      "inputs": []
    }, 
    {
      "op": "null", 
      "name": "conv4_3a_batchnorm_moving_mean", 
      "attr": {"__init__": "[\"zero\", {}]"}, 
      "inputs": []
    }, 
    {
      "op": "null", 
      "name": "conv4_3a_batchnorm_moving_var", 
      "attr": {"__init__": "[\"one\", {}]"}, 
      "inputs": []
    }, 
    {
      "op": "BatchNorm", 
      "name": "conv4_3a_batchnorm", 
      "inputs": [[513, 0, 0], [514, 0, 0], [515, 0, 0], [516, 0, 1], [517, 0, 1]]
    }, 
    {
      "op": "null", 
      "name": "conv4_3a_scale_and_shift_alpha", 
      "attr": {
        "__dtype__": "0", 
        "__init__": "[\"one\", {}]", 
        "__shape__": "1"
      }, 
      "inputs": []
    }, 
    {
      "op": "broadcast_mul", 
      "name": "broadcast_mul37", 
      "inputs": [[518, 0, 0], [519, 0, 0]]
    }, 
    {
      "op": "null", 
      "name": "conv4_3a_scale_and_shift_beta", 
      "attr": {
        "__dtype__": "0", 
        "__init__": "[\"zero\", {}]", 
        "__shape__": "1"
      }, 
      "inputs": []
    }, 
    {
      "op": "broadcast_add", 
      "name": "broadcast_add37", 
      "inputs": [[520, 0, 0], [521, 0, 0]]
    }, 
    {
      "op": "Activation", 
      "name": "conv4_3a_relu", 
      "attr": {"act_type": "relu"}, 
      "inputs": [[522, 0, 0]]
    }, 
    {
      "op": "null", 
      "name": "conv4_3b1_conv2d_weight", 
      "attr": {
        "kernel": "(1, 1)", 
        "no_bias": "True", 
        "num_filter": "64", 
        "pad": "(0, 0)", 
        "stride": "(1, 1)"
      }, 
      "inputs": []
    }, 
    {
      "op": "Convolution", 
      "name": "conv4_3b1_conv2d", 
      "attr": {
        "kernel": "(1, 1)", 
        "no_bias": "True", 
        "num_filter": "64", 
        "pad": "(0, 0)", 
        "stride": "(1, 1)"
      }, 
      "inputs": [[511, 0, 0], [524, 0, 0]]
    }, 
    {
      "op": "null", 
      "name": "conv4_3b1_batchnorm_gamma", 
      "inputs": []
    }, 
    {
      "op": "null", 
      "name": "conv4_3b1_batchnorm_beta", 
      "inputs": []
    }, 
    {
      "op": "null", 
      "name": "conv4_3b1_batchnorm_moving_mean", 
      "attr": {"__init__": "[\"zero\", {}]"}, 
      "inputs": []
    }, 
    {
      "op": "null", 
      "name": "conv4_3b1_batchnorm_moving_var", 
      "attr": {"__init__": "[\"one\", {}]"}, 
      "inputs": []
    }, 
    {
      "op": "BatchNorm", 
      "name": "conv4_3b1_batchnorm", 
      "inputs": [[525, 0, 0], [526, 0, 0], [527, 0, 0], [528, 0, 1], [529, 0, 1]]
    }, 
    {
      "op": "null", 
      "name": "conv4_3b1_scale_and_shift_alpha", 
      "attr": {
        "__dtype__": "0", 
        "__init__": "[\"one\", {}]", 
        "__shape__": "1"
      }, 
      "inputs": []
    }, 
    {
      "op": "broadcast_mul", 
      "name": "broadcast_mul38", 
      "inputs": [[530, 0, 0], [531, 0, 0]]
    }, 
    {
      "op": "null", 
      "name": "conv4_3b1_scale_and_shift_beta", 
      "attr": {
        "__dtype__": "0", 
        "__init__": "[\"zero\", {}]", 
        "__shape__": "1"
      }, 
      "inputs": []
    }, 
    {
      "op": "broadcast_add", 
      "name": "broadcast_add38", 
      "inputs": [[532, 0, 0], [533, 0, 0]]
    }, 
    {
      "op": "Activation", 
      "name": "conv4_3b1_relu", 
      "attr": {"act_type": "relu"}, 
      "inputs": [[534, 0, 0]]
    }, 
    {
      "op": "null", 
      "name": "conv4_3b2_conv2d_weight", 
      "attr": {
        "kernel": "(3, 3)", 
        "no_bias": "True", 
        "num_filter": "128", 
        "pad": "(1, 1)", 
        "stride": "(1, 1)"
      }, 
      "inputs": []
    }, 
    {
      "op": "Convolution", 
      "name": "conv4_3b2_conv2d", 
      "attr": {
        "kernel": "(3, 3)", 
        "no_bias": "True", 
        "num_filter": "128", 
        "pad": "(1, 1)", 
        "stride": "(1, 1)"
      }, 
      "inputs": [[535, 0, 0], [536, 0, 0]]
    }, 
    {
      "op": "null", 
      "name": "conv4_3b2_batchnorm_gamma", 
      "inputs": []
    }, 
    {
      "op": "null", 
      "name": "conv4_3b2_batchnorm_beta", 
      "inputs": []
    }, 
    {
      "op": "null", 
      "name": "conv4_3b2_batchnorm_moving_mean", 
      "attr": {"__init__": "[\"zero\", {}]"}, 
      "inputs": []
    }, 
    {
      "op": "null", 
      "name": "conv4_3b2_batchnorm_moving_var", 
      "attr": {"__init__": "[\"one\", {}]"}, 
      "inputs": []
    }, 
    {
      "op": "BatchNorm", 
      "name": "conv4_3b2_batchnorm", 
      "inputs": [[537, 0, 0], [538, 0, 0], [539, 0, 0], [540, 0, 1], [541, 0, 1]]
    }, 
    {
      "op": "null", 
      "name": "conv4_3b2_scale_and_shift_alpha", 
      "attr": {
        "__dtype__": "0", 
        "__init__": "[\"one\", {}]", 
        "__shape__": "1"
      }, 
      "inputs": []
    }, 
    {
      "op": "broadcast_mul", 
      "name": "broadcast_mul39", 
      "inputs": [[542, 0, 0], [543, 0, 0]]
    }, 
    {
      "op": "null", 
      "name": "conv4_3b2_scale_and_shift_beta", 
      "attr": {
        "__dtype__": "0", 
        "__init__": "[\"zero\", {}]", 
        "__shape__": "1"
      }, 
      "inputs": []
    }, 
    {
      "op": "broadcast_add", 
      "name": "broadcast_add39", 
      "inputs": [[544, 0, 0], [545, 0, 0]]
    }, 
    {
      "op": "Activation", 
      "name": "conv4_3b2_relu", 
      "attr": {"act_type": "relu"}, 
      "inputs": [[546, 0, 0]]
    }, 
    {
      "op": "null", 
      "name": "conv4_3c1_conv2d_weight", 
      "attr": {
        "kernel": "(1, 1)", 
        "no_bias": "True", 
        "num_filter": "24", 
        "pad": "(0, 0)", 
        "stride": "(1, 1)"
      }, 
      "inputs": []
    }, 
    {
      "op": "Convolution", 
      "name": "conv4_3c1_conv2d", 
      "attr": {
        "kernel": "(1, 1)", 
        "no_bias": "True", 
        "num_filter": "24", 
        "pad": "(0, 0)", 
        "stride": "(1, 1)"
      }, 
      "inputs": [[511, 0, 0], [548, 0, 0]]
    }, 
    {
      "op": "null", 
      "name": "conv4_3c1_batchnorm_gamma", 
      "inputs": []
    }, 
    {
      "op": "null", 
      "name": "conv4_3c1_batchnorm_beta", 
      "inputs": []
    }, 
    {
      "op": "null", 
      "name": "conv4_3c1_batchnorm_moving_mean", 
      "attr": {"__init__": "[\"zero\", {}]"}, 
      "inputs": []
    }, 
    {
      "op": "null", 
      "name": "conv4_3c1_batchnorm_moving_var", 
      "attr": {"__init__": "[\"one\", {}]"}, 
      "inputs": []
    }, 
    {
      "op": "BatchNorm", 
      "name": "conv4_3c1_batchnorm", 
      "inputs": [[549, 0, 0], [550, 0, 0], [551, 0, 0], [552, 0, 1], [553, 0, 1]]
    }, 
    {
      "op": "null", 
      "name": "conv4_3c1_scale_and_shift_alpha", 
      "attr": {
        "__dtype__": "0", 
        "__init__": "[\"one\", {}]", 
        "__shape__": "1"
      }, 
      "inputs": []
    }, 
    {
      "op": "broadcast_mul", 
      "name": "broadcast_mul40", 
      "inputs": [[554, 0, 0], [555, 0, 0]]
    }, 
    {
      "op": "null", 
      "name": "conv4_3c1_scale_and_shift_beta", 
      "attr": {
        "__dtype__": "0", 
        "__init__": "[\"zero\", {}]", 
        "__shape__": "1"
      }, 
      "inputs": []
    }, 
    {
      "op": "broadcast_add", 
      "name": "broadcast_add40", 
      "inputs": [[556, 0, 0], [557, 0, 0]]
    }, 
    {
      "op": "Activation", 
      "name": "conv4_3c1_relu", 
      "attr": {"act_type": "relu"}, 
      "inputs": [[558, 0, 0]]
    }, 
    {
      "op": "null", 
      "name": "conv4_3c2_conv2d_weight", 
      "attr": {
        "kernel": "(3, 3)", 
        "no_bias": "True", 
        "num_filter": "48", 
        "pad": "(1, 1)", 
        "stride": "(1, 1)"
      }, 
      "inputs": []
    }, 
    {
      "op": "Convolution", 
      "name": "conv4_3c2_conv2d", 
      "attr": {
        "kernel": "(3, 3)", 
        "no_bias": "True", 
        "num_filter": "48", 
        "pad": "(1, 1)", 
        "stride": "(1, 1)"
      }, 
      "inputs": [[559, 0, 0], [560, 0, 0]]
    }, 
    {
      "op": "null", 
      "name": "conv4_3c2_batchnorm_gamma", 
      "inputs": []
    }, 
    {
      "op": "null", 
      "name": "conv4_3c2_batchnorm_beta", 
      "inputs": []
    }, 
    {
      "op": "null", 
      "name": "conv4_3c2_batchnorm_moving_mean", 
      "attr": {"__init__": "[\"zero\", {}]"}, 
      "inputs": []
    }, 
    {
      "op": "null", 
      "name": "conv4_3c2_batchnorm_moving_var", 
      "attr": {"__init__": "[\"one\", {}]"}, 
      "inputs": []
    }, 
    {
      "op": "BatchNorm", 
      "name": "conv4_3c2_batchnorm", 
      "inputs": [[561, 0, 0], [562, 0, 0], [563, 0, 0], [564, 0, 1], [565, 0, 1]]
    }, 
    {
      "op": "null", 
      "name": "conv4_3c2_scale_and_shift_alpha", 
      "attr": {
        "__dtype__": "0", 
        "__init__": "[\"one\", {}]", 
        "__shape__": "1"
      }, 
      "inputs": []
    }, 
    {
      "op": "broadcast_mul", 
      "name": "broadcast_mul41", 
      "inputs": [[566, 0, 0], [567, 0, 0]]
    }, 
    {
      "op": "null", 
      "name": "conv4_3c2_scale_and_shift_beta", 
      "attr": {
        "__dtype__": "0", 
        "__init__": "[\"zero\", {}]", 
        "__shape__": "1"
      }, 
      "inputs": []
    }, 
    {
      "op": "broadcast_add", 
      "name": "broadcast_add41", 
      "inputs": [[568, 0, 0], [569, 0, 0]]
    }, 
    {
      "op": "Activation", 
      "name": "conv4_3c2_relu", 
      "attr": {"act_type": "relu"}, 
      "inputs": [[570, 0, 0]]
    }, 
    {
      "op": "null", 
      "name": "conv4_3c3_conv2d_weight", 
      "attr": {
        "kernel": "(3, 3)", 
        "no_bias": "True", 
        "num_filter": "48", 
        "pad": "(1, 1)", 
        "stride": "(1, 1)"
      }, 
      "inputs": []
    }, 
    {
      "op": "Convolution", 
      "name": "conv4_3c3_conv2d", 
      "attr": {
        "kernel": "(3, 3)", 
        "no_bias": "True", 
        "num_filter": "48", 
        "pad": "(1, 1)", 
        "stride": "(1, 1)"
      }, 
      "inputs": [[571, 0, 0], [572, 0, 0]]
    }, 
    {
      "op": "null", 
      "name": "conv4_3c3_batchnorm_gamma", 
      "inputs": []
    }, 
    {
      "op": "null", 
      "name": "conv4_3c3_batchnorm_beta", 
      "inputs": []
    }, 
    {
      "op": "null", 
      "name": "conv4_3c3_batchnorm_moving_mean", 
      "attr": {"__init__": "[\"zero\", {}]"}, 
      "inputs": []
    }, 
    {
      "op": "null", 
      "name": "conv4_3c3_batchnorm_moving_var", 
      "attr": {"__init__": "[\"one\", {}]"}, 
      "inputs": []
    }, 
    {
      "op": "BatchNorm", 
      "name": "conv4_3c3_batchnorm", 
      "inputs": [[573, 0, 0], [574, 0, 0], [575, 0, 0], [576, 0, 1], [577, 0, 1]]
    }, 
    {
      "op": "null", 
      "name": "conv4_3c3_scale_and_shift_alpha", 
      "attr": {
        "__dtype__": "0", 
        "__init__": "[\"one\", {}]", 
        "__shape__": "1"
      }, 
      "inputs": []
    }, 
    {
      "op": "broadcast_mul", 
      "name": "broadcast_mul42", 
      "inputs": [[578, 0, 0], [579, 0, 0]]
    }, 
    {
      "op": "null", 
      "name": "conv4_3c3_scale_and_shift_beta", 
      "attr": {
        "__dtype__": "0", 
        "__init__": "[\"zero\", {}]", 
        "__shape__": "1"
      }, 
      "inputs": []
    }, 
    {
      "op": "broadcast_add", 
      "name": "broadcast_add42", 
      "inputs": [[580, 0, 0], [581, 0, 0]]
    }, 
    {
      "op": "Activation", 
      "name": "conv4_3c3_relu", 
      "attr": {"act_type": "relu"}, 
      "inputs": [[582, 0, 0]]
    }, 
    {
      "op": "Concat", 
      "name": "concat10", 
      "attr": {"num_args": "3"}, 
      "inputs": [[523, 0, 0], [547, 0, 0], [583, 0, 0]]
    }, 
    {
      "op": "null", 
      "name": "conv4_3_conv_weight", 
      "attr": {
        "kernel": "(1, 1)", 
        "num_filter": "256", 
        "pad": "(0, 0)", 
        "stride": "(1, 1)"
      }, 
      "inputs": []
    }, 
    {
      "op": "null", 
      "name": "conv4_3_conv_bias", 
      "attr": {
        "kernel": "(1, 1)", 
        "num_filter": "256", 
        "pad": "(0, 0)", 
        "stride": "(1, 1)"
      }, 
      "inputs": []
    }, 
    {
      "op": "Convolution", 
      "name": "conv4_3_conv", 
      "attr": {
        "kernel": "(1, 1)", 
        "num_filter": "256", 
        "pad": "(0, 0)", 
        "stride": "(1, 1)"
      }, 
      "inputs": [[584, 0, 0], [585, 0, 0], [586, 0, 0]]
    }, 
    {
      "op": "elemwise_add", 
      "name": "_plus9", 
      "inputs": [[587, 0, 0], [501, 0, 0]]
    }, 
    {
      "op": "null", 
      "name": "conv4_4bsr_batchnorm_gamma", 
      "inputs": []
    }, 
    {
      "op": "null", 
      "name": "conv4_4bsr_batchnorm_beta", 
      "inputs": []
    }, 
    {
      "op": "null", 
      "name": "conv4_4bsr_batchnorm_moving_mean", 
      "attr": {"__init__": "[\"zero\", {}]"}, 
      "inputs": []
    }, 
    {
      "op": "null", 
      "name": "conv4_4bsr_batchnorm_moving_var", 
      "attr": {"__init__": "[\"one\", {}]"}, 
      "inputs": []
    }, 
    {
      "op": "BatchNorm", 
      "name": "conv4_4bsr_batchnorm", 
      "inputs": [[588, 0, 0], [589, 0, 0], [590, 0, 0], [591, 0, 1], [592, 0, 1]]
    }, 
    {
      "op": "null", 
      "name": "conv4_4bsr_alpha", 
      "attr": {
        "__dtype__": "0", 
        "__init__": "[\"one\", {}]", 
        "__shape__": "1"
      }, 
      "inputs": []
    }, 
    {
      "op": "broadcast_mul", 
      "name": "broadcast_mul43", 
      "inputs": [[593, 0, 0], [594, 0, 0]]
    }, 
    {
      "op": "null", 
      "name": "conv4_4bsr_beta", 
      "attr": {
        "__dtype__": "0", 
        "__init__": "[\"zero\", {}]", 
        "__shape__": "1"
      }, 
      "inputs": []
    }, 
    {
      "op": "broadcast_add", 
      "name": "broadcast_add43", 
      "inputs": [[595, 0, 0], [596, 0, 0]]
    }, 
    {
      "op": "Activation", 
      "name": "conv4_4bsr_relu", 
      "attr": {"act_type": "relu"}, 
      "inputs": [[597, 0, 0]]
    }, 
    {
      "op": "null", 
      "name": "conv4_4a_conv2d_weight", 
      "attr": {
        "kernel": "(1, 1)", 
        "no_bias": "True", 
        "num_filter": "64", 
        "pad": "(0, 0)", 
        "stride": "(1, 1)"
      }, 
      "inputs": []
    }, 
    {
      "op": "Convolution", 
      "name": "conv4_4a_conv2d", 
      "attr": {
        "kernel": "(1, 1)", 
        "no_bias": "True", 
        "num_filter": "64", 
        "pad": "(0, 0)", 
        "stride": "(1, 1)"
      }, 
      "inputs": [[598, 0, 0], [599, 0, 0]]
    }, 
    {
      "op": "null", 
      "name": "conv4_4a_batchnorm_gamma", 
      "inputs": []
    }, 
    {
      "op": "null", 
      "name": "conv4_4a_batchnorm_beta", 
      "inputs": []
    }, 
    {
      "op": "null", 
      "name": "conv4_4a_batchnorm_moving_mean", 
      "attr": {"__init__": "[\"zero\", {}]"}, 
      "inputs": []
    }, 
    {
      "op": "null", 
      "name": "conv4_4a_batchnorm_moving_var", 
      "attr": {"__init__": "[\"one\", {}]"}, 
      "inputs": []
    }, 
    {
      "op": "BatchNorm", 
      "name": "conv4_4a_batchnorm", 
      "inputs": [[600, 0, 0], [601, 0, 0], [602, 0, 0], [603, 0, 1], [604, 0, 1]]
    }, 
    {
      "op": "null", 
      "name": "conv4_4a_scale_and_shift_alpha", 
      "attr": {
        "__dtype__": "0", 
        "__init__": "[\"one\", {}]", 
        "__shape__": "1"
      }, 
      "inputs": []
    }, 
    {
      "op": "broadcast_mul", 
      "name": "broadcast_mul44", 
      "inputs": [[605, 0, 0], [606, 0, 0]]
    }, 
    {
      "op": "null", 
      "name": "conv4_4a_scale_and_shift_beta", 
      "attr": {
        "__dtype__": "0", 
        "__init__": "[\"zero\", {}]", 
        "__shape__": "1"
      }, 
      "inputs": []
    }, 
    {
      "op": "broadcast_add", 
      "name": "broadcast_add44", 
      "inputs": [[607, 0, 0], [608, 0, 0]]
    }, 
    {
      "op": "Activation", 
      "name": "conv4_4a_relu", 
      "attr": {"act_type": "relu"}, 
      "inputs": [[609, 0, 0]]
    }, 
    {
      "op": "null", 
      "name": "conv4_4b1_conv2d_weight", 
      "attr": {
        "kernel": "(1, 1)", 
        "no_bias": "True", 
        "num_filter": "64", 
        "pad": "(0, 0)", 
        "stride": "(1, 1)"
      }, 
      "inputs": []
    }, 
    {
      "op": "Convolution", 
      "name": "conv4_4b1_conv2d", 
      "attr": {
        "kernel": "(1, 1)", 
        "no_bias": "True", 
        "num_filter": "64", 
        "pad": "(0, 0)", 
        "stride": "(1, 1)"
      }, 
      "inputs": [[598, 0, 0], [611, 0, 0]]
    }, 
    {
      "op": "null", 
      "name": "conv4_4b1_batchnorm_gamma", 
      "inputs": []
    }, 
    {
      "op": "null", 
      "name": "conv4_4b1_batchnorm_beta", 
      "inputs": []
    }, 
    {
      "op": "null", 
      "name": "conv4_4b1_batchnorm_moving_mean", 
      "attr": {"__init__": "[\"zero\", {}]"}, 
      "inputs": []
    }, 
    {
      "op": "null", 
      "name": "conv4_4b1_batchnorm_moving_var", 
      "attr": {"__init__": "[\"one\", {}]"}, 
      "inputs": []
    }, 
    {
      "op": "BatchNorm", 
      "name": "conv4_4b1_batchnorm", 
      "inputs": [[612, 0, 0], [613, 0, 0], [614, 0, 0], [615, 0, 1], [616, 0, 1]]
    }, 
    {
      "op": "null", 
      "name": "conv4_4b1_scale_and_shift_alpha", 
      "attr": {
        "__dtype__": "0", 
        "__init__": "[\"one\", {}]", 
        "__shape__": "1"
      }, 
      "inputs": []
    }, 
    {
      "op": "broadcast_mul", 
      "name": "broadcast_mul45", 
      "inputs": [[617, 0, 0], [618, 0, 0]]
    }, 
    {
      "op": "null", 
      "name": "conv4_4b1_scale_and_shift_beta", 
      "attr": {
        "__dtype__": "0", 
        "__init__": "[\"zero\", {}]", 
        "__shape__": "1"
      }, 
      "inputs": []
    }, 
    {
      "op": "broadcast_add", 
      "name": "broadcast_add45", 
      "inputs": [[619, 0, 0], [620, 0, 0]]
    }, 
    {
      "op": "Activation", 
      "name": "conv4_4b1_relu", 
      "attr": {"act_type": "relu"}, 
      "inputs": [[621, 0, 0]]
    }, 
    {
      "op": "null", 
      "name": "conv4_4b2_conv2d_weight", 
      "attr": {
        "kernel": "(3, 3)", 
        "no_bias": "True", 
        "num_filter": "128", 
        "pad": "(1, 1)", 
        "stride": "(1, 1)"
      }, 
      "inputs": []
    }, 
    {
      "op": "Convolution", 
      "name": "conv4_4b2_conv2d", 
      "attr": {
        "kernel": "(3, 3)", 
        "no_bias": "True", 
        "num_filter": "128", 
        "pad": "(1, 1)", 
        "stride": "(1, 1)"
      }, 
      "inputs": [[622, 0, 0], [623, 0, 0]]
    }, 
    {
      "op": "null", 
      "name": "conv4_4b2_batchnorm_gamma", 
      "inputs": []
    }, 
    {
      "op": "null", 
      "name": "conv4_4b2_batchnorm_beta", 
      "inputs": []
    }, 
    {
      "op": "null", 
      "name": "conv4_4b2_batchnorm_moving_mean", 
      "attr": {"__init__": "[\"zero\", {}]"}, 
      "inputs": []
    }, 
    {
      "op": "null", 
      "name": "conv4_4b2_batchnorm_moving_var", 
      "attr": {"__init__": "[\"one\", {}]"}, 
      "inputs": []
    }, 
    {
      "op": "BatchNorm", 
      "name": "conv4_4b2_batchnorm", 
      "inputs": [[624, 0, 0], [625, 0, 0], [626, 0, 0], [627, 0, 1], [628, 0, 1]]
    }, 
    {
      "op": "null", 
      "name": "conv4_4b2_scale_and_shift_alpha", 
      "attr": {
        "__dtype__": "0", 
        "__init__": "[\"one\", {}]", 
        "__shape__": "1"
      }, 
      "inputs": []
    }, 
    {
      "op": "broadcast_mul", 
      "name": "broadcast_mul46", 
      "inputs": [[629, 0, 0], [630, 0, 0]]
    }, 
    {
      "op": "null", 
      "name": "conv4_4b2_scale_and_shift_beta", 
      "attr": {
        "__dtype__": "0", 
        "__init__": "[\"zero\", {}]", 
        "__shape__": "1"
      }, 
      "inputs": []
    }, 
    {
      "op": "broadcast_add", 
      "name": "broadcast_add46", 
      "inputs": [[631, 0, 0], [632, 0, 0]]
    }, 
    {
      "op": "Activation", 
      "name": "conv4_4b2_relu", 
      "attr": {"act_type": "relu"}, 
      "inputs": [[633, 0, 0]]
    }, 
    {
      "op": "null", 
      "name": "conv4_4c1_conv2d_weight", 
      "attr": {
        "kernel": "(1, 1)", 
        "no_bias": "True", 
        "num_filter": "24", 
        "pad": "(0, 0)", 
        "stride": "(1, 1)"
      }, 
      "inputs": []
    }, 
    {
      "op": "Convolution", 
      "name": "conv4_4c1_conv2d", 
      "attr": {
        "kernel": "(1, 1)", 
        "no_bias": "True", 
        "num_filter": "24", 
        "pad": "(0, 0)", 
        "stride": "(1, 1)"
      }, 
      "inputs": [[598, 0, 0], [635, 0, 0]]
    }, 
    {
      "op": "null", 
      "name": "conv4_4c1_batchnorm_gamma", 
      "inputs": []
    }, 
    {
      "op": "null", 
      "name": "conv4_4c1_batchnorm_beta", 
      "inputs": []
    }, 
    {
      "op": "null", 
      "name": "conv4_4c1_batchnorm_moving_mean", 
      "attr": {"__init__": "[\"zero\", {}]"}, 
      "inputs": []
    }, 
    {
      "op": "null", 
      "name": "conv4_4c1_batchnorm_moving_var", 
      "attr": {"__init__": "[\"one\", {}]"}, 
      "inputs": []
    }, 
    {
      "op": "BatchNorm", 
      "name": "conv4_4c1_batchnorm", 
      "inputs": [[636, 0, 0], [637, 0, 0], [638, 0, 0], [639, 0, 1], [640, 0, 1]]
    }, 
    {
      "op": "null", 
      "name": "conv4_4c1_scale_and_shift_alpha", 
      "attr": {
        "__dtype__": "0", 
        "__init__": "[\"one\", {}]", 
        "__shape__": "1"
      }, 
      "inputs": []
    }, 
    {
      "op": "broadcast_mul", 
      "name": "broadcast_mul47", 
      "inputs": [[641, 0, 0], [642, 0, 0]]
    }, 
    {
      "op": "null", 
      "name": "conv4_4c1_scale_and_shift_beta", 
      "attr": {
        "__dtype__": "0", 
        "__init__": "[\"zero\", {}]", 
        "__shape__": "1"
      }, 
      "inputs": []
    }, 
    {
      "op": "broadcast_add", 
      "name": "broadcast_add47", 
      "inputs": [[643, 0, 0], [644, 0, 0]]
    }, 
    {
      "op": "Activation", 
      "name": "conv4_4c1_relu", 
      "attr": {"act_type": "relu"}, 
      "inputs": [[645, 0, 0]]
    }, 
    {
      "op": "null", 
      "name": "conv4_4c2_conv2d_weight", 
      "attr": {
        "kernel": "(3, 3)", 
        "no_bias": "True", 
        "num_filter": "48", 
        "pad": "(1, 1)", 
        "stride": "(1, 1)"
      }, 
      "inputs": []
    }, 
    {
      "op": "Convolution", 
      "name": "conv4_4c2_conv2d", 
      "attr": {
        "kernel": "(3, 3)", 
        "no_bias": "True", 
        "num_filter": "48", 
        "pad": "(1, 1)", 
        "stride": "(1, 1)"
      }, 
      "inputs": [[646, 0, 0], [647, 0, 0]]
    }, 
    {
      "op": "null", 
      "name": "conv4_4c2_batchnorm_gamma", 
      "inputs": []
    }, 
    {
      "op": "null", 
      "name": "conv4_4c2_batchnorm_beta", 
      "inputs": []
    }, 
    {
      "op": "null", 
      "name": "conv4_4c2_batchnorm_moving_mean", 
      "attr": {"__init__": "[\"zero\", {}]"}, 
      "inputs": []
    }, 
    {
      "op": "null", 
      "name": "conv4_4c2_batchnorm_moving_var", 
      "attr": {"__init__": "[\"one\", {}]"}, 
      "inputs": []
    }, 
    {
      "op": "BatchNorm", 
      "name": "conv4_4c2_batchnorm", 
      "inputs": [[648, 0, 0], [649, 0, 0], [650, 0, 0], [651, 0, 1], [652, 0, 1]]
    }, 
    {
      "op": "null", 
      "name": "conv4_4c2_scale_and_shift_alpha", 
      "attr": {
        "__dtype__": "0", 
        "__init__": "[\"one\", {}]", 
        "__shape__": "1"
      }, 
      "inputs": []
    }, 
    {
      "op": "broadcast_mul", 
      "name": "broadcast_mul48", 
      "inputs": [[653, 0, 0], [654, 0, 0]]
    }, 
    {
      "op": "null", 
      "name": "conv4_4c2_scale_and_shift_beta", 
      "attr": {
        "__dtype__": "0", 
        "__init__": "[\"zero\", {}]", 
        "__shape__": "1"
      }, 
      "inputs": []
    }, 
    {
      "op": "broadcast_add", 
      "name": "broadcast_add48", 
      "inputs": [[655, 0, 0], [656, 0, 0]]
    }, 
    {
      "op": "Activation", 
      "name": "conv4_4c2_relu", 
      "attr": {"act_type": "relu"}, 
      "inputs": [[657, 0, 0]]
    }, 
    {
      "op": "null", 
      "name": "conv4_4c3_conv2d_weight", 
      "attr": {
        "kernel": "(3, 3)", 
        "no_bias": "True", 
        "num_filter": "48", 
        "pad": "(1, 1)", 
        "stride": "(1, 1)"
      }, 
      "inputs": []
    }, 
    {
      "op": "Convolution", 
      "name": "conv4_4c3_conv2d", 
      "attr": {
        "kernel": "(3, 3)", 
        "no_bias": "True", 
        "num_filter": "48", 
        "pad": "(1, 1)", 
        "stride": "(1, 1)"
      }, 
      "inputs": [[658, 0, 0], [659, 0, 0]]
    }, 
    {
      "op": "null", 
      "name": "conv4_4c3_batchnorm_gamma", 
      "inputs": []
    }, 
    {
      "op": "null", 
      "name": "conv4_4c3_batchnorm_beta", 
      "inputs": []
    }, 
    {
      "op": "null", 
      "name": "conv4_4c3_batchnorm_moving_mean", 
      "attr": {"__init__": "[\"zero\", {}]"}, 
      "inputs": []
    }, 
    {
      "op": "null", 
      "name": "conv4_4c3_batchnorm_moving_var", 
      "attr": {"__init__": "[\"one\", {}]"}, 
      "inputs": []
    }, 
    {
      "op": "BatchNorm", 
      "name": "conv4_4c3_batchnorm", 
      "inputs": [[660, 0, 0], [661, 0, 0], [662, 0, 0], [663, 0, 1], [664, 0, 1]]
    }, 
    {
      "op": "null", 
      "name": "conv4_4c3_scale_and_shift_alpha", 
      "attr": {
        "__dtype__": "0", 
        "__init__": "[\"one\", {}]", 
        "__shape__": "1"
      }, 
      "inputs": []
    }, 
    {
      "op": "broadcast_mul", 
      "name": "broadcast_mul49", 
      "inputs": [[665, 0, 0], [666, 0, 0]]
    }, 
    {
      "op": "null", 
      "name": "conv4_4c3_scale_and_shift_beta", 
      "attr": {
        "__dtype__": "0", 
        "__init__": "[\"zero\", {}]", 
        "__shape__": "1"
      }, 
      "inputs": []
    }, 
    {
      "op": "broadcast_add", 
      "name": "broadcast_add49", 
      "inputs": [[667, 0, 0], [668, 0, 0]]
    }, 
    {
      "op": "Activation", 
      "name": "conv4_4c3_relu", 
      "attr": {"act_type": "relu"}, 
      "inputs": [[669, 0, 0]]
    }, 
    {
      "op": "Concat", 
      "name": "concat11", 
      "attr": {"num_args": "3"}, 
      "inputs": [[610, 0, 0], [634, 0, 0], [670, 0, 0]]
    }, 
    {
      "op": "null", 
      "name": "conv4_4_conv_weight", 
      "attr": {
        "kernel": "(1, 1)", 
        "num_filter": "256", 
        "pad": "(0, 0)", 
        "stride": "(1, 1)"
      }, 
      "inputs": []
    }, 
    {
      "op": "null", 
      "name": "conv4_4_conv_bias", 
      "attr": {
        "kernel": "(1, 1)", 
        "num_filter": "256", 
        "pad": "(0, 0)", 
        "stride": "(1, 1)"
      }, 
      "inputs": []
    }, 
    {
      "op": "Convolution", 
      "name": "conv4_4_conv", 
      "attr": {
        "kernel": "(1, 1)", 
        "num_filter": "256", 
        "pad": "(0, 0)", 
        "stride": "(1, 1)"
      }, 
      "inputs": [[671, 0, 0], [672, 0, 0], [673, 0, 0]]
    }, 
    {
      "op": "elemwise_add", 
      "name": "_plus10", 
      "inputs": [[674, 0, 0], [588, 0, 0]]
    }, 
    {
      "op": "null", 
      "name": "_plus10_cls_pred_conv_weight", 
      "attr": {
        "kernel": "(3, 3)", 
        "num_filter": "30", 
        "pad": "(1, 1)", 
        "stride": "(1, 1)"
      }, 
      "inputs": []
    }, 
    {
      "op": "null", 
      "name": "_plus10_cls_pred_conv_bias", 
      "attr": {
        "__init__": "[\"constant\", {\"value\": 0.0}]", 
        "__lr_mult__": "2.0"
      }, 
      "inputs": []
    }, 
    {
      "op": "Convolution", 
      "name": "_plus10_cls_pred_conv", 
      "attr": {
        "kernel": "(3, 3)", 
        "num_filter": "30", 
        "pad": "(1, 1)", 
        "stride": "(1, 1)"
      }, 
      "inputs": [[675, 0, 0], [676, 0, 0], [677, 0, 0]]
    }, 
    {
      "op": "transpose", 
      "name": "transpose3", 
      "attr": {"axes": "(0, 2, 3, 1)"}, 
      "inputs": [[678, 0, 0]]
    }, 
    {
      "op": "Flatten", 
      "name": "flatten4", 
      "inputs": [[679, 0, 0]]
    }, 
    {
      "op": "null", 
      "name": "conv5_1bsr_batchnorm_gamma", 
      "inputs": []
    }, 
    {
      "op": "null", 
      "name": "conv5_1bsr_batchnorm_beta", 
      "inputs": []
    }, 
    {
      "op": "null", 
      "name": "conv5_1bsr_batchnorm_moving_mean", 
      "attr": {"__init__": "[\"zero\", {}]"}, 
      "inputs": []
    }, 
    {
      "op": "null", 
      "name": "conv5_1bsr_batchnorm_moving_var", 
      "attr": {"__init__": "[\"one\", {}]"}, 
      "inputs": []
    }, 
    {
      "op": "BatchNorm", 
      "name": "conv5_1bsr_batchnorm", 
      "inputs": [[675, 0, 0], [681, 0, 0], [682, 0, 0], [683, 0, 1], [684, 0, 1]]
    }, 
    {
      "op": "null", 
      "name": "conv5_1bsr_alpha", 
      "attr": {
        "__dtype__": "0", 
        "__init__": "[\"one\", {}]", 
        "__shape__": "1"
      }, 
      "inputs": []
    }, 
    {
      "op": "broadcast_mul", 
      "name": "broadcast_mul50", 
      "inputs": [[685, 0, 0], [686, 0, 0]]
    }, 
    {
      "op": "null", 
      "name": "conv5_1bsr_beta", 
      "attr": {
        "__dtype__": "0", 
        "__init__": "[\"zero\", {}]", 
        "__shape__": "1"
      }, 
      "inputs": []
    }, 
    {
      "op": "broadcast_add", 
      "name": "broadcast_add50", 
      "inputs": [[687, 0, 0], [688, 0, 0]]
    }, 
    {
      "op": "Activation", 
      "name": "conv5_1bsr_relu", 
      "attr": {"act_type": "relu"}, 
      "inputs": [[689, 0, 0]]
    }, 
    {
      "op": "null", 
      "name": "conv5_1a_conv2d_weight", 
      "attr": {
        "kernel": "(1, 1)", 
        "no_bias": "True", 
        "num_filter": "64", 
        "pad": "(0, 0)", 
        "stride": "(2, 2)"
      }, 
      "inputs": []
    }, 
    {
      "op": "Convolution", 
      "name": "conv5_1a_conv2d", 
      "attr": {
        "kernel": "(1, 1)", 
        "no_bias": "True", 
        "num_filter": "64", 
        "pad": "(0, 0)", 
        "stride": "(2, 2)"
      }, 
      "inputs": [[690, 0, 0], [691, 0, 0]]
    }, 
    {
      "op": "null", 
      "name": "conv5_1a_batchnorm_gamma", 
      "inputs": []
    }, 
    {
      "op": "null", 
      "name": "conv5_1a_batchnorm_beta", 
      "inputs": []
    }, 
    {
      "op": "null", 
      "name": "conv5_1a_batchnorm_moving_mean", 
      "attr": {"__init__": "[\"zero\", {}]"}, 
      "inputs": []
    }, 
    {
      "op": "null", 
      "name": "conv5_1a_batchnorm_moving_var", 
      "attr": {"__init__": "[\"one\", {}]"}, 
      "inputs": []
    }, 
    {
      "op": "BatchNorm", 
      "name": "conv5_1a_batchnorm", 
      "inputs": [[692, 0, 0], [693, 0, 0], [694, 0, 0], [695, 0, 1], [696, 0, 1]]
    }, 
    {
      "op": "null", 
      "name": "conv5_1a_scale_and_shift_alpha", 
      "attr": {
        "__dtype__": "0", 
        "__init__": "[\"one\", {}]", 
        "__shape__": "1"
      }, 
      "inputs": []
    }, 
    {
      "op": "broadcast_mul", 
      "name": "broadcast_mul51", 
      "inputs": [[697, 0, 0], [698, 0, 0]]
    }, 
    {
      "op": "null", 
      "name": "conv5_1a_scale_and_shift_beta", 
      "attr": {
        "__dtype__": "0", 
        "__init__": "[\"zero\", {}]", 
        "__shape__": "1"
      }, 
      "inputs": []
    }, 
    {
      "op": "broadcast_add", 
      "name": "broadcast_add51", 
      "inputs": [[699, 0, 0], [700, 0, 0]]
    }, 
    {
      "op": "Activation", 
      "name": "conv5_1a_relu", 
      "attr": {"act_type": "relu"}, 
      "inputs": [[701, 0, 0]]
    }, 
    {
      "op": "null", 
      "name": "conv5_1b1_conv2d_weight", 
      "attr": {
        "kernel": "(1, 1)", 
        "no_bias": "True", 
        "num_filter": "96", 
        "pad": "(0, 0)", 
        "stride": "(2, 2)"
      }, 
      "inputs": []
    }, 
    {
      "op": "Convolution", 
      "name": "conv5_1b1_conv2d", 
      "attr": {
        "kernel": "(1, 1)", 
        "no_bias": "True", 
        "num_filter": "96", 
        "pad": "(0, 0)", 
        "stride": "(2, 2)"
      }, 
      "inputs": [[690, 0, 0], [703, 0, 0]]
    }, 
    {
      "op": "null", 
      "name": "conv5_1b1_batchnorm_gamma", 
      "inputs": []
    }, 
    {
      "op": "null", 
      "name": "conv5_1b1_batchnorm_beta", 
      "inputs": []
    }, 
    {
      "op": "null", 
      "name": "conv5_1b1_batchnorm_moving_mean", 
      "attr": {"__init__": "[\"zero\", {}]"}, 
      "inputs": []
    }, 
    {
      "op": "null", 
      "name": "conv5_1b1_batchnorm_moving_var", 
      "attr": {"__init__": "[\"one\", {}]"}, 
      "inputs": []
    }, 
    {
      "op": "BatchNorm", 
      "name": "conv5_1b1_batchnorm", 
      "inputs": [[704, 0, 0], [705, 0, 0], [706, 0, 0], [707, 0, 1], [708, 0, 1]]
    }, 
    {
      "op": "null", 
      "name": "conv5_1b1_scale_and_shift_alpha", 
      "attr": {
        "__dtype__": "0", 
        "__init__": "[\"one\", {}]", 
        "__shape__": "1"
      }, 
      "inputs": []
    }, 
    {
      "op": "broadcast_mul", 
      "name": "broadcast_mul52", 
      "inputs": [[709, 0, 0], [710, 0, 0]]
    }, 
    {
      "op": "null", 
      "name": "conv5_1b1_scale_and_shift_beta", 
      "attr": {
        "__dtype__": "0", 
        "__init__": "[\"zero\", {}]", 
        "__shape__": "1"
      }, 
      "inputs": []
    }, 
    {
      "op": "broadcast_add", 
      "name": "broadcast_add52", 
      "inputs": [[711, 0, 0], [712, 0, 0]]
    }, 
    {
      "op": "Activation", 
      "name": "conv5_1b1_relu", 
      "attr": {"act_type": "relu"}, 
      "inputs": [[713, 0, 0]]
    }, 
    {
      "op": "null", 
      "name": "conv5_1b2_conv2d_weight", 
      "attr": {
        "kernel": "(3, 3)", 
        "no_bias": "True", 
        "num_filter": "192", 
        "pad": "(1, 1)", 
        "stride": "(1, 1)"
      }, 
      "inputs": []
    }, 
    {
      "op": "Convolution", 
      "name": "conv5_1b2_conv2d", 
      "attr": {
        "kernel": "(3, 3)", 
        "no_bias": "True", 
        "num_filter": "192", 
        "pad": "(1, 1)", 
        "stride": "(1, 1)"
      }, 
      "inputs": [[714, 0, 0], [715, 0, 0]]
    }, 
    {
      "op": "null", 
      "name": "conv5_1b2_batchnorm_gamma", 
      "inputs": []
    }, 
    {
      "op": "null", 
      "name": "conv5_1b2_batchnorm_beta", 
      "inputs": []
    }, 
    {
      "op": "null", 
      "name": "conv5_1b2_batchnorm_moving_mean", 
      "attr": {"__init__": "[\"zero\", {}]"}, 
      "inputs": []
    }, 
    {
      "op": "null", 
      "name": "conv5_1b2_batchnorm_moving_var", 
      "attr": {"__init__": "[\"one\", {}]"}, 
      "inputs": []
    }, 
    {
      "op": "BatchNorm", 
      "name": "conv5_1b2_batchnorm", 
      "inputs": [[716, 0, 0], [717, 0, 0], [718, 0, 0], [719, 0, 1], [720, 0, 1]]
    }, 
    {
      "op": "null", 
      "name": "conv5_1b2_scale_and_shift_alpha", 
      "attr": {
        "__dtype__": "0", 
        "__init__": "[\"one\", {}]", 
        "__shape__": "1"
      }, 
      "inputs": []
    }, 
    {
      "op": "broadcast_mul", 
      "name": "broadcast_mul53", 
      "inputs": [[721, 0, 0], [722, 0, 0]]
    }, 
    {
      "op": "null", 
      "name": "conv5_1b2_scale_and_shift_beta", 
      "attr": {
        "__dtype__": "0", 
        "__init__": "[\"zero\", {}]", 
        "__shape__": "1"
      }, 
      "inputs": []
    }, 
    {
      "op": "broadcast_add", 
      "name": "broadcast_add53", 
      "inputs": [[723, 0, 0], [724, 0, 0]]
    }, 
    {
      "op": "Activation", 
      "name": "conv5_1b2_relu", 
      "attr": {"act_type": "relu"}, 
      "inputs": [[725, 0, 0]]
    }, 
    {
      "op": "null", 
      "name": "conv5_1c1_conv2d_weight", 
      "attr": {
        "kernel": "(1, 1)", 
        "no_bias": "True", 
        "num_filter": "32", 
        "pad": "(0, 0)", 
        "stride": "(2, 2)"
      }, 
      "inputs": []
    }, 
    {
      "op": "Convolution", 
      "name": "conv5_1c1_conv2d", 
      "attr": {
        "kernel": "(1, 1)", 
        "no_bias": "True", 
        "num_filter": "32", 
        "pad": "(0, 0)", 
        "stride": "(2, 2)"
      }, 
      "inputs": [[690, 0, 0], [727, 0, 0]]
    }, 
    {
      "op": "null", 
      "name": "conv5_1c1_batchnorm_gamma", 
      "inputs": []
    }, 
    {
      "op": "null", 
      "name": "conv5_1c1_batchnorm_beta", 
      "inputs": []
    }, 
    {
      "op": "null", 
      "name": "conv5_1c1_batchnorm_moving_mean", 
      "attr": {"__init__": "[\"zero\", {}]"}, 
      "inputs": []
    }, 
    {
      "op": "null", 
      "name": "conv5_1c1_batchnorm_moving_var", 
      "attr": {"__init__": "[\"one\", {}]"}, 
      "inputs": []
    }, 
    {
      "op": "BatchNorm", 
      "name": "conv5_1c1_batchnorm", 
      "inputs": [[728, 0, 0], [729, 0, 0], [730, 0, 0], [731, 0, 1], [732, 0, 1]]
    }, 
    {
      "op": "null", 
      "name": "conv5_1c1_scale_and_shift_alpha", 
      "attr": {
        "__dtype__": "0", 
        "__init__": "[\"one\", {}]", 
        "__shape__": "1"
      }, 
      "inputs": []
    }, 
    {
      "op": "broadcast_mul", 
      "name": "broadcast_mul54", 
      "inputs": [[733, 0, 0], [734, 0, 0]]
    }, 
    {
      "op": "null", 
      "name": "conv5_1c1_scale_and_shift_beta", 
      "attr": {
        "__dtype__": "0", 
        "__init__": "[\"zero\", {}]", 
        "__shape__": "1"
      }, 
      "inputs": []
    }, 
    {
      "op": "broadcast_add", 
      "name": "broadcast_add54", 
      "inputs": [[735, 0, 0], [736, 0, 0]]
    }, 
    {
      "op": "Activation", 
      "name": "conv5_1c1_relu", 
      "attr": {"act_type": "relu"}, 
      "inputs": [[737, 0, 0]]
    }, 
    {
      "op": "null", 
      "name": "conv5_1c2_conv2d_weight", 
      "attr": {
        "kernel": "(3, 3)", 
        "no_bias": "True", 
        "num_filter": "64", 
        "pad": "(1, 1)", 
        "stride": "(1, 1)"
      }, 
      "inputs": []
    }, 
    {
      "op": "Convolution", 
      "name": "conv5_1c2_conv2d", 
      "attr": {
        "kernel": "(3, 3)", 
        "no_bias": "True", 
        "num_filter": "64", 
        "pad": "(1, 1)", 
        "stride": "(1, 1)"
      }, 
      "inputs": [[738, 0, 0], [739, 0, 0]]
    }, 
    {
      "op": "null", 
      "name": "conv5_1c2_batchnorm_gamma", 
      "inputs": []
    }, 
    {
      "op": "null", 
      "name": "conv5_1c2_batchnorm_beta", 
      "inputs": []
    }, 
    {
      "op": "null", 
      "name": "conv5_1c2_batchnorm_moving_mean", 
      "attr": {"__init__": "[\"zero\", {}]"}, 
      "inputs": []
    }, 
    {
      "op": "null", 
      "name": "conv5_1c2_batchnorm_moving_var", 
      "attr": {"__init__": "[\"one\", {}]"}, 
      "inputs": []
    }, 
    {
      "op": "BatchNorm", 
      "name": "conv5_1c2_batchnorm", 
      "inputs": [[740, 0, 0], [741, 0, 0], [742, 0, 0], [743, 0, 1], [744, 0, 1]]
    }, 
    {
      "op": "null", 
      "name": "conv5_1c2_scale_and_shift_alpha", 
      "attr": {
        "__dtype__": "0", 
        "__init__": "[\"one\", {}]", 
        "__shape__": "1"
      }, 
      "inputs": []
    }, 
    {
      "op": "broadcast_mul", 
      "name": "broadcast_mul55", 
      "inputs": [[745, 0, 0], [746, 0, 0]]
    }, 
    {
      "op": "null", 
      "name": "conv5_1c2_scale_and_shift_beta", 
      "attr": {
        "__dtype__": "0", 
        "__init__": "[\"zero\", {}]", 
        "__shape__": "1"
      }, 
      "inputs": []
    }, 
    {
      "op": "broadcast_add", 
      "name": "broadcast_add55", 
      "inputs": [[747, 0, 0], [748, 0, 0]]
    }, 
    {
      "op": "Activation", 
      "name": "conv5_1c2_relu", 
      "attr": {"act_type": "relu"}, 
      "inputs": [[749, 0, 0]]
    }, 
    {
      "op": "null", 
      "name": "conv5_1c3_conv2d_weight", 
      "attr": {
        "kernel": "(3, 3)", 
        "no_bias": "True", 
        "num_filter": "64", 
        "pad": "(1, 1)", 
        "stride": "(1, 1)"
      }, 
      "inputs": []
    }, 
    {
      "op": "Convolution", 
      "name": "conv5_1c3_conv2d", 
      "attr": {
        "kernel": "(3, 3)", 
        "no_bias": "True", 
        "num_filter": "64", 
        "pad": "(1, 1)", 
        "stride": "(1, 1)"
      }, 
      "inputs": [[750, 0, 0], [751, 0, 0]]
    }, 
    {
      "op": "null", 
      "name": "conv5_1c3_batchnorm_gamma", 
      "inputs": []
    }, 
    {
      "op": "null", 
      "name": "conv5_1c3_batchnorm_beta", 
      "inputs": []
    }, 
    {
      "op": "null", 
      "name": "conv5_1c3_batchnorm_moving_mean", 
      "attr": {"__init__": "[\"zero\", {}]"}, 
      "inputs": []
    }, 
    {
      "op": "null", 
      "name": "conv5_1c3_batchnorm_moving_var", 
      "attr": {"__init__": "[\"one\", {}]"}, 
      "inputs": []
    }, 
    {
      "op": "BatchNorm", 
      "name": "conv5_1c3_batchnorm", 
      "inputs": [[752, 0, 0], [753, 0, 0], [754, 0, 0], [755, 0, 1], [756, 0, 1]]
    }, 
    {
      "op": "null", 
      "name": "conv5_1c3_scale_and_shift_alpha", 
      "attr": {
        "__dtype__": "0", 
        "__init__": "[\"one\", {}]", 
        "__shape__": "1"
      }, 
      "inputs": []
    }, 
    {
      "op": "broadcast_mul", 
      "name": "broadcast_mul56", 
      "inputs": [[757, 0, 0], [758, 0, 0]]
    }, 
    {
      "op": "null", 
      "name": "conv5_1c3_scale_and_shift_beta", 
      "attr": {
        "__dtype__": "0", 
        "__init__": "[\"zero\", {}]", 
        "__shape__": "1"
      }, 
      "inputs": []
    }, 
    {
      "op": "broadcast_add", 
      "name": "broadcast_add56", 
      "inputs": [[759, 0, 0], [760, 0, 0]]
    }, 
    {
      "op": "Activation", 
      "name": "conv5_1c3_relu", 
      "attr": {"act_type": "relu"}, 
      "inputs": [[761, 0, 0]]
    }, 
    {
      "op": "Pooling", 
      "name": "conv5_1pool", 
      "attr": {
        "kernel": "(3, 3)", 
        "pad": "(1, 1)", 
        "pool_type": "max", 
        "stride": "(2, 2)"
      }, 
      "inputs": [[690, 0, 0]]
    }, 
    {
      "op": "null", 
      "name": "conv5_1proj_conv_conv2d_weight", 
      "attr": {
        "kernel": "(1, 1)", 
        "no_bias": "True", 
        "num_filter": "128", 
        "pad": "(0, 0)", 
        "stride": "(1, 1)"
      }, 
      "inputs": []
    }, 
    {
      "op": "Convolution", 
      "name": "conv5_1proj_conv_conv2d", 
      "attr": {
        "kernel": "(1, 1)", 
        "no_bias": "True", 
        "num_filter": "128", 
        "pad": "(0, 0)", 
        "stride": "(1, 1)"
      }, 
      "inputs": [[763, 0, 0], [764, 0, 0]]
    }, 
    {
      "op": "null", 
      "name": "conv5_1proj_conv_batchnorm_gamma", 
      "inputs": []
    }, 
    {
      "op": "null", 
      "name": "conv5_1proj_conv_batchnorm_beta", 
      "inputs": []
    }, 
    {
      "op": "null", 
      "name": "conv5_1proj_conv_batchnorm_moving_mean", 
      "attr": {"__init__": "[\"zero\", {}]"}, 
      "inputs": []
    }, 
    {
      "op": "null", 
      "name": "conv5_1proj_conv_batchnorm_moving_var", 
      "attr": {"__init__": "[\"one\", {}]"}, 
      "inputs": []
    }, 
    {
      "op": "BatchNorm", 
      "name": "conv5_1proj_conv_batchnorm", 
      "inputs": [[765, 0, 0], [766, 0, 0], [767, 0, 0], [768, 0, 1], [769, 0, 1]]
    }, 
    {
      "op": "null", 
      "name": "conv5_1proj_conv_scale_and_shift_alpha", 
      "attr": {
        "__dtype__": "0", 
        "__init__": "[\"one\", {}]", 
        "__shape__": "1"
      }, 
      "inputs": []
    }, 
    {
      "op": "broadcast_mul", 
      "name": "broadcast_mul57", 
      "inputs": [[770, 0, 0], [771, 0, 0]]
    }, 
    {
      "op": "null", 
      "name": "conv5_1proj_conv_scale_and_shift_beta", 
      "attr": {
        "__dtype__": "0", 
        "__init__": "[\"zero\", {}]", 
        "__shape__": "1"
      }, 
      "inputs": []
    }, 
    {
      "op": "broadcast_add", 
      "name": "broadcast_add57", 
      "inputs": [[772, 0, 0], [773, 0, 0]]
    }, 
    {
      "op": "Activation", 
      "name": "conv5_1proj_conv_relu", 
      "attr": {"act_type": "relu"}, 
      "inputs": [[774, 0, 0]]
    }, 
    {
      "op": "Concat", 
      "name": "concat12", 
      "attr": {"num_args": "4"}, 
      "inputs": [[702, 0, 0], [726, 0, 0], [762, 0, 0], [775, 0, 0]]
    }, 
    {
      "op": "null", 
      "name": "conv5_1_conv_weight", 
      "attr": {
        "kernel": "(1, 1)", 
        "num_filter": "384", 
        "pad": "(0, 0)", 
        "stride": "(1, 1)"
      }, 
      "inputs": []
    }, 
    {
      "op": "null", 
      "name": "conv5_1_conv_bias", 
      "attr": {
        "kernel": "(1, 1)", 
        "num_filter": "384", 
        "pad": "(0, 0)", 
        "stride": "(1, 1)"
      }, 
      "inputs": []
    }, 
    {
      "op": "Convolution", 
      "name": "conv5_1_conv", 
      "attr": {
        "kernel": "(1, 1)", 
        "num_filter": "384", 
        "pad": "(0, 0)", 
        "stride": "(1, 1)"
      }, 
      "inputs": [[776, 0, 0], [777, 0, 0], [778, 0, 0]]
    }, 
    {
      "op": "null", 
      "name": "conv5_1_proj_weight", 
      "attr": {
        "kernel": "(1, 1)", 
        "num_filter": "384", 
        "stride": "(2, 2)"
      }, 
      "inputs": []
    }, 
    {
      "op": "null", 
      "name": "conv5_1_proj_bias", 
      "attr": {
        "kernel": "(1, 1)", 
        "num_filter": "384", 
        "stride": "(2, 2)"
      }, 
      "inputs": []
    }, 
    {
      "op": "Convolution", 
      "name": "conv5_1_proj", 
      "attr": {
        "kernel": "(1, 1)", 
        "num_filter": "384", 
        "stride": "(2, 2)"
      }, 
      "inputs": [[675, 0, 0], [780, 0, 0], [781, 0, 0]]
    }, 
    {
      "op": "elemwise_add", 
      "name": "_plus11", 
      "inputs": [[779, 0, 0], [782, 0, 0]]
    }, 
    {
      "op": "null", 
      "name": "conv5_2bsr_batchnorm_gamma", 
      "inputs": []
    }, 
    {
      "op": "null", 
      "name": "conv5_2bsr_batchnorm_beta", 
      "inputs": []
    }, 
    {
      "op": "null", 
      "name": "conv5_2bsr_batchnorm_moving_mean", 
      "attr": {"__init__": "[\"zero\", {}]"}, 
      "inputs": []
    }, 
    {
      "op": "null", 
      "name": "conv5_2bsr_batchnorm_moving_var", 
      "attr": {"__init__": "[\"one\", {}]"}, 
      "inputs": []
    }, 
    {
      "op": "BatchNorm", 
      "name": "conv5_2bsr_batchnorm", 
      "inputs": [[783, 0, 0], [784, 0, 0], [785, 0, 0], [786, 0, 1], [787, 0, 1]]
    }, 
    {
      "op": "null", 
      "name": "conv5_2bsr_alpha", 
      "attr": {
        "__dtype__": "0", 
        "__init__": "[\"one\", {}]", 
        "__shape__": "1"
      }, 
      "inputs": []
    }, 
    {
      "op": "broadcast_mul", 
      "name": "broadcast_mul58", 
      "inputs": [[788, 0, 0], [789, 0, 0]]
    }, 
    {
      "op": "null", 
      "name": "conv5_2bsr_beta", 
      "attr": {
        "__dtype__": "0", 
        "__init__": "[\"zero\", {}]", 
        "__shape__": "1"
      }, 
      "inputs": []
    }, 
    {
      "op": "broadcast_add", 
      "name": "broadcast_add58", 
      "inputs": [[790, 0, 0], [791, 0, 0]]
    }, 
    {
      "op": "Activation", 
      "name": "conv5_2bsr_relu", 
      "attr": {"act_type": "relu"}, 
      "inputs": [[792, 0, 0]]
    }, 
    {
      "op": "null", 
      "name": "conv5_2a_conv2d_weight", 
      "attr": {
        "kernel": "(1, 1)", 
        "no_bias": "True", 
        "num_filter": "64", 
        "pad": "(0, 0)", 
        "stride": "(1, 1)"
      }, 
      "inputs": []
    }, 
    {
      "op": "Convolution", 
      "name": "conv5_2a_conv2d", 
      "attr": {
        "kernel": "(1, 1)", 
        "no_bias": "True", 
        "num_filter": "64", 
        "pad": "(0, 0)", 
        "stride": "(1, 1)"
      }, 
      "inputs": [[793, 0, 0], [794, 0, 0]]
    }, 
    {
      "op": "null", 
      "name": "conv5_2a_batchnorm_gamma", 
      "inputs": []
    }, 
    {
      "op": "null", 
      "name": "conv5_2a_batchnorm_beta", 
      "inputs": []
    }, 
    {
      "op": "null", 
      "name": "conv5_2a_batchnorm_moving_mean", 
      "attr": {"__init__": "[\"zero\", {}]"}, 
      "inputs": []
    }, 
    {
      "op": "null", 
      "name": "conv5_2a_batchnorm_moving_var", 
      "attr": {"__init__": "[\"one\", {}]"}, 
      "inputs": []
    }, 
    {
      "op": "BatchNorm", 
      "name": "conv5_2a_batchnorm", 
      "inputs": [[795, 0, 0], [796, 0, 0], [797, 0, 0], [798, 0, 1], [799, 0, 1]]
    }, 
    {
      "op": "null", 
      "name": "conv5_2a_scale_and_shift_alpha", 
      "attr": {
        "__dtype__": "0", 
        "__init__": "[\"one\", {}]", 
        "__shape__": "1"
      }, 
      "inputs": []
    }, 
    {
      "op": "broadcast_mul", 
      "name": "broadcast_mul59", 
      "inputs": [[800, 0, 0], [801, 0, 0]]
    }, 
    {
      "op": "null", 
      "name": "conv5_2a_scale_and_shift_beta", 
      "attr": {
        "__dtype__": "0", 
        "__init__": "[\"zero\", {}]", 
        "__shape__": "1"
      }, 
      "inputs": []
    }, 
    {
      "op": "broadcast_add", 
      "name": "broadcast_add59", 
      "inputs": [[802, 0, 0], [803, 0, 0]]
    }, 
    {
      "op": "Activation", 
      "name": "conv5_2a_relu", 
      "attr": {"act_type": "relu"}, 
      "inputs": [[804, 0, 0]]
    }, 
    {
      "op": "null", 
      "name": "conv5_2b1_conv2d_weight", 
      "attr": {
        "kernel": "(1, 1)", 
        "no_bias": "True", 
        "num_filter": "96", 
        "pad": "(0, 0)", 
        "stride": "(1, 1)"
      }, 
      "inputs": []
    }, 
    {
      "op": "Convolution", 
      "name": "conv5_2b1_conv2d", 
      "attr": {
        "kernel": "(1, 1)", 
        "no_bias": "True", 
        "num_filter": "96", 
        "pad": "(0, 0)", 
        "stride": "(1, 1)"
      }, 
      "inputs": [[793, 0, 0], [806, 0, 0]]
    }, 
    {
      "op": "null", 
      "name": "conv5_2b1_batchnorm_gamma", 
      "inputs": []
    }, 
    {
      "op": "null", 
      "name": "conv5_2b1_batchnorm_beta", 
      "inputs": []
    }, 
    {
      "op": "null", 
      "name": "conv5_2b1_batchnorm_moving_mean", 
      "attr": {"__init__": "[\"zero\", {}]"}, 
      "inputs": []
    }, 
    {
      "op": "null", 
      "name": "conv5_2b1_batchnorm_moving_var", 
      "attr": {"__init__": "[\"one\", {}]"}, 
      "inputs": []
    }, 
    {
      "op": "BatchNorm", 
      "name": "conv5_2b1_batchnorm", 
      "inputs": [[807, 0, 0], [808, 0, 0], [809, 0, 0], [810, 0, 1], [811, 0, 1]]
    }, 
    {
      "op": "null", 
      "name": "conv5_2b1_scale_and_shift_alpha", 
      "attr": {
        "__dtype__": "0", 
        "__init__": "[\"one\", {}]", 
        "__shape__": "1"
      }, 
      "inputs": []
    }, 
    {
      "op": "broadcast_mul", 
      "name": "broadcast_mul60", 
      "inputs": [[812, 0, 0], [813, 0, 0]]
    }, 
    {
      "op": "null", 
      "name": "conv5_2b1_scale_and_shift_beta", 
      "attr": {
        "__dtype__": "0", 
        "__init__": "[\"zero\", {}]", 
        "__shape__": "1"
      }, 
      "inputs": []
    }, 
    {
      "op": "broadcast_add", 
      "name": "broadcast_add60", 
      "inputs": [[814, 0, 0], [815, 0, 0]]
    }, 
    {
      "op": "Activation", 
      "name": "conv5_2b1_relu", 
      "attr": {"act_type": "relu"}, 
      "inputs": [[816, 0, 0]]
    }, 
    {
      "op": "null", 
      "name": "conv5_2b2_conv2d_weight", 
      "attr": {
        "kernel": "(3, 3)", 
        "no_bias": "True", 
        "num_filter": "192", 
        "pad": "(1, 1)", 
        "stride": "(1, 1)"
      }, 
      "inputs": []
    }, 
    {
      "op": "Convolution", 
      "name": "conv5_2b2_conv2d", 
      "attr": {
        "kernel": "(3, 3)", 
        "no_bias": "True", 
        "num_filter": "192", 
        "pad": "(1, 1)", 
        "stride": "(1, 1)"
      }, 
      "inputs": [[817, 0, 0], [818, 0, 0]]
    }, 
    {
      "op": "null", 
      "name": "conv5_2b2_batchnorm_gamma", 
      "inputs": []
    }, 
    {
      "op": "null", 
      "name": "conv5_2b2_batchnorm_beta", 
      "inputs": []
    }, 
    {
      "op": "null", 
      "name": "conv5_2b2_batchnorm_moving_mean", 
      "attr": {"__init__": "[\"zero\", {}]"}, 
      "inputs": []
    }, 
    {
      "op": "null", 
      "name": "conv5_2b2_batchnorm_moving_var", 
      "attr": {"__init__": "[\"one\", {}]"}, 
      "inputs": []
    }, 
    {
      "op": "BatchNorm", 
      "name": "conv5_2b2_batchnorm", 
      "inputs": [[819, 0, 0], [820, 0, 0], [821, 0, 0], [822, 0, 1], [823, 0, 1]]
    }, 
    {
      "op": "null", 
      "name": "conv5_2b2_scale_and_shift_alpha", 
      "attr": {
        "__dtype__": "0", 
        "__init__": "[\"one\", {}]", 
        "__shape__": "1"
      }, 
      "inputs": []
    }, 
    {
      "op": "broadcast_mul", 
      "name": "broadcast_mul61", 
      "inputs": [[824, 0, 0], [825, 0, 0]]
    }, 
    {
      "op": "null", 
      "name": "conv5_2b2_scale_and_shift_beta", 
      "attr": {
        "__dtype__": "0", 
        "__init__": "[\"zero\", {}]", 
        "__shape__": "1"
      }, 
      "inputs": []
    }, 
    {
      "op": "broadcast_add", 
      "name": "broadcast_add61", 
      "inputs": [[826, 0, 0], [827, 0, 0]]
    }, 
    {
      "op": "Activation", 
      "name": "conv5_2b2_relu", 
      "attr": {"act_type": "relu"}, 
      "inputs": [[828, 0, 0]]
    }, 
    {
      "op": "null", 
      "name": "conv5_2c1_conv2d_weight", 
      "attr": {
        "kernel": "(1, 1)", 
        "no_bias": "True", 
        "num_filter": "32", 
        "pad": "(0, 0)", 
        "stride": "(1, 1)"
      }, 
      "inputs": []
    }, 
    {
      "op": "Convolution", 
      "name": "conv5_2c1_conv2d", 
      "attr": {
        "kernel": "(1, 1)", 
        "no_bias": "True", 
        "num_filter": "32", 
        "pad": "(0, 0)", 
        "stride": "(1, 1)"
      }, 
      "inputs": [[793, 0, 0], [830, 0, 0]]
    }, 
    {
      "op": "null", 
      "name": "conv5_2c1_batchnorm_gamma", 
      "inputs": []
    }, 
    {
      "op": "null", 
      "name": "conv5_2c1_batchnorm_beta", 
      "inputs": []
    }, 
    {
      "op": "null", 
      "name": "conv5_2c1_batchnorm_moving_mean", 
      "attr": {"__init__": "[\"zero\", {}]"}, 
      "inputs": []
    }, 
    {
      "op": "null", 
      "name": "conv5_2c1_batchnorm_moving_var", 
      "attr": {"__init__": "[\"one\", {}]"}, 
      "inputs": []
    }, 
    {
      "op": "BatchNorm", 
      "name": "conv5_2c1_batchnorm", 
      "inputs": [[831, 0, 0], [832, 0, 0], [833, 0, 0], [834, 0, 1], [835, 0, 1]]
    }, 
    {
      "op": "null", 
      "name": "conv5_2c1_scale_and_shift_alpha", 
      "attr": {
        "__dtype__": "0", 
        "__init__": "[\"one\", {}]", 
        "__shape__": "1"
      }, 
      "inputs": []
    }, 
    {
      "op": "broadcast_mul", 
      "name": "broadcast_mul62", 
      "inputs": [[836, 0, 0], [837, 0, 0]]
    }, 
    {
      "op": "null", 
      "name": "conv5_2c1_scale_and_shift_beta", 
      "attr": {
        "__dtype__": "0", 
        "__init__": "[\"zero\", {}]", 
        "__shape__": "1"
      }, 
      "inputs": []
    }, 
    {
      "op": "broadcast_add", 
      "name": "broadcast_add62", 
      "inputs": [[838, 0, 0], [839, 0, 0]]
    }, 
    {
      "op": "Activation", 
      "name": "conv5_2c1_relu", 
      "attr": {"act_type": "relu"}, 
      "inputs": [[840, 0, 0]]
    }, 
    {
      "op": "null", 
      "name": "conv5_2c2_conv2d_weight", 
      "attr": {
        "kernel": "(3, 3)", 
        "no_bias": "True", 
        "num_filter": "64", 
        "pad": "(1, 1)", 
        "stride": "(1, 1)"
      }, 
      "inputs": []
    }, 
    {
      "op": "Convolution", 
      "name": "conv5_2c2_conv2d", 
      "attr": {
        "kernel": "(3, 3)", 
        "no_bias": "True", 
        "num_filter": "64", 
        "pad": "(1, 1)", 
        "stride": "(1, 1)"
      }, 
      "inputs": [[841, 0, 0], [842, 0, 0]]
    }, 
    {
      "op": "null", 
      "name": "conv5_2c2_batchnorm_gamma", 
      "inputs": []
    }, 
    {
      "op": "null", 
      "name": "conv5_2c2_batchnorm_beta", 
      "inputs": []
    }, 
    {
      "op": "null", 
      "name": "conv5_2c2_batchnorm_moving_mean", 
      "attr": {"__init__": "[\"zero\", {}]"}, 
      "inputs": []
    }, 
    {
      "op": "null", 
      "name": "conv5_2c2_batchnorm_moving_var", 
      "attr": {"__init__": "[\"one\", {}]"}, 
      "inputs": []
    }, 
    {
      "op": "BatchNorm", 
      "name": "conv5_2c2_batchnorm", 
      "inputs": [[843, 0, 0], [844, 0, 0], [845, 0, 0], [846, 0, 1], [847, 0, 1]]
    }, 
    {
      "op": "null", 
      "name": "conv5_2c2_scale_and_shift_alpha", 
      "attr": {
        "__dtype__": "0", 
        "__init__": "[\"one\", {}]", 
        "__shape__": "1"
      }, 
      "inputs": []
    }, 
    {
      "op": "broadcast_mul", 
      "name": "broadcast_mul63", 
      "inputs": [[848, 0, 0], [849, 0, 0]]
    }, 
    {
      "op": "null", 
      "name": "conv5_2c2_scale_and_shift_beta", 
      "attr": {
        "__dtype__": "0", 
        "__init__": "[\"zero\", {}]", 
        "__shape__": "1"
      }, 
      "inputs": []
    }, 
    {
      "op": "broadcast_add", 
      "name": "broadcast_add63", 
      "inputs": [[850, 0, 0], [851, 0, 0]]
    }, 
    {
      "op": "Activation", 
      "name": "conv5_2c2_relu", 
      "attr": {"act_type": "relu"}, 
      "inputs": [[852, 0, 0]]
    }, 
    {
      "op": "null", 
      "name": "conv5_2c3_conv2d_weight", 
      "attr": {
        "kernel": "(3, 3)", 
        "no_bias": "True", 
        "num_filter": "64", 
        "pad": "(1, 1)", 
        "stride": "(1, 1)"
      }, 
      "inputs": []
    }, 
    {
      "op": "Convolution", 
      "name": "conv5_2c3_conv2d", 
      "attr": {
        "kernel": "(3, 3)", 
        "no_bias": "True", 
        "num_filter": "64", 
        "pad": "(1, 1)", 
        "stride": "(1, 1)"
      }, 
      "inputs": [[853, 0, 0], [854, 0, 0]]
    }, 
    {
      "op": "null", 
      "name": "conv5_2c3_batchnorm_gamma", 
      "inputs": []
    }, 
    {
      "op": "null", 
      "name": "conv5_2c3_batchnorm_beta", 
      "inputs": []
    }, 
    {
      "op": "null", 
      "name": "conv5_2c3_batchnorm_moving_mean", 
      "attr": {"__init__": "[\"zero\", {}]"}, 
      "inputs": []
    }, 
    {
      "op": "null", 
      "name": "conv5_2c3_batchnorm_moving_var", 
      "attr": {"__init__": "[\"one\", {}]"}, 
      "inputs": []
    }, 
    {
      "op": "BatchNorm", 
      "name": "conv5_2c3_batchnorm", 
      "inputs": [[855, 0, 0], [856, 0, 0], [857, 0, 0], [858, 0, 1], [859, 0, 1]]
    }, 
    {
      "op": "null", 
      "name": "conv5_2c3_scale_and_shift_alpha", 
      "attr": {
        "__dtype__": "0", 
        "__init__": "[\"one\", {}]", 
        "__shape__": "1"
      }, 
      "inputs": []
    }, 
    {
      "op": "broadcast_mul", 
      "name": "broadcast_mul64", 
      "inputs": [[860, 0, 0], [861, 0, 0]]
    }, 
    {
      "op": "null", 
      "name": "conv5_2c3_scale_and_shift_beta", 
      "attr": {
        "__dtype__": "0", 
        "__init__": "[\"zero\", {}]", 
        "__shape__": "1"
      }, 
      "inputs": []
    }, 
    {
      "op": "broadcast_add", 
      "name": "broadcast_add64", 
      "inputs": [[862, 0, 0], [863, 0, 0]]
    }, 
    {
      "op": "Activation", 
      "name": "conv5_2c3_relu", 
      "attr": {"act_type": "relu"}, 
      "inputs": [[864, 0, 0]]
    }, 
    {
      "op": "Concat", 
      "name": "concat13", 
      "attr": {"num_args": "3"}, 
      "inputs": [[805, 0, 0], [829, 0, 0], [865, 0, 0]]
    }, 
    {
      "op": "null", 
      "name": "conv5_2_conv_weight", 
      "attr": {
        "kernel": "(1, 1)", 
        "num_filter": "384", 
        "pad": "(0, 0)", 
        "stride": "(1, 1)"
      }, 
      "inputs": []
    }, 
    {
      "op": "null", 
      "name": "conv5_2_conv_bias", 
      "attr": {
        "kernel": "(1, 1)", 
        "num_filter": "384", 
        "pad": "(0, 0)", 
        "stride": "(1, 1)"
      }, 
      "inputs": []
    }, 
    {
      "op": "Convolution", 
      "name": "conv5_2_conv", 
      "attr": {
        "kernel": "(1, 1)", 
        "num_filter": "384", 
        "pad": "(0, 0)", 
        "stride": "(1, 1)"
      }, 
      "inputs": [[866, 0, 0], [867, 0, 0], [868, 0, 0]]
    }, 
    {
      "op": "elemwise_add", 
      "name": "_plus12", 
      "inputs": [[869, 0, 0], [783, 0, 0]]
    }, 
    {
      "op": "null", 
      "name": "conv5_3bsr_batchnorm_gamma", 
      "inputs": []
    }, 
    {
      "op": "null", 
      "name": "conv5_3bsr_batchnorm_beta", 
      "inputs": []
    }, 
    {
      "op": "null", 
      "name": "conv5_3bsr_batchnorm_moving_mean", 
      "attr": {"__init__": "[\"zero\", {}]"}, 
      "inputs": []
    }, 
    {
      "op": "null", 
      "name": "conv5_3bsr_batchnorm_moving_var", 
      "attr": {"__init__": "[\"one\", {}]"}, 
      "inputs": []
    }, 
    {
      "op": "BatchNorm", 
      "name": "conv5_3bsr_batchnorm", 
      "inputs": [[870, 0, 0], [871, 0, 0], [872, 0, 0], [873, 0, 1], [874, 0, 1]]
    }, 
    {
      "op": "null", 
      "name": "conv5_3bsr_alpha", 
      "attr": {
        "__dtype__": "0", 
        "__init__": "[\"one\", {}]", 
        "__shape__": "1"
      }, 
      "inputs": []
    }, 
    {
      "op": "broadcast_mul", 
      "name": "broadcast_mul65", 
      "inputs": [[875, 0, 0], [876, 0, 0]]
    }, 
    {
      "op": "null", 
      "name": "conv5_3bsr_beta", 
      "attr": {
        "__dtype__": "0", 
        "__init__": "[\"zero\", {}]", 
        "__shape__": "1"
      }, 
      "inputs": []
    }, 
    {
      "op": "broadcast_add", 
      "name": "broadcast_add65", 
      "inputs": [[877, 0, 0], [878, 0, 0]]
    }, 
    {
      "op": "Activation", 
      "name": "conv5_3bsr_relu", 
      "attr": {"act_type": "relu"}, 
      "inputs": [[879, 0, 0]]
    }, 
    {
      "op": "null", 
      "name": "conv5_3a_conv2d_weight", 
      "attr": {
        "kernel": "(1, 1)", 
        "no_bias": "True", 
        "num_filter": "64", 
        "pad": "(0, 0)", 
        "stride": "(1, 1)"
      }, 
      "inputs": []
    }, 
    {
      "op": "Convolution", 
      "name": "conv5_3a_conv2d", 
      "attr": {
        "kernel": "(1, 1)", 
        "no_bias": "True", 
        "num_filter": "64", 
        "pad": "(0, 0)", 
        "stride": "(1, 1)"
      }, 
      "inputs": [[880, 0, 0], [881, 0, 0]]
    }, 
    {
      "op": "null", 
      "name": "conv5_3a_batchnorm_gamma", 
      "inputs": []
    }, 
    {
      "op": "null", 
      "name": "conv5_3a_batchnorm_beta", 
      "inputs": []
    }, 
    {
      "op": "null", 
      "name": "conv5_3a_batchnorm_moving_mean", 
      "attr": {"__init__": "[\"zero\", {}]"}, 
      "inputs": []
    }, 
    {
      "op": "null", 
      "name": "conv5_3a_batchnorm_moving_var", 
…
      "attr": {"act_type": "relu"}, 
      "inputs": [[915, 0, 0]]
    }, 
    {
      "op": "null", 
      "name": "conv5_3c1_conv2d_weight", 
      "attr": {
        "kernel": "(1, 1)", 
        "no_bias": "True", 
        "num_filter": "32", 
        "pad": "(0, 0)", 
        "stride": "(1, 1)"
      }, 
      "inputs": []
    }, 
    {
      "op": "Convolution", 
      "name": "conv5_3c1_conv2d", 
      "attr": {
        "kernel": "(1, 1)", 
        "no_bias": "True", 
        "num_filter": "32", 
        "pad": "(0, 0)", 
        "stride": "(1, 1)"
      }, 
      "inputs": [[880, 0, 0], [917, 0, 0]]
    }, 
    {
      "op": "null", 
      "name": "conv5_3c1_batchnorm_gamma", 
      "inputs": []
    }, 
    {
      "op": "null", 
      "name": "conv5_3c1_batchnorm_beta", 
      "inputs": []
    }, 
    {
      "op": "null", 
      "name": "conv5_3c1_batchnorm_moving_mean", 
      "attr": {"__init__": "[\"zero\", {}]"}, 
      "inputs": []
    }, 
    {
      "op": "null", 
      "name": "conv5_3c1_batchnorm_moving_var", 
      "attr": {"__init__": "[\"one\", {}]"}, 
      "inputs": []
    }, 
    {
      "op": "BatchNorm", 
      "name": "conv5_3c1_batchnorm", 
      "inputs": [[918, 0, 0], [919, 0, 0], [920, 0, 0], [921, 0, 1], [922, 0, 1]]
    }, 
    {
      "op": "null", 
      "name": "conv5_3c1_scale_and_shift_alpha", 
      "attr": {
        "__dtype__": "0", 
        "__init__": "[\"one\", {}]", 
        "__shape__": "1"
      }, 
      "inputs": []
    }, 
    {
      "op": "broadcast_mul", 
      "name": "broadcast_mul69", 
      "inputs": [[923, 0, 0], [924, 0, 0]]
    }, 
    {
      "op": "null", 
      "name": "conv5_3c1_scale_and_shift_beta", 
      "attr": {
        "__dtype__": "0", 
        "__init__": "[\"zero\", {}]", 
        "__shape__": "1"
      }, 
      "inputs": []
    }, 
    {
      "op": "broadcast_add", 
      "name": "broadcast_add69", 
      "inputs": [[925, 0, 0], [926, 0, 0]]
    }, 
    {
      "op": "Activation", 
      "name": "conv5_3c1_relu", 
      "attr": {"act_type": "relu"}, 
      "inputs": [[927, 0, 0]]
    }, 
    {
      "op": "null", 
      "name": "conv5_3c2_conv2d_weight", 
      "attr": {
        "kernel": "(3, 3)", 
        "no_bias": "True", 
        "num_filter": "64", 
        "pad": "(1, 1)", 
        "stride": "(1, 1)"
      }, 
      "inputs": []
    }, 
    {
      "op": "Convolution", 
      "name": "conv5_3c2_conv2d", 
      "attr": {
        "kernel": "(3, 3)", 
        "no_bias": "True", 
        "num_filter": "64", 
        "pad": "(1, 1)", 
        "stride": "(1, 1)"
      }, 
      "inputs": [[928, 0, 0], [929, 0, 0]]
    }, 
    {
      "op": "null", 
      "name": "conv5_3c2_batchnorm_gamma", 
      "inputs": []
    }, 
    {
      "op": "null", 
      "name": "conv5_3c2_batchnorm_beta", 
      "inputs": []
    }, 
    {
      "op": "null", 
      "name": "conv5_3c2_batchnorm_moving_mean", 
      "attr": {"__init__": "[\"zero\", {}]"}, 
      "inputs": []
    }, 
    {
      "op": "null", 
      "name": "conv5_3c2_batchnorm_moving_var", 
      "attr": {"__init__": "[\"one\", {}]"}, 
      "inputs": []
    }, 
    {
      "op": "BatchNorm", 
      "name": "conv5_3c2_batchnorm", 
      "inputs": [[930, 0, 0], [931, 0, 0], [932, 0, 0], [933, 0, 1], [934, 0, 1]]
    }, 
    {
      "op": "null", 
      "name": "conv5_3c2_scale_and_shift_alpha", 
      "attr": {
        "__dtype__": "0", 
        "__init__": "[\"one\", {}]", 
        "__shape__": "1"
      }, 
      "inputs": []
    }, 
    {
      "op": "broadcast_mul", 
      "name": "broadcast_mul70", 
      "inputs": [[935, 0, 0], [936, 0, 0]]
    }, 
    {
      "op": "null", 
      "name": "conv5_3c2_scale_and_shift_beta", 
      "attr": {
        "__dtype__": "0", 
        "__init__": "[\"zero\", {}]", 
        "__shape__": "1"
      }, 
      "inputs": []
    }, 
    {
      "op": "broadcast_add", 
      "name": "broadcast_add70", 
      "inputs": [[937, 0, 0], [938, 0, 0]]
    }, 
    {
      "op": "Activation", 
      "name": "conv5_3c2_relu", 
      "attr": {"act_type": "relu"}, 
      "inputs": [[939, 0, 0]]
    }, 
    {
      "op": "null", 
      "name": "conv5_3c3_conv2d_weight", 
      "attr": {
        "kernel": "(3, 3)", 
        "no_bias": "True", 
        "num_filter": "64", 
        "pad": "(1, 1)", 
        "stride": "(1, 1)"
      }, 
      "inputs": []
    }, 
    {
      "op": "Convolution", 
      "name": "conv5_3c3_conv2d", 
      "attr": {
        "kernel": "(3, 3)", 
        "no_bias": "True", 
        "num_filter": "64", 
        "pad": "(1, 1)", 
        "stride": "(1, 1)"
      }, 
      "inputs": [[940, 0, 0], [941, 0, 0]]
    }, 
    {
      "op": "null", 
      "name": "conv5_3c3_batchnorm_gamma", 
      "inputs": []
    }, 
    {
      "op": "null", 
      "name": "conv5_3c3_batchnorm_beta", 
      "inputs": []
    }, 
    {
      "op": "null", 
      "name": "conv5_3c3_batchnorm_moving_mean", 
      "attr": {"__init__": "[\"zero\", {}]"}, 
      "inputs": []
    }, 
    {
      "op": "null", 
      "name": "conv5_3c3_batchnorm_moving_var", 
      "attr": {"__init__": "[\"one\", {}]"}, 
      "inputs": []
    }, 
    {
      "op": "BatchNorm", 
      "name": "conv5_3c3_batchnorm", 
      "inputs": [[942, 0, 0], [943, 0, 0], [944, 0, 0], [945, 0, 1], [946, 0, 1]]
    }, 
    {
      "op": "null", 
      "name": "conv5_3c3_scale_and_shift_alpha", 
      "attr": {
        "__dtype__": "0", 
        "__init__": "[\"one\", {}]", 
        "__shape__": "1"
      }, 
      "inputs": []
    }, 
    {
      "op": "broadcast_mul", 
      "name": "broadcast_mul71", 
      "inputs": [[947, 0, 0], [948, 0, 0]]
    }, 
    {
      "op": "null", 
      "name": "conv5_3c3_scale_and_shift_beta", 
      "attr": {
        "__dtype__": "0", 
        "__init__": "[\"zero\", {}]", 
        "__shape__": "1"
      }, 
      "inputs": []
    }, 
    {
      "op": "broadcast_add", 
      "name": "broadcast_add71", 
      "inputs": [[949, 0, 0], [950, 0, 0]]
    }, 
    {
      "op": "Activation", 
      "name": "conv5_3c3_relu", 
      "attr": {"act_type": "relu"}, 
      "inputs": [[951, 0, 0]]
    }, 
    {
      "op": "Concat", 
      "name": "concat14", 
      "attr": {"num_args": "3"}, 
      "inputs": [[892, 0, 0], [916, 0, 0], [952, 0, 0]]
    }, 
    {
      "op": "null", 
      "name": "conv5_3_conv_weight", 
      "attr": {
        "kernel": "(1, 1)", 
        "num_filter": "384", 
        "pad": "(0, 0)", 
        "stride": "(1, 1)"
      }, 
      "inputs": []
    }, 
    {
      "op": "null", 
      "name": "conv5_3_conv_bias", 
      "attr": {
        "kernel": "(1, 1)", 
        "num_filter": "384", 
        "pad": "(0, 0)", 
        "stride": "(1, 1)"
      }, 
      "inputs": []
    }, 
    {
      "op": "Convolution", 
      "name": "conv5_3_conv", 
      "attr": {
        "kernel": "(1, 1)", 
        "num_filter": "384", 
        "pad": "(0, 0)", 
        "stride": "(1, 1)"
      }, 
      "inputs": [[953, 0, 0], [954, 0, 0], [955, 0, 0]]
    }, 
    {
      "op": "elemwise_add", 
      "name": "_plus13", 
      "inputs": [[956, 0, 0], [870, 0, 0]]
    }, 
    {
      "op": "null", 
      "name": "conv5_4bsr_batchnorm_gamma", 
      "inputs": []
    }, 
    {
      "op": "null", 
      "name": "conv5_4bsr_batchnorm_beta", 
      "inputs": []
    }, 
    {
      "op": "null", 
      "name": "conv5_4bsr_batchnorm_moving_mean", 
      "attr": {"__init__": "[\"zero\", {}]"}, 
      "inputs": []
    }, 
    {
      "op": "null", 
      "name": "conv5_4bsr_batchnorm_moving_var", 
      "attr": {"__init__": "[\"one\", {}]"}, 
      "inputs": []
    }, 
    {
      "op": "BatchNorm", 
      "name": "conv5_4bsr_batchnorm", 
      "inputs": [[957, 0, 0], [958, 0, 0], [959, 0, 0], [960, 0, 1], [961, 0, 1]]
    }, 
    {
      "op": "null", 
      "name": "conv5_4bsr_alpha", 
      "attr": {
        "__dtype__": "0", 
        "__init__": "[\"one\", {}]", 
        "__shape__": "1"
      }, 
      "inputs": []
    }, 
    {
      "op": "broadcast_mul", 
      "name": "broadcast_mul72", 
      "inputs": [[962, 0, 0], [963, 0, 0]]
    }, 
    {
      "op": "null", 
      "name": "conv5_4bsr_beta", 
      "attr": {
        "__dtype__": "0", 
        "__init__": "[\"zero\", {}]", 
        "__shape__": "1"
      }, 
      "inputs": []
    }, 
    {
      "op": "broadcast_add", 
      "name": "broadcast_add72", 
      "inputs": [[964, 0, 0], [965, 0, 0]]
    }, 
    {
      "op": "Activation", 
      "name": "conv5_4bsr_relu", 
      "attr": {"act_type": "relu"}, 
      "inputs": [[966, 0, 0]]
    }, 
    {
      "op": "null", 
      "name": "conv5_4a_conv2d_weight", 
      "attr": {
        "kernel": "(1, 1)", 
        "no_bias": "True", 
        "num_filter": "64", 
        "pad": "(0, 0)", 
        "stride": "(1, 1)"
      }, 
      "inputs": []
    }, 
    {
      "op": "Convolution", 
      "name": "conv5_4a_conv2d", 
      "attr": {
        "kernel": "(1, 1)", 
        "no_bias": "True", 
        "num_filter": "64", 
        "pad": "(0, 0)", 
        "stride": "(1, 1)"
      }, 
      "inputs": [[967, 0, 0], [968, 0, 0]]
    }, 
    {
      "op": "null", 
      "name": "conv5_4a_batchnorm_gamma", 
      "inputs": []
    }, 
    {
      "op": "null", 
      "name": "conv5_4a_batchnorm_beta", 
      "inputs": []
    }, 
    {
      "op": "null", 
      "name": "conv5_4a_batchnorm_moving_mean", 
      "attr": {"__init__": "[\"zero\", {}]"}, 
      "inputs": []
    }, 
    {
      "op": "null", 
      "name": "conv5_4a_batchnorm_moving_var", 
      "attr": {"__init__": "[\"one\", {}]"}, 
      "inputs": []
    }, 
    {
      "op": "BatchNorm", 
      "name": "conv5_4a_batchnorm", 
      "inputs": [[969, 0, 0], [970, 0, 0], [971, 0, 0], [972, 0, 1], [973, 0, 1]]
    }, 
    {
      "op": "null", 
      "name": "conv5_4a_scale_and_shift_alpha", 
      "attr": {
        "__dtype__": "0", 
        "__init__": "[\"one\", {}]", 
        "__shape__": "1"
      }, 
      "inputs": []
    }, 
    {
      "op": "broadcast_mul", 
      "name": "broadcast_mul73", 
      "inputs": [[974, 0, 0], [975, 0, 0]]
    }, 
    {
      "op": "null", 
      "name": "conv5_4a_scale_and_shift_beta", 
      "attr": {
        "__dtype__": "0", 
        "__init__": "[\"zero\", {}]", 
        "__shape__": "1"
      }, 
      "inputs": []
    }, 
    {
      "op": "broadcast_add", 
      "name": "broadcast_add73", 
      "inputs": [[976, 0, 0], [977, 0, 0]]
    }, 
    {
      "op": "Activation", 
      "name": "conv5_4a_relu", 
      "attr": {"act_type": "relu"}, 
      "inputs": [[978, 0, 0]]
    }, 
    {
      "op": "null", 
      "name": "conv5_4b1_conv2d_weight", 
      "attr": {
        "kernel": "(1, 1)", 
        "no_bias": "True", 
        "num_filter": "96", 
        "pad": "(0, 0)", 
        "stride": "(1, 1)"
      }, 
      "inputs": []
    }, 
    {
      "op": "Convolution", 
      "name": "conv5_4b1_conv2d", 
      "attr": {
        "kernel": "(1, 1)", 
        "no_bias": "True", 
        "num_filter": "96", 
        "pad": "(0, 0)", 
        "stride": "(1, 1)"
      }, 
      "inputs": [[967, 0, 0], [980, 0, 0]]
    }, 
    {
      "op": "null", 
      "name": "conv5_4b1_batchnorm_gamma", 
      "inputs": []
    }, 
    {
      "op": "null", 
      "name": "conv5_4b1_batchnorm_beta", 
      "inputs": []
    }, 
    {
      "op": "null", 
      "name": "conv5_4b1_batchnorm_moving_mean", 
      "attr": {"__init__": "[\"zero\", {}]"}, 
      "inputs": []
    }, 
    {
      "op": "null", 
      "name": "conv5_4b1_batchnorm_moving_var", 
      "attr": {"__init__": "[\"one\", {}]"}, 
      "inputs": []
    }, 
    {
      "op": "BatchNorm", 
      "name": "conv5_4b1_batchnorm", 
      "inputs": [[981, 0, 0], [982, 0, 0], [983, 0, 0], [984, 0, 1], [985, 0, 1]]
    }, 
    {
      "op": "null", 
      "name": "conv5_4b1_scale_and_shift_alpha", 
      "attr": {
        "__dtype__": "0", 
        "__init__": "[\"one\", {}]", 
        "__shape__": "1"
      }, 
      "inputs": []
    }, 
    {
      "op": "broadcast_mul", 
      "name": "broadcast_mul74", 
      "inputs": [[986, 0, 0], [987, 0, 0]]
    }, 
    {
      "op": "null", 
      "name": "conv5_4b1_scale_and_shift_beta", 
      "attr": {
        "__dtype__": "0", 
        "__init__": "[\"zero\", {}]", 
        "__shape__": "1"
      }, 
      "inputs": []
    }, 
    {
      "op": "broadcast_add", 
      "name": "broadcast_add74", 
      "inputs": [[988, 0, 0], [989, 0, 0]]
    }, 
    {
      "op": "Activation", 
      "name": "conv5_4b1_relu", 
      "attr": {"act_type": "relu"}, 
      "inputs": [[990, 0, 0]]
    }, 
    {
      "op": "null", 
      "name": "conv5_4b2_conv2d_weight", 
      "attr": {
        "kernel": "(3, 3)", 
        "no_bias": "True", 
        "num_filter": "192", 
        "pad": "(1, 1)", 
        "stride": "(1, 1)"
      }, 
      "inputs": []
    }, 
    {
      "op": "Convolution", 
      "name": "conv5_4b2_conv2d", 
      "attr": {
        "kernel": "(3, 3)", 
        "no_bias": "True", 
        "num_filter": "192", 
        "pad": "(1, 1)", 
        "stride": "(1, 1)"
      }, 
      "inputs": [[991, 0, 0], [992, 0, 0]]
    }, 
    {
      "op": "null", 
      "name": "conv5_4b2_batchnorm_gamma", 
      "inputs": []
    }, 
    {
      "op": "null", 
      "name": "conv5_4b2_batchnorm_beta", 
      "inputs": []
    }, 
    {
      "op": "null", 
      "name": "conv5_4b2_batchnorm_moving_mean", 
      "attr": {"__init__": "[\"zero\", {}]"}, 
      "inputs": []
    }, 
    {
      "op": "null", 
      "name": "conv5_4b2_batchnorm_moving_var", 
      "attr": {"__init__": "[\"one\", {}]"}, 
      "inputs": []
    }, 
    {
      "op": "BatchNorm", 
      "name": "conv5_4b2_batchnorm", 
      "inputs": [[993, 0, 0], [994, 0, 0], [995, 0, 0], [996, 0, 1], [997, 0, 1]]
    }, 
    {
      "op": "null", 
      "name": "conv5_4b2_scale_and_shift_alpha", 
      "attr": {
        "__dtype__": "0", 
        "__init__": "[\"one\", {}]", 
        "__shape__": "1"
      }, 
      "inputs": []
    }, 
    {
      "op": "broadcast_mul", 
      "name": "broadcast_mul75", 
      "inputs": [[998, 0, 0], [999, 0, 0]]
    }, 
    {
      "op": "null", 
      "name": "conv5_4b2_scale_and_shift_beta", 
      "attr": {
        "__dtype__": "0", 
        "__init__": "[\"zero\", {}]", 
        "__shape__": "1"
      }, 
      "inputs": []
    }, 
    {
      "op": "broadcast_add", 
      "name": "broadcast_add75", 
      "inputs": [[1000, 0, 0], [1001, 0, 0]]
    }, 
    {
      "op": "Activation", 
      "name": "conv5_4b2_relu", 
      "attr": {"act_type": "relu"}, 
      "inputs": [[1002, 0, 0]]
    }, 
    {
      "op": "null", 
      "name": "conv5_4c1_conv2d_weight", 
      "attr": {
        "kernel": "(1, 1)", 
        "no_bias": "True", 
        "num_filter": "32", 
        "pad": "(0, 0)", 
        "stride": "(1, 1)"
      }, 
      "inputs": []
    }, 
    {
      "op": "Convolution", 
      "name": "conv5_4c1_conv2d", 
      "attr": {
        "kernel": "(1, 1)", 
        "no_bias": "True", 
        "num_filter": "32", 
        "pad": "(0, 0)", 
        "stride": "(1, 1)"
      }, 
      "inputs": [[967, 0, 0], [1004, 0, 0]]
    }, 
    {
      "op": "null", 
      "name": "conv5_4c1_batchnorm_gamma", 
      "inputs": []
    }, 
    {
      "op": "null", 
      "name": "conv5_4c1_batchnorm_beta", 
      "inputs": []
    }, 
    {
      "op": "null", 
      "name": "conv5_4c1_batchnorm_moving_mean", 
      "attr": {"__init__": "[\"zero\", {}]"}, 
      "inputs": []
    }, 
    {
      "op": "null", 
      "name": "conv5_4c1_batchnorm_moving_var", 
      "attr": {"__init__": "[\"one\", {}]"}, 
      "inputs": []
    }, 
    {
      "op": "BatchNorm", 
      "name": "conv5_4c1_batchnorm", 
      "inputs": [[1005, 0, 0], [1006, 0, 0], [1007, 0, 0], [1008, 0, 1], [1009, 0, 1]]
    }, 
    {
      "op": "null", 
      "name": "conv5_4c1_scale_and_shift_alpha", 
      "attr": {
        "__dtype__": "0", 
        "__init__": "[\"one\", {}]", 
        "__shape__": "1"
      }, 
      "inputs": []
    }, 
    {
      "op": "broadcast_mul", 
      "name": "broadcast_mul76", 
      "inputs": [[1010, 0, 0], [1011, 0, 0]]
    }, 
    {
      "op": "null", 
      "name": "conv5_4c1_scale_and_shift_beta", 
      "attr": {
        "__dtype__": "0", 
        "__init__": "[\"zero\", {}]", 
        "__shape__": "1"
      }, 
      "inputs": []
    }, 
    {
      "op": "broadcast_add", 
      "name": "broadcast_add76", 
      "inputs": [[1012, 0, 0], [1013, 0, 0]]
    }, 
    {
      "op": "Activation", 
      "name": "conv5_4c1_relu", 
      "attr": {"act_type": "relu"}, 
      "inputs": [[1014, 0, 0]]
    }, 
    {
      "op": "null", 
      "name": "conv5_4c2_conv2d_weight", 
      "attr": {
        "kernel": "(3, 3)", 
        "no_bias": "True", 
        "num_filter": "64", 
        "pad": "(1, 1)", 
        "stride": "(1, 1)"
      }, 
      "inputs": []
    }, 
    {
      "op": "Convolution", 
      "name": "conv5_4c2_conv2d", 
      "attr": {
        "kernel": "(3, 3)", 
        "no_bias": "True", 
        "num_filter": "64", 
        "pad": "(1, 1)", 
        "stride": "(1, 1)"
      }, 
      "inputs": [[1015, 0, 0], [1016, 0, 0]]
    }, 
    {
      "op": "null", 
      "name": "conv5_4c2_batchnorm_gamma", 
      "inputs": []
    }, 
    {
      "op": "null", 
      "name": "conv5_4c2_batchnorm_beta", 
      "inputs": []
    }, 
    {
      "op": "null", 
      "name": "conv5_4c2_batchnorm_moving_mean", 
      "attr": {"__init__": "[\"zero\", {}]"}, 
      "inputs": []
    }, 
    {
      "op": "null", 
      "name": "conv5_4c2_batchnorm_moving_var", 
      "attr": {"__init__": "[\"one\", {}]"}, 
      "inputs": []
    }, 
    {
      "op": "BatchNorm", 
      "name": "conv5_4c2_batchnorm", 
      "inputs": [[1017, 0, 0], [1018, 0, 0], [1019, 0, 0], [1020, 0, 1], [1021, 0, 1]]
    }, 
    {
      "op": "null", 
      "name": "conv5_4c2_scale_and_shift_alpha", 
      "attr": {
        "__dtype__": "0", 
        "__init__": "[\"one\", {}]", 
        "__shape__": "1"
      }, 
      "inputs": []
    }, 
    {
      "op": "broadcast_mul", 
      "name": "broadcast_mul77", 
      "inputs": [[1022, 0, 0], [1023, 0, 0]]
    }, 
    {
      "op": "null", 
      "name": "conv5_4c2_scale_and_shift_beta", 
      "attr": {
        "__dtype__": "0", 
        "__init__": "[\"zero\", {}]", 
        "__shape__": "1"
      }, 
      "inputs": []
    }, 
    {
      "op": "broadcast_add", 
      "name": "broadcast_add77", 
      "inputs": [[1024, 0, 0], [1025, 0, 0]]
    }, 
    {
      "op": "Activation", 
      "name": "conv5_4c2_relu", 
      "attr": {"act_type": "relu"}, 
      "inputs": [[1026, 0, 0]]
    }, 
    {
      "op": "null", 
      "name": "conv5_4c3_conv2d_weight", 
      "attr": {
        "kernel": "(3, 3)", 
        "no_bias": "True", 
        "num_filter": "64", 
        "pad": "(1, 1)", 
        "stride": "(1, 1)"
      }, 
      "inputs": []
    }, 
    {
      "op": "Convolution", 
      "name": "conv5_4c3_conv2d", 
      "attr": {
        "kernel": "(3, 3)", 
        "no_bias": "True", 
        "num_filter": "64", 
        "pad": "(1, 1)", 
        "stride": "(1, 1)"
      }, 
      "inputs": [[1027, 0, 0], [1028, 0, 0]]
    }, 
    {
      "op": "null", 
      "name": "conv5_4c3_batchnorm_gamma", 
      "inputs": []
    }, 
    {
      "op": "null", 
      "name": "conv5_4c3_batchnorm_beta", 
      "inputs": []
    }, 
    {
      "op": "null", 
      "name": "conv5_4c3_batchnorm_moving_mean", 
      "attr": {"__init__": "[\"zero\", {}]"}, 
      "inputs": []
    }, 
    {
      "op": "null", 
      "name": "conv5_4c3_batchnorm_moving_var", 
      "attr": {"__init__": "[\"one\", {}]"}, 
      "inputs": []
    }, 
    {
      "op": "BatchNorm", 
      "name": "conv5_4c3_batchnorm", 
      "inputs": [[1029, 0, 0], [1030, 0, 0], [1031, 0, 0], [1032, 0, 1], [1033, 0, 1]]
    }, 
    {
      "op": "null", 
      "name": "conv5_4c3_scale_and_shift_alpha", 
      "attr": {
        "__dtype__": "0", 
        "__init__": "[\"one\", {}]", 
        "__shape__": "1"
      }, 
      "inputs": []
    }, 
    {
      "op": "broadcast_mul", 
      "name": "broadcast_mul78", 
      "inputs": [[1034, 0, 0], [1035, 0, 0]]
    }, 
    {
      "op": "null", 
      "name": "conv5_4c3_scale_and_shift_beta", 
      "attr": {
        "__dtype__": "0", 
        "__init__": "[\"zero\", {}]", 
        "__shape__": "1"
      }, 
      "inputs": []
    }, 
    {
      "op": "broadcast_add", 
      "name": "broadcast_add78", 
      "inputs": [[1036, 0, 0], [1037, 0, 0]]
    }, 
    {
      "op": "Activation", 
      "name": "conv5_4c3_relu", 
      "attr": {"act_type": "relu"}, 
      "inputs": [[1038, 0, 0]]
    }, 
    {
      "op": "Concat", 
      "name": "concat15", 
      "attr": {"num_args": "3"}, 
      "inputs": [[979, 0, 0], [1003, 0, 0], [1039, 0, 0]]
    }, 
    {
      "op": "null", 
      "name": "conv5_4_conv_weight", 
      "attr": {
        "kernel": "(1, 1)", 
        "num_filter": "384", 
        "pad": "(0, 0)", 
        "stride": "(1, 1)"
      }, 
      "inputs": []
    }, 
    {
      "op": "null", 
      "name": "conv5_4_conv_bias", 
      "attr": {
        "kernel": "(1, 1)", 
        "num_filter": "384", 
        "pad": "(0, 0)", 
        "stride": "(1, 1)"
      }, 
      "inputs": []
    }, 
    {
      "op": "Convolution", 
      "name": "conv5_4_conv", 
      "attr": {
        "kernel": "(1, 1)", 
        "num_filter": "384", 
        "pad": "(0, 0)", 
        "stride": "(1, 1)"
      }, 
      "inputs": [[1040, 0, 0], [1041, 0, 0], [1042, 0, 0]]
    }, 
    {
      "op": "null", 
      "name": "conv5_4_batchnorm_gamma", 
      "inputs": []
    }, 
    {
      "op": "null", 
      "name": "conv5_4_batchnorm_beta", 
      "inputs": []
    }, 
    {
      "op": "null", 
      "name": "conv5_4_batchnorm_moving_mean", 
      "attr": {"__init__": "[\"zero\", {}]"}, 
      "inputs": []
    }, 
    {
      "op": "null", 
      "name": "conv5_4_batchnorm_moving_var", 
      "attr": {"__init__": "[\"one\", {}]"}, 
      "inputs": []
    }, 
    {
      "op": "BatchNorm", 
      "name": "conv5_4_batchnorm", 
      "inputs": [[1043, 0, 0], [1044, 0, 0], [1045, 0, 0], [1046, 0, 1], [1047, 0, 1]]
    }, 
    {
      "op": "null", 
      "name": "conv5_4last_alpha", 
      "attr": {
        "__dtype__": "0", 
        "__init__": "[\"one\", {}]", 
        "__shape__": "1"
      }, 
      "inputs": []
    }, 
    {
      "op": "broadcast_mul", 
      "name": "broadcast_mul79", 
      "inputs": [[1048, 0, 0], [1049, 0, 0]]
    }, 
    {
      "op": "null", 
      "name": "conv5_4last_beta", 
      "attr": {
        "__dtype__": "0", 
        "__init__": "[\"zero\", {}]", 
        "__shape__": "1"
      }, 
      "inputs": []
    }, 
    {
      "op": "broadcast_add", 
      "name": "broadcast_add79", 
      "inputs": [[1050, 0, 0], [1051, 0, 0]]
    }, 
    {
      "op": "elemwise_add", 
      "name": "_plus14", 
      "inputs": [[1052, 0, 0], [957, 0, 0]]
    }, 
    {
      "op": "null", 
      "name": "bsrlast_batchnorm_gamma", 
      "inputs": []
    }, 
    {
      "op": "null", 
      "name": "bsrlast_batchnorm_beta", 
      "inputs": []
    }, 
    {
      "op": "null", 
      "name": "bsrlast_batchnorm_moving_mean", 
      "attr": {"__init__": "[\"zero\", {}]"}, 
      "inputs": []
    }, 
    {
      "op": "null", 
      "name": "bsrlast_batchnorm_moving_var", 
      "attr": {"__init__": "[\"one\", {}]"}, 
      "inputs": []
    }, 
    {
      "op": "BatchNorm", 
      "name": "bsrlast_batchnorm", 
      "inputs": [[1053, 0, 0], [1054, 0, 0], [1055, 0, 0], [1056, 0, 1], [1057, 0, 1]]
    }, 
    {
      "op": "null", 
      "name": "bsrlast_alpha", 
      "attr": {
        "__dtype__": "0", 
        "__init__": "[\"one\", {}]", 
        "__shape__": "1"
      }, 
      "inputs": []
    }, 
    {
      "op": "broadcast_mul", 
      "name": "broadcast_mul80", 
      "inputs": [[1058, 0, 0], [1059, 0, 0]]
    }, 
    {
      "op": "null", 
      "name": "bsrlast_beta", 
      "attr": {
        "__dtype__": "0", 
        "__init__": "[\"zero\", {}]", 
        "__shape__": "1"
      }, 
      "inputs": []
    }, 
    {
      "op": "broadcast_add", 
      "name": "broadcast_add80", 
      "inputs": [[1060, 0, 0], [1061, 0, 0]]
    }, 
    {
      "op": "Activation", 
      "name": "bsrlast_relu", 
      "attr": {"act_type": "relu"}, 
      "inputs": [[1062, 0, 0]]
    }, 
    {
      "op": "null", 
      "name": "bsrlast_relu_cls_pred_conv_weight", 
      "attr": {
        "kernel": "(3, 3)", 
        "num_filter": "30", 
        "pad": "(1, 1)", 
        "stride": "(1, 1)"
      }, 
      "inputs": []
    }, 
    {
      "op": "null", 
      "name": "bsrlast_relu_cls_pred_conv_bias", 
      "attr": {
        "__init__": "[\"constant\", {\"value\": 0.0}]", 
        "__lr_mult__": "2.0"
      }, 
      "inputs": []
    }, 
    {
      "op": "Convolution", 
      "name": "bsrlast_relu_cls_pred_conv", 
      "attr": {
        "kernel": "(3, 3)", 
        "num_filter": "30", 
        "pad": "(1, 1)", 
        "stride": "(1, 1)"
      }, 
      "inputs": [[1063, 0, 0], [1064, 0, 0], [1065, 0, 0]]
    }, 
    {
      "op": "transpose", 
      "name": "transpose5", 
      "attr": {"axes": "(0, 2, 3, 1)"}, 
      "inputs": [[1066, 0, 0]]
    }, 
    {
      "op": "Flatten", 
      "name": "flatten7", 
      "inputs": [[1067, 0, 0]]
    }, 
    {
      "op": "Concat", 
      "name": "concat16", 
      "attr": {
        "dim": "1", 
        "num_args": "3"
      }, 
      "inputs": [[311, 0, 0], [680, 0, 0], [1068, 0, 0]]
    }, 
    {
      "op": "Reshape", 
      "name": "reshape0", 
      "attr": {"shape": "(0, -1, 5)"}, 
      "inputs": [[1069, 0, 0]]
    }, 
    {
      "op": "transpose", 
      "name": "multibox_cls_pred", 
      "attr": {"axes": "(0, 2, 1)"}, 
      "inputs": [[1070, 0, 0]]
    }, 
    {
      "op": "_contrib_MultiBoxPrior", 
      "name": "_plus6_anchors", 
      "attr": {
        "clip": "False", 
        "ratios": "(1,2,0.5,3,0.333333333333)", 
        "sizes": "(0.07,0.10247)", 
        "steps": "(-1.0, -1.0)"
      }, 
      "inputs": [[306, 0, 0]]
    }, 
    {
      "op": "Flatten", 
      "name": "flatten2", 
      "inputs": [[1072, 0, 0]]
    }, 
    {
      "op": "_contrib_MultiBoxPrior", 
      "name": "_plus10_anchors", 
      "attr": {
        "clip": "False", 
        "ratios": "(1,2,0.5,3,0.333333333333)", 
        "sizes": "(0.15,0.367423)", 
        "steps": "(-1.0, -1.0)"
      }, 
      "inputs": [[675, 0, 0]]
    }, 
    {
      "op": "Flatten", 
      "name": "flatten5", 
      "inputs": [[1074, 0, 0]]
    }, 
    {
      "op": "_contrib_MultiBoxPrior", 
      "name": "bsrlast_relu_anchors", 
      "attr": {
        "clip": "False", 
        "ratios": "(1,2,0.5,3,0.333333333333)", 
        "sizes": "(0.9,1.21861)", 
        "steps": "(-1.0, -1.0)"
      }, 
      "inputs": [[1063, 0, 0]]
    }, 
    {
      "op": "Flatten", 
      "name": "flatten8", 
      "inputs": [[1076, 0, 0]]
    }, 
    {
      "op": "Concat", 
      "name": "concat17", 
      "attr": {
        "dim": "1", 
        "num_args": "3"
      }, 
      "inputs": [[1073, 0, 0], [1075, 0, 0], [1077, 0, 0]]
    }, 
    {
      "op": "Reshape", 
      "name": "multibox_anchors", 
      "attr": {"shape": "(0, -1, 4)"}, 
      "inputs": [[1078, 0, 0]]
    }, 
    {
      "op": "null", 
      "name": "label", 
      "inputs": []
    }, 
    {
      "op": "_contrib_MultiBoxTarget", 
      "name": "multibox_target", 
      "attr": {
        "ignore_label": "-1", 
        "minimum_negative_samples": "0", 
        "negative_mining_ratio": "3", 
        "negative_mining_thresh": "0.5", 
        "overlap_threshold": "0.5", 
        "variances": "(0.1, 0.1, 0.2, 0.2)"
      }, 
      "inputs": [[1079, 0, 0], [1080, 0, 0], [1071, 0, 0]]
    }, 
    {
      "op": "SoftmaxOutput", 
      "name": "cls_prob", 
      "attr": {
        "grad_scale": "1.0", 
        "ignore_label": "-1", 
        "multi_output": "True", 
        "normalization": "valid", 
        "use_ignore": "True"
      }, 
      "inputs": [[1071, 0, 0], [1081, 2, 0]]
    }, 
    {
      "op": "null", 
      "name": "_plus6_loc_pred_conv_weight", 
      "attr": {
        "kernel": "(3, 3)", 
        "num_filter": "24", 
        "pad": "(1, 1)", 
        "stride": "(1, 1)"
      }, 
      "inputs": []
    }, 
    {
      "op": "null", 
      "name": "_plus6_loc_pred_conv_bias", 
      "attr": {
        "__init__": "[\"constant\", {\"value\": 0.0}]", 
        "__lr_mult__": "2.0"
      }, 
      "inputs": []
    }, 
    {
      "op": "Convolution", 
      "name": "_plus6_loc_pred_conv", 
      "attr": {
        "kernel": "(3, 3)", 
        "num_filter": "24", 
        "pad": "(1, 1)", 
        "stride": "(1, 1)"
      }, 
      "inputs": [[306, 0, 0], [1083, 0, 0], [1084, 0, 0]]
    }, 
    {
      "op": "transpose", 
      "name": "transpose0", 
      "attr": {"axes": "(0, 2, 3, 1)"}, 
      "inputs": [[1085, 0, 0]]
    }, 
    {
      "op": "Flatten", 
      "name": "flatten0", 
      "inputs": [[1086, 0, 0]]
    }, 
    {
      "op": "null", 
      "name": "_plus10_loc_pred_conv_weight", 
      "attr": {
        "kernel": "(3, 3)", 
        "num_filter": "24", 
        "pad": "(1, 1)", 
        "stride": "(1, 1)"
      }, 
      "inputs": []
    }, 
    {
      "op": "null", 
      "name": "_plus10_loc_pred_conv_bias", 
      "attr": {
        "__init__": "[\"constant\", {\"value\": 0.0}]", 
        "__lr_mult__": "2.0"
      }, 
      "inputs": []
    }, 
    {
      "op": "Convolution", 
      "name": "_plus10_loc_pred_conv", 
      "attr": {
        "kernel": "(3, 3)", 
        "num_filter": "24", 
        "pad": "(1, 1)", 
        "stride": "(1, 1)"
      }, 
      "inputs": [[675, 0, 0], [1088, 0, 0], [1089, 0, 0]]
    }, 
    {
      "op": "transpose", 
      "name": "transpose2", 
      "attr": {"axes": "(0, 2, 3, 1)"}, 
      "inputs": [[1090, 0, 0]]
    }, 
    {
      "op": "Flatten", 
      "name": "flatten3", 
      "inputs": [[1091, 0, 0]]
    }, 
    {
      "op": "null", 
      "name": "bsrlast_relu_loc_pred_conv_weight", 
      "attr": {
        "kernel": "(3, 3)", 
        "num_filter": "24", 
        "pad": "(1, 1)", 
        "stride": "(1, 1)"
      }, 
      "inputs": []
    }, 
    {
      "op": "null", 
      "name": "bsrlast_relu_loc_pred_conv_bias", 
      "attr": {
        "__init__": "[\"constant\", {\"value\": 0.0}]", 
        "__lr_mult__": "2.0"
      }, 
      "inputs": []
    }, 
    {
      "op": "Convolution", 
      "name": "bsrlast_relu_loc_pred_conv", 
      "attr": {
        "kernel": "(3, 3)", 
        "num_filter": "24", 
        "pad": "(1, 1)", 
        "stride": "(1, 1)"
      }, 
      "inputs": [[1063, 0, 0], [1093, 0, 0], [1094, 0, 0]]
    }, 
    {
      "op": "transpose", 
      "name": "transpose4", 
      "attr": {"axes": "(0, 2, 3, 1)"}, 
      "inputs": [[1095, 0, 0]]
    }, 
    {
      "op": "Flatten", 
      "name": "flatten6", 
      "inputs": [[1096, 0, 0]]
    }, 
    {
      "op": "Concat", 
      "name": "multibox_loc_pred", 
      "attr": {
        "dim": "1", 
        "num_args": "3"
      }, 
      "inputs": [[1087, 0, 0], [1092, 0, 0], [1097, 0, 0]]
    }, 
    {
      "op": "elemwise_sub", 
      "name": "_minus0", 
      "inputs": [[1098, 0, 0], [1081, 0, 0]]
    }, 
    {
      "op": "elemwise_mul", 
      "name": "_mul0", 
      "inputs": [[1081, 1, 0], [1099, 0, 0]]
    }, 
    {
      "op": "smooth_l1", 
      "name": "loc_loss_", 
      "attr": {"scalar": "1.0"}, 
      "inputs": [[1100, 0, 0]]
    }, 
    {
      "op": "MakeLoss", 
      "name": "loc_loss", 
      "attr": {
        "grad_scale": "1.0", 
        "normalization": "valid"
      }, 
      "inputs": [[1101, 0, 0]]
    }, 
    {
      "op": "MakeLoss", 
      "name": "cls_label", 
      "attr": {"grad_scale": "0"}, 
      "inputs": [[1081, 2, 0]]
    }, 
    {
      "op": "_contrib_MultiBoxDetection", 
      "name": "detection", 
      "attr": {
        "force_suppress": "False", 
        "nms_threshold": "0.45", 
        "nms_topk": "400", 
        "variances": "(0.1, 0.1, 0.2, 0.2)"
      }, 
      "inputs": [[1082, 0, 0], [1098, 0, 0], [1079, 0, 0]]
    }, 
    {
      "op": "MakeLoss", 
      "name": "det_out", 
      "attr": {"grad_scale": "0"}, 
      "inputs": [[1104, 0, 0]]
    }
  ], 
  "arg_nodes": [
    0, 
    1, 
    2, 
    4, 
    5, 
    6, 
    7, 
    11, 
    13, 
    17, 
    18, 
    20, 
    21, 
    22, 
    23, 
    25, 
    27, 
    30, 
    31, 
    33, 
    34, 
    35, 
    36, 
    40, 
    42, 
    45, 
    46, 
    48, 
    49, 
    52, 
    53, 
    54, 
    55, 
    57, 
    59, 
    62, 
    63, 
    65, 
    66, 
    67, 
    68, 
    70, 
    72, 
    75, 
    76, 
    78, 
    79, 
    80, 
    81, 
    85, 
    87, 
    90, 
    91, 
    94, 
    95, 
    96, 
    97, 
    99, 
    101, 
    104, 
    105, 
    107, 
    108, 
    109, 
    110, 
    112, 
    114, 
    117, 
    118, 
    120, 
    121, 
    122, 
    123, 
    127, 
    129, 
    132, 
    133, 
    136, 
    137, 
    138, 
    139, 
    141, 
    143, 
    146, 
    147, 
    149, 
    150, 
    151, 
    152, 
    154, 
    156, 
    159, 
    160, 
    162, 
    163, 
    164, 
    165, 
    169, 
    171, 
    174, 
    175, 
    177, 
    178, 
    181, 
    182, 
    183, 
    184, 
    186, 
    188, 
    191, 
    192, 
    194, 
    195, 
    196, 
    197, 
    199, 
    201, 
    204, 
    205, 
    207, 
    208, 
    209, 
    210, 
    214, 
    216, 
    219, 
    220, 
    223, 
    224, 
    225, 
    226, 
    228, 
    230, 
    233, 
    234, 
    236, 
    237, 
    238, 
    239, 
    241, 
    243, 
    246, 
    247, 
    249, 
    250, 
    251, 
    252, 
    256, 
    258, 
    261, 
    262, 
    265, 
    266, 
    267, 
    268, 
    270, 
    272, 
    275, 
    276, 
    278, 
    279, 
    280, 
    281, 
    283, 
    285, 
    288, 
    289, 
    291, 
    292, 
    293, 
    294, 
    298, 
    300, 
    303, 
    304, 
    307, 
    308, 
    312, 
    313, 
    314, 
    315, 
    317, 
    319, 
    322, 
    324, 
    325, 
    326, 
    327, 
    329, 
    331, 
    334, 
    336, 
    337, 
    338, 
    339, 
    341, 
    343, 
    346, 
    348, 
    349, 
    350, 
    351, 
    353, 
    355, 
    358, 
    360, 
    361, 
    362, 
    363, 
    365, 
    367, 
    370, 
    372, 
    373, 
    374, 
    375, 
    377, 
    379, 
    382, 
    384, 
    385, 
    386, 
    387, 
    389, 
    391, 
    395, 
    397, 
    398, 
    399, 
    400, 
    402, 
    404, 
    408, 
    409, 
    411, 
    412, 
    415, 
    416, 
    417, 
    418, 
    420, 
    422, 
    425, 
    427, 
    428, 
    429, 
    430, 
    432, 
    434, 
    437, 
    439, 
    440, 
    441, 
    442, 
    444, 
    446, 
    449, 
    451, 
    452, 
    453, 
    454, 
    456, 
    458, 
    461, 
    463, 
    464, 
    465, 
    466, 
    468, 
    470, 
    473, 
    475, 
    476, 
    477, 
    478, 
    480, 
    482, 
    485, 
    487, 
    488, 
    489, 
    490, 
    492, 
    494, 
    498, 
    499, 
    502, 
    503, 
    504, 
    505, 
    507, 
    509, 
    512, 
    514, 
    515, 
    516, 
    517, 
    519, 
    521, 
    524, 
    526, 
    527, 
    528, 
    529, 
    531, 
    533, 
    536, 
    538, 
    539, 
    540, 
    541, 
    543, 
    545, 
    548, 
    550, 
    551, 
    552, 
    553, 
    555, 
    557, 
    560, 
    562, 
    563, 
    564, 
    565, 
    567, 
    569, 
    572, 
    574, 
    575, 
    576, 
    577, 
    579, 
    581, 
    585, 
    586, 
    589, 
    590, 
    591, 
    592, 
    594, 
    596, 
    599, 
    601, 
    602, 
    603, 
    604, 
    606, 
    608, 
    611, 
    613, 
    614, 
    615, 
    616, 
    618, 
    620, 
    623, 
    625, 
    626, 
    627, 
    628, 
    630, 
    632, 
    635, 
    637, 
    638, 
    639, 
    640, 
    642, 
    644, 
    647, 
    649, 
    650, 
    651, 
    652, 
    654, 
    656, 
    659, 
    661, 
    662, 
    663, 
    664, 
    666, 
    668, 
    672, 
    673, 
    676, 
    677, 
    681, 
    682, 
    683, 
    684, 
    686, 
    688, 
    691, 
    693, 
    694, 
    695, 
    696, 
    698, 
    700, 
    703, 
    705, 
    706, 
    707, 
    708, 
    710, 
    712, 
    715, 
    717, 
    718, 
    719, 
    720, 
    722, 
    724, 
    727, 
    729, 
    730, 
    731, 
    732, 
    734, 
    736, 
    739, 
    741, 
    742, 
    743, 
    744, 
    746, 
    748, 
    751, 
    753, 
    754, 
    755, 
    756, 
    758, 
    760, 
    764, 
    766, 
    767, 
    768, 
    769, 
    771, 
    773, 
    777, 
    778, 
    780, 
    781, 
    784, 
    785, 
    786, 
    787, 
    789, 
    791, 
    794, 
    796, 
    797, 
    798, 
    799, 
    801, 
    803, 
    806, 
    808, 
    809, 
    810, 
    811, 
    813, 
    815, 
    818, 
    820, 
    821, 
    822, 
    823, 
    825, 
    827, 
    830, 
    832, 
    833, 
    834, 
    835, 
    837, 
    839, 
    842, 
    844, 
    845, 
    846, 
    847, 
    849, 
    851, 
    854, 
    856, 
    857, 
    858, 
    859, 
    861, 
    863, 
    867, 
    868, 
    871, 
    872, 
    873, 
    874, 
    876, 
    878, 
    881, 
    883, 
    884, 
    885, 
    886, 
    888, 
    890, 
    893, 
    895, 
    896, 
    897, 
    898, 
    900, 
    902, 
    905, 
    907, 
    908, 
    909, 
    910, 
    912, 
    914, 
    917, 
    919, 
    920, 
    921, 
    922, 
    924, 
    926, 
    929, 
    931, 
    932, 
    933, 
    934, 
    936, 
    938, 
    941, 
    943, 
    944, 
    945, 
    946, 
    948, 
    950, 
    954, 
    955, 
    958, 
    959, 
    960, 
    961, 
    963, 
    965, 
    968, 
    970, 
    971, 
    972, 
    973, 
    975, 
    977, 
    980, 
    982, 
    983, 
    984, 
    985, 
    987, 
    989, 
    992, 
    994, 
    995, 
    996, 
    997, 
    999, 
    1001, 
    1004, 
    1006, 
    1007, 
    1008, 
    1009, 
    1011, 
    1013, 
    1016, 
    1018, 
    1019, 
    1020, 
    1021, 
    1023, 
    1025, 
    1028, 
    1030, 
    1031, 
    1032, 
    1033, 
    1035, 
    1037, 
    1041, 
    1042, 
    1044, 
    1045, 
    1046, 
    1047, 
    1049, 
    1051, 
    1054, 
    1055, 
    1056, 
    1057, 
    1059, 
    1061, 
    1064, 
    1065, 
    1080, 
    1083, 
    1084, 
    1088, 
    1089, 
    1093, 
    1094
  ], 
  "node_row_ptr": [
    0, 
    1, 
    2, 
    3, 
    4, 
    5, 
    6, 
    7, 
    8, 
    11, 
    12, 
    13, 
    14, 
    15, 
    16, 
    17, 
    18, 
    19, 
    20, 
    21, 
    22, 
    23, 
    24, 
    25, 
    26, 
    29, 
    30, 
    31, 
    32, 
    33, 
    34, 
    35, 
    36, 
    37, 
    38, 
    39, 
    40, 
    41, 
    44, 
    45, 
    46, 
    47, 
    48, 
    49, 
    50, 
    51, 
    52, 
    53, 
    54, 
    55, 
    56, 
    57, 
    58, 
    59, 
    60, 
    61, 
    62, 
    65, 
    66, 
    67, 
    68, 
    69, 
    70, 
    71, 
    72, 
    73, 
    74, 
    75, 
    76, 
    77, 
    80, 
    81, 
    82, 
    83, 
    84, 
    85, 
    86, 
    87, 
    88, 
    89, 
    90, 
    91, 
    92, 
    95, 
    96, 
    97, 
    98, 
    99, 
    100, 
    101, 
    102, 
    103, 
    104, 
    105, 
    106, 
    107, 
    108, 
    109, 
    110, 
    113, 
    114, 
    115, 
    116, 
    117, 
    118, 
    119, 
    120, 
    121, 
    122, 
    123, 
    124, 
    125, 
    128, 
    129, 
    130, 
    131, 
    132, 
    133, 
    134, 
    135, 
    136, 
    137, 
    138, 
    139, 
    140, 
    143, 
    144, 
    145, 
    146, 
    147, 
    148, 
    149, 
    150, 
    151, 
    152, 
    153, 
    154, 
    155, 
    156, 
    157, 
    158, 
    161, 
    162, 
    163, 
    164, 
    165, 
    166, 
    167, 
    168, 
    169, 
    170, 
    171, 
    172, 
    173, 
    176, 
    177, 
    178, 
    179, 
    180, 
    181, 
    182, 
    183, 
    184, 
    185, 
    186, 
    187, 
    188, 
    191, 
    192, 
    193, 
    194, 
    195, 
    196, 
    197, 
    198, 
    199, 
    200, 
    201, 
    202, 
    203, 
    204, 
    205, 
    206, 
    207, 
    208, 
    209, 
    212, 
    213, 
    214, 
    215, 
    216, 
    217, 
    218, 
    219, 
    220, 
    221, 
    222, 
    223, 
    224, 
    227, 
    228, 
    229, 
    230, 
    231, 
    232, 
    233, 
    234, 
    235, 
    236, 
    237, 
    238, 
    239, 
    242, 
    243, 
    244, 
    245, 
    246, 
    247, 
    248, 
    249, 
    250, 
    251, 
    252, 
    253, 
    254, 
    255, 
    256, 
    257, 
    260, 
    261, 
    262, 
    263, 
    264, 
    265, 
    266, 
    267, 
    268, 
    269, 
    270, 
    271, 
    272, 
    275, 
    276, 
    277, 
    278, 
    279, 
    280, 
    281, 
    282, 
    283, 
    284, 
    285, 
    286, 
    287, 
    290, 
    291, 
    292, 
    293, 
    294, 
    295, 
    296, 
    297, 
    298, 
    299, 
    300, 
    301, 
    302, 
    303, 
    304, 
    305, 
    308, 
    309, 
    310, 
    311, 
    312, 
    313, 
    314, 
    315, 
    316, 
    317, 
    318, 
    319, 
    320, 
    323, 
    324, 
    325, 
    326, 
    327, 
    328, 
    329, 
    330, 
    331, 
    332, 
    333, 
    334, 
    335, 
    338, 
    339, 
    340, 
    341, 
    342, 
    343, 
    344, 
    345, 
    346, 
    347, 
    348, 
    349, 
    350, 
    351, 
    352, 
    353, 
    354, 
    355, 
    356, 
    357, 
    358, 
    361, 
    362, 
    363, 
    364, 
    365, 
    366, 
    367, 
    368, 
    369, 
    370, 
    371, 
    372, 
    375, 
    376, 
    377, 
    378, 
    379, 
    380, 
    381, 
    382, 
    383, 
    384, 
    385, 
    386, 
    389, 
    390, 
    391, 
    392, 
    393, 
    394, 
    395, 
    396, 
    397, 
    398, 
    399, 
    400, 
    403, 
    404, 
    405, 
    406, 
    407, 
    408, 
    409, 
    410, 
    411, 
    412, 
    413, 
    414, 
    417, 
    418, 
    419, 
    420, 
    421, 
    422, 
    423, 
    424, 
    425, 
    426, 
    427, 
    428, 
    431, 
    432, 
    433, 
    434, 
    435, 
    436, 
    437, 
    438, 
    439, 
    440, 
    441, 
    442, 
    445, 
    446, 
    447, 
    448, 
    449, 
    450, 
    451, 
    452, 
    453, 
    454, 
    455, 
    456, 
    457, 
    460, 
    461, 
    462, 
    463, 
    464, 
    465, 
    466, 
    467, 
    468, 
    469, 
    470, 
    471, 
    472, 
    473, 
    474, 
    475, 
    476, 
    477, 
    480, 
    481, 
    482, 
    483, 
    484, 
    485, 
    486, 
    487, 
    488, 
    489, 
    490, 
    491, 
    494, 
    495, 
    496, 
    497, 
    498, 
    499, 
    500, 
    501, 
    502, 
    503, 
    504, 
    505, 
    508, 
    509, 
    510, 
    511, 
    512, 
    513, 
    514, 
    515, 
    516, 
    517, 
    518, 
    519, 
    522, 
    523, 
    524, 
    525, 
    526, 
    527, 
    528, 
    529, 
    530, 
    531, 
    532, 
    533, 
    536, 
    537, 
    538, 
    539, 
    540, 
    541, 
    542, 
    543, 
    544, 
    545, 
    546, 
    547, 
    550, 
    551, 
    552, 
    553, 
    554, 
    555, 
    556, 
    557, 
    558, 
    559, 
    560, 
    561, 
    564, 
    565, 
    566, 
    567, 
    568, 
    569, 
    570, 
    571, 
    572, 
    573, 
    574, 
    575, 
    576, 
    577, 
    578, 
    581, 
    582, 
    583, 
    584, 
    585, 
    586, 
    587, 
    588, 
    589, 
    590, 
    591, 
    592, 
    595, 
    596, 
    597, 
    598, 
    599, 
    600, 
    601, 
    602, 
    603, 
    604, 
    605, 
    606, 
    609, 
    610, 
    611, 
    612, 
    613, 
    614, 
    615, 
    616, 
    617, 
    618, 
    619, 
    620, 
    623, 
    624, 
    625, 
    626, 
    627, 
    628, 
    629, 
    630, 
    631, 
    632, 
    633, 
    634, 
    637, 
    638, 
    639, 
    640, 
    641, 
    642, 
    643, 
    644, 
    645, 
    646, 
    647, 
    648, 
    651, 
    652, 
    653, 
    654, 
    655, 
    656, 
    657, 
    658, 
    659, 
    660, 
    661, 
    662, 
    665, 
    666, 
    667, 
    668, 
    669, 
    670, 
    671, 
    672, 
    673, 
    674, 
    675, 
    676, 
    677, 
    678, 
    679, 
    682, 
    683, 
    684, 
    685, 
    686, 
    687, 
    688, 
    689, 
    690, 
    691, 
    692, 
    693, 
    696, 
    697, 
    698, 
    699, 
    700, 
    701, 
    702, 
    703, 
    704, 
    705, 
    706, 
    707, 
    710, 
    711, 
    712, 
    713, 
    714, 
    715, 
    716, 
    717, 
    718, 
    719, 
    720, 
    721, 
    724, 
    725, 
    726, 
    727, 
    728, 
    729, 
    730, 
    731, 
    732, 
    733, 
    734, 
    735, 
    738, 
    739, 
    740, 
    741, 
    742, 
    743, 
    744, 
    745, 
    746, 
    747, 
    748, 
    749, 
    752, 
    753, 
    754, 
    755, 
    756, 
    757, 
    758, 
    759, 
    760, 
    761, 
    762, 
    763, 
    766, 
    767, 
    768, 
    769, 
    770, 
    771, 
    772, 
    773, 
    774, 
    775, 
    776, 
    777, 
    778, 
    779, 
    780, 
    781, 
    782, 
    783, 
    784, 
    785, 
    788, 
    789, 
    790, 
    791, 
    792, 
    793, 
    794, 
    795, 
    796, 
    797, 
    798, 
    799, 
    802, 
    803, 
    804, 
    805, 
    806, 
    807, 
    808, 
    809, 
    810, 
    811, 
    812, 
    813, 
    816, 
    817, 
    818, 
    819, 
    820, 
    821, 
    822, 
    823, 
    824, 
    825, 
    826, 
    827, 
    830, 
    831, 
    832, 
    833, 
    834, 
    835, 
    836, 
    837, 
    838, 
    839, 
    840, 
    841, 
    844, 
    845, 
    846, 
    847, 
    848, 
    849, 
    850, 
    851, 
    852, 
    853, 
    854, 
    855, 
    858, 
    859, 
    860, 
    861, 
    862, 
    863, 
    864, 
    865, 
    866, 
    867, 
    868, 
    869, 
    872, 
    873, 
    874, 
    875, 
    876, 
    877, 
    878, 
    879, 
    880, 
    881, 
    882, 
    883, 
    884, 
    887, 
    888, 
    889, 
    890, 
    891, 
    892, 
    893, 
    894, 
    895, 
    896, 
    897, 
    898, 
    899, 
    900, 
    901, 
    902, 
    903, 
    904, 
    907, 
    908, 
    909, 
    910, 
    911, 
    912, 
    913, 
    914, 
    915, 
    916, 
    917, 
    918, 
    921, 
    922, 
    923, 
    924, 
    925, 
    926, 
    927, 
    928, 
    929, 
    930, 
    931, 
    932, 
    935, 
    936, 
    937, 
    938, 
    939, 
    940, 
    941, 
    942, 
    943, 
    944, 
    945, 
    946, 
    949, 
    950, 
    951, 
    952, 
    953, 
    954, 
    955, 
    956, 
    957, 
    958, 
    959, 
    960, 
    963, 
    964, 
    965, 
    966, 
    967, 
    968, 
    969, 
    970, 
    971, 
    972, 
    973, 
    974, 
    977, 
    978, 
    979, 
    980, 
    981, 
    982, 
    983, 
    984, 
    985, 
    986, 
    987, 
    988, 
    991, 
    992, 
    993, 
    994, 
    995, 
    996, 
    997, 
    998, 
    999, 
    1000, 
    1001, 
    1002, 
    1003, 
    1004, 
    1005, 
    1008, 
    1009, 
    1010, 
    1011, 
    1012, 
    1013, 
    1014, 
    1015, 
    1016, 
    1017, 
    1018, 
    1019, 
    1022, 
    1023, 
    1024, 
    1025, 
    1026, 
    1027, 
    1028, 
    1029, 
    1030, 
    1031, 
    1032, 
    1033, 
    1036, 
    1037, 
    1038, 
    1039, 
    1040, 
    1041, 
    1042, 
    1043, 
    1044, 
    1045, 
    1046, 
    1047, 
    1050, 
    1051, 
    1052, 
    1053, 
    1054, 
    1055, 
    1056, 
    1057, 
    1058, 
    1059, 
    1060, 
    1061, 
    1064, 
    1065, 
    1066, 
    1067, 
    1068, 
    1069, 
    1070, 
    1071, 
    1072, 
    1073, 
    1074, 
    1075, 
    1078, 
    1079, 
    1080, 
    1081, 
    1082, 
    1083, 
    1084, 
    1085, 
    1086, 
    1087, 
    1088, 
    1089, 
    1092, 
    1093, 
    1094, 
    1095, 
    1096, 
    1097, 
    1098, 
    1099, 
    1100, 
    1101, 
    1102, 
    1103, 
    1104, 
    1105, 
    1106, 
    1109, 
    1110, 
    1111, 
    1112, 
    1113, 
    1114, 
    1115, 
    1116, 
    1117, 
    1118, 
    1119, 
    1120, 
    1123, 
    1124, 
    1125, 
    1126, 
    1127, 
    1128, 
    1129, 
    1130, 
    1131, 
    1132, 
    1133, 
    1134, 
    1137, 
    1138, 
    1139, 
    1140, 
    1141, 
    1142, 
    1143, 
    1144, 
    1145, 
    1146, 
    1147, 
    1148, 
    1151, 
    1152, 
    1153, 
    1154, 
    1155, 
    1156, 
    1157, 
    1158, 
    1159, 
    1160, 
    1161, 
    1162, 
    1165, 
    1166, 
    1167, 
    1168, 
    1169, 
    1170, 
    1171, 
    1172, 
    1173, 
    1174, 
    1175, 
    1176, 
    1179, 
    1180, 
    1181, 
    1182, 
    1183, 
    1184, 
    1185, 
    1186, 
    1187, 
    1188, 
    1189, 
    1190, 
    1193, 
    1194, 
    1195, 
    1196, 
    1197, 
    1198, 
    1199, 
    1200, 
    1201, 
    1202, 
    1203, 
    1204, 
    1205, 
    1206, 
    1209, 
    1210, 
    1211, 
    1212, 
    1213, 
    1214, 
    1215, 
    1216, 
    1217, 
    1218, 
    1221, 
    1222, 
    1223, 
    1224, 
    1225, 
    1226, 
    1227, 
    1228, 
    1229, 
    1230, 
    1231, 
    1232, 
    1233, 
    1234, 
    1235, 
    1236, 
    1237, 
    1238, 
    1239, 
    1240, 
    1241, 
    1242, 
    1243, 
    1246, 
    1247, 
    1248, 
    1249, 
    1250, 
    1251, 
    1252, 
    1253, 
    1254, 
    1255, 
    1256, 
    1257, 
    1258, 
    1259, 
    1260, 
    1261, 
    1262, 
    1263, 
    1264, 
    1265, 
    1266, 
    1267, 
    1268, 
    1269, 
    1270
  ], 
  "heads": [[1082, 0, 0], [1102, 0, 0], [1103, 0, 0], [1105, 0, 0]], 
  "attrs": {"mxnet_version": ["int", 1200]}
}