{
  "nodes": [
    {
      "op": "null", 
      "name": "data", 
      "inputs": []
    }, 
    {
      "op": "null", 
      "name": "conv_1_conv2d_weight", 
      "attrs": {
        "kernel": "(3, 3)", 
        "no_bias": "True", 
        "num_filter": "32", 
        "num_group": "1", 
        "pad": "(1, 1)", 
        "stride": "(2, 2)"
      }, 
      "inputs": []
    }, 
    {
      "op": "Convolution", 
      "name": "conv_1_conv2d", 
      "attrs": {
        "kernel": "(3, 3)", 
        "no_bias": "True", 
        "num_filter": "32", 
        "num_group": "1", 
        "pad": "(1, 1)", 
        "stride": "(2, 2)"
      }, 
      "inputs": [[0, 0, 0], [1, 0, 0]]
    }, 
    {
      "op": "null", 
      "name": "conv_1_batchnorm_gamma", 
      "attrs": {"fix_gamma": "True"}, 
      "inputs": []
    }, 
    {
      "op": "null", 
      "name": "conv_1_batchnorm_beta", 
      "attrs": {"fix_gamma": "True"}, 
      "inputs": []
    }, 
    {
      "op": "null", 
      "name": "conv_1_batchnorm_moving_mean", 
      "attrs": {
        "__init__": "[\"zero\", {}]", 
        "fix_gamma": "True"
      }, 
      "inputs": []
    }, 
    {
      "op": "null", 
      "name": "conv_1_batchnorm_moving_var", 
      "attrs": {
        "__init__": "[\"one\", {}]", 
        "fix_gamma": "True"
      }, 
      "inputs": []
    }, 
    {
      "op": "BatchNorm", 
      "name": "conv_1_batchnorm", 
      "attrs": {"fix_gamma": "True"}, 
      "inputs": [[2, 0, 0], [3, 0, 0], [4, 0, 0], [5, 0, 1], [6, 0, 1]]
    }, 
    {
      "op": "Activation", 
      "name": "conv_1_relu", 
      "attrs": {"act_type": "relu"}, 
      "inputs": [[7, 0, 0]]
    }, 
    {
      "op": "null", 
      "name": "conv_2_dw_conv2d_weight", 
      "attrs": {
        "kernel": "(3, 3)", 
        "no_bias": "True", 
        "num_filter": "32", 
        "num_group": "32", 
        "pad": "(1, 1)", 
        "stride": "(1, 1)"
      }, 
      "inputs": []
    }, 
    {
      "op": "Convolution", 
      "name": "conv_2_dw_conv2d", 
      "attrs": {
        "kernel": "(3, 3)", 
        "no_bias": "True", 
        "num_filter": "32", 
        "num_group": "32", 
        "pad": "(1, 1)", 
        "stride": "(1, 1)"
      }, 
      "inputs": [[8, 0, 0], [9, 0, 0]]
    }, 
    {
      "op": "null", 
      "name": "conv_2_dw_batchnorm_gamma", 
      "attrs": {"fix_gamma": "True"}, 
      "inputs": []
    }, 
    {
      "op": "null", 
      "name": "conv_2_dw_batchnorm_beta", 
      "attrs": {"fix_gamma": "True"}, 
      "inputs": []
    }, 
    {
      "op": "null", 
      "name": "conv_2_dw_batchnorm_moving_mean", 
      "attrs": {
        "__init__": "[\"zero\", {}]", 
        "fix_gamma": "True"
      }, 
      "inputs": []
    }, 
    {
      "op": "null", 
      "name": "conv_2_dw_batchnorm_moving_var", 
      "attrs": {
        "__init__": "[\"one\", {}]", 
        "fix_gamma": "True"
      }, 
      "inputs": []
    }, 
    {
      "op": "BatchNorm", 
      "name": "conv_2_dw_batchnorm", 
      "attrs": {"fix_gamma": "True"}, 
      "inputs": [[10, 0, 0], [11, 0, 0], [12, 0, 0], [13, 0, 1], [14, 0, 1]]
    }, 
    {
      "op": "Activation", 
      "name": "conv_2_dw_relu", 
      "attrs": {"act_type": "relu"}, 
      "inputs": [[15, 0, 0]]
    }, 
    {
      "op": "null", 
      "name": "conv_2_conv2d_weight", 
      "attrs": {
        "kernel": "(1, 1)", 
        "no_bias": "True", 
        "num_filter": "64", 
        "num_group": "1", 
        "pad": "(0, 0)", 
        "stride": "(1, 1)"
      }, 
      "inputs": []
    }, 
    {
      "op": "Convolution", 
      "name": "conv_2_conv2d", 
      "attrs": {
        "kernel": "(1, 1)", 
        "no_bias": "True", 
        "num_filter": "64", 
        "num_group": "1", 
        "pad": "(0, 0)", 
        "stride": "(1, 1)"
      }, 
      "inputs": [[16, 0, 0], [17, 0, 0]]
    }, 
    {
      "op": "null", 
      "name": "conv_2_batchnorm_gamma", 
      "attrs": {"fix_gamma": "True"}, 
      "inputs": []
    }, 
    {
      "op": "null", 
      "name": "conv_2_batchnorm_beta", 
      "attrs": {"fix_gamma": "True"}, 
      "inputs": []
    }, 
    {
      "op": "null", 
      "name": "conv_2_batchnorm_moving_mean", 
      "attrs": {
        "__init__": "[\"zero\", {}]", 
        "fix_gamma": "True"
      }, 
      "inputs": []
    }, 
    {
      "op": "null", 
      "name": "conv_2_batchnorm_moving_var", 
      "attrs": {
        "__init__": "[\"one\", {}]", 
        "fix_gamma": "True"
      }, 
      "inputs": []
    }, 
    {
      "op": "BatchNorm", 
      "name": "conv_2_batchnorm", 
      "attrs": {"fix_gamma": "True"}, 
      "inputs": [[18, 0, 0], [19, 0, 0], [20, 0, 0], [21, 0, 1], [22, 0, 1]]
    }, 
    {
      "op": "Activation", 
      "name": "conv_2_relu", 
      "attrs": {"act_type": "relu"}, 
      "inputs": [[23, 0, 0]]
    }, 
    {
      "op": "null", 
      "name": "conv_3_dw_conv2d_weight", 
      "attrs": {
        "kernel": "(3, 3)", 
        "no_bias": "True", 
        "num_filter": "64", 
        "num_group": "64", 
        "pad": "(1, 1)", 
        "stride": "(2, 2)"
      }, 
      "inputs": []
    }, 
    {
      "op": "Convolution", 
      "name": "conv_3_dw_conv2d", 
      "attrs": {
        "kernel": "(3, 3)", 
        "no_bias": "True", 
        "num_filter": "64", 
        "num_group": "64", 
        "pad": "(1, 1)", 
        "stride": "(2, 2)"
      }, 
      "inputs": [[24, 0, 0], [25, 0, 0]]
    }, 
    {
      "op": "null", 
      "name": "conv_3_dw_batchnorm_gamma", 
      "attrs": {"fix_gamma": "True"}, 
      "inputs": []
    }, 
    {
      "op": "null", 
      "name": "conv_3_dw_batchnorm_beta", 
      "attrs": {"fix_gamma": "True"}, 
      "inputs": []
    }, 
    {
      "op": "null", 
      "name": "conv_3_dw_batchnorm_moving_mean", 
      "attrs": {
        "__init__": "[\"zero\", {}]", 
        "fix_gamma": "True"
      }, 
      "inputs": []
    }, 
    {
      "op": "null", 
      "name": "conv_3_dw_batchnorm_moving_var", 
      "attrs": {
        "__init__": "[\"one\", {}]", 
        "fix_gamma": "True"
      }, 
      "inputs": []
    }, 
    {
      "op": "BatchNorm", 
      "name": "conv_3_dw_batchnorm", 
      "attrs": {"fix_gamma": "True"}, 
      "inputs": [[26, 0, 0], [27, 0, 0], [28, 0, 0], [29, 0, 1], [30, 0, 1]]
    }, 
    {
      "op": "Activation", 
      "name": "conv_3_dw_relu", 
      "attrs": {"act_type": "relu"}, 
      "inputs": [[31, 0, 0]]
    }, 
    {
      "op": "null", 
      "name": "conv_3_conv2d_weight", 
      "attrs": {
        "kernel": "(1, 1)", 
        "no_bias": "True", 
        "num_filter": "128", 
        "num_group": "1", 
        "pad": "(0, 0)", 
        "stride": "(1, 1)"
      }, 
      "inputs": []
    }, 
    {
      "op": "Convolution", 
      "name": "conv_3_conv2d", 
      "attrs": {
        "kernel": "(1, 1)", 
        "no_bias": "True", 
        "num_filter": "128", 
        "num_group": "1", 
        "pad": "(0, 0)", 
        "stride": "(1, 1)"
      }, 
      "inputs": [[32, 0, 0], [33, 0, 0]]
    }, 
    {
      "op": "null", 
      "name": "conv_3_batchnorm_gamma", 
      "attrs": {"fix_gamma": "True"}, 
      "inputs": []
    }, 
    {
      "op": "null", 
      "name": "conv_3_batchnorm_beta", 
      "attrs": {"fix_gamma": "True"}, 
      "inputs": []
    }, 
    {
      "op": "null", 
      "name": "conv_3_batchnorm_moving_mean", 
      "attrs": {
        "__init__": "[\"zero\", {}]", 
        "fix_gamma": "True"
      }, 
      "inputs": []
    }, 
    {
      "op": "null", 
      "name": "conv_3_batchnorm_moving_var", 
      "attrs": {
        "__init__": "[\"one\", {}]", 
        "fix_gamma": "True"
      }, 
      "inputs": []
    }, 
    {
      "op": "BatchNorm", 
      "name": "conv_3_batchnorm", 
      "attrs": {"fix_gamma": "True"}, 
      "inputs": [[34, 0, 0], [35, 0, 0], [36, 0, 0], [37, 0, 1], [38, 0, 1]]
    }, 
    {
      "op": "Activation", 
      "name": "conv_3_relu", 
      "attrs": {"act_type": "relu"}, 
      "inputs": [[39, 0, 0]]
    }, 
    {
      "op": "null", 
      "name": "conv_4_dw_conv2d_weight", 
      "attrs": {
        "kernel": "(3, 3)", 
        "no_bias": "True", 
        "num_filter": "128", 
        "num_group": "128", 
        "pad": "(1, 1)", 
        "stride": "(1, 1)"
      }, 
      "inputs": []
    }, 
    {
      "op": "Convolution", 
      "name": "conv_4_dw_conv2d", 
      "attrs": {
        "kernel": "(3, 3)", 
        "no_bias": "True", 
        "num_filter": "128", 
        "num_group": "128", 
        "pad": "(1, 1)", 
        "stride": "(1, 1)"
      }, 
      "inputs": [[40, 0, 0], [41, 0, 0]]
    }, 
    {
      "op": "null", 
      "name": "conv_4_dw_batchnorm_gamma", 
      "attrs": {"fix_gamma": "True"}, 
      "inputs": []
    }, 
    {
      "op": "null", 
      "name": "conv_4_dw_batchnorm_beta", 
      "attrs": {"fix_gamma": "True"}, 
      "inputs": []
    }, 
    {
      "op": "null", 
      "name": "conv_4_dw_batchnorm_moving_mean", 
      "attrs": {
        "__init__": "[\"zero\", {}]", 
        "fix_gamma": "True"
      }, 
      "inputs": []
    }, 
    {
      "op": "null", 
      "name": "conv_4_dw_batchnorm_moving_var", 
      "attrs": {
        "__init__": "[\"one\", {}]", 
        "fix_gamma": "True"
      }, 
      "inputs": []
    }, 
    {
      "op": "BatchNorm", 
      "name": "conv_4_dw_batchnorm", 
      "attrs": {"fix_gamma": "True"}, 
      "inputs": [[42, 0, 0], [43, 0, 0], [44, 0, 0], [45, 0, 1], [46, 0, 1]]
    }, 
    {
      "op": "Activation", 
      "name": "conv_4_dw_relu", 
      "attrs": {"act_type": "relu"}, 
      "inputs": [[47, 0, 0]]
    }, 
    {
      "op": "null", 
      "name": "conv_4_conv2d_weight", 
      "attrs": {
        "kernel": "(1, 1)", 
        "no_bias": "True", 
        "num_filter": "128", 
        "num_group": "1", 
        "pad": "(0, 0)", 
        "stride": "(1, 1)"
      }, 
      "inputs": []
    }, 
    {
      "op": "Convolution", 
      "name": "conv_4_conv2d", 
      "attrs": {
        "kernel": "(1, 1)", 
        "no_bias": "True", 
        "num_filter": "128", 
        "num_group": "1", 
        "pad": "(0, 0)", 
        "stride": "(1, 1)"
      }, 
      "inputs": [[48, 0, 0], [49, 0, 0]]
    }, 
    {
      "op": "null", 
      "name": "conv_4_batchnorm_gamma", 
      "attrs": {"fix_gamma": "True"}, 
      "inputs": []
    }, 
    {
      "op": "null", 
      "name": "conv_4_batchnorm_beta", 
      "attrs": {"fix_gamma": "True"}, 
      "inputs": []
    }, 
    {
      "op": "null", 
      "name": "conv_4_batchnorm_moving_mean", 
      "attrs": {
        "__init__": "[\"zero\", {}]", 
        "fix_gamma": "True"
      }, 
      "inputs": []
    }, 
    {
      "op": "null", 
      "name": "conv_4_batchnorm_moving_var", 
      "attrs": {
        "__init__": "[\"one\", {}]", 
        "fix_gamma": "True"
      }, 
      "inputs": []
    }, 
    {
      "op": "BatchNorm", 
      "name": "conv_4_batchnorm", 
      "attrs": {"fix_gamma": "True"}, 
      "inputs": [[50, 0, 0], [51, 0, 0], [52, 0, 0], [53, 0, 1], [54, 0, 1]]
    }, 
    {
      "op": "Activation", 
      "name": "conv_4_relu", 
      "attrs": {"act_type": "relu"}, 
      "inputs": [[55, 0, 0]]
    }, 
    {
      "op": "null", 
      "name": "conv_5_dw_conv2d_weight", 
      "attrs": {
        "kernel": "(3, 3)", 
        "no_bias": "True", 
        "num_filter": "128", 
        "num_group": "128", 
        "pad": "(1, 1)", 
        "stride": "(2, 2)"
      }, 
      "inputs": []
    }, 
    {
      "op": "Convolution", 
      "name": "conv_5_dw_conv2d", 
      "attrs": {
        "kernel": "(3, 3)", 
        "no_bias": "True", 
        "num_filter": "128", 
        "num_group": "128", 
        "pad": "(1, 1)", 
        "stride": "(2, 2)"
      }, 
      "inputs": [[56, 0, 0], [57, 0, 0]]
    }, 
    {
      "op": "null", 
      "name": "conv_5_dw_batchnorm_gamma", 
      "attrs": {"fix_gamma": "True"}, 
      "inputs": []
    }, 
    {
      "op": "null", 
      "name": "conv_5_dw_batchnorm_beta", 
      "attrs": {"fix_gamma": "True"}, 
      "inputs": []
    }, 
    {
      "op": "null", 
      "name": "conv_5_dw_batchnorm_moving_mean", 
      "attrs": {
        "__init__": "[\"zero\", {}]", 
        "fix_gamma": "True"
      }, 
      "inputs": []
    }, 
    {
      "op": "null", 
      "name": "conv_5_dw_batchnorm_moving_var", 
      "attrs": {
        "__init__": "[\"one\", {}]", 
        "fix_gamma": "True"
      }, 
      "inputs": []
    }, 
    {
      "op": "BatchNorm", 
      "name": "conv_5_dw_batchnorm", 
      "attrs": {"fix_gamma": "True"}, 
      "inputs": [[58, 0, 0], [59, 0, 0], [60, 0, 0], [61, 0, 1], [62, 0, 1]]
    }, 
    {
      "op": "Activation", 
      "name": "conv_5_dw_relu", 
      "attrs": {"act_type": "relu"}, 
      "inputs": [[63, 0, 0]]
    }, 
    {
      "op": "null", 
      "name": "conv_5_conv2d_weight", 
      "attrs": {
        "kernel": "(1, 1)", 
        "no_bias": "True", 
        "num_filter": "256", 
        "num_group": "1", 
        "pad": "(0, 0)", 
        "stride": "(1, 1)"
      }, 
      "inputs": []
    }, 
    {
      "op": "Convolution", 
      "name": "conv_5_conv2d", 
      "attrs": {
        "kernel": "(1, 1)", 
        "no_bias": "True", 
        "num_filter": "256", 
        "num_group": "1", 
        "pad": "(0, 0)", 
        "stride": "(1, 1)"
      }, 
      "inputs": [[64, 0, 0], [65, 0, 0]]
    }, 
    {
      "op": "null", 
      "name": "conv_5_batchnorm_gamma", 
      "attrs": {"fix_gamma": "True"}, 
      "inputs": []
    }, 
    {
      "op": "null", 
      "name": "conv_5_batchnorm_beta", 
      "attrs": {"fix_gamma": "True"}, 
      "inputs": []
    }, 
    {
      "op": "null", 
      "name": "conv_5_batchnorm_moving_mean", 
      "attrs": {
        "__init__": "[\"zero\", {}]", 
        "fix_gamma": "True"
      }, 
      "inputs": []
    }, 
    {
      "op": "null", 
      "name": "conv_5_batchnorm_moving_var", 
      "attrs": {
        "__init__": "[\"one\", {}]", 
        "fix_gamma": "True"
      }, 
      "inputs": []
    }, 
    {
      "op": "BatchNorm", 
      "name": "conv_5_batchnorm", 
      "attrs": {"fix_gamma": "True"}, 
      "inputs": [[66, 0, 0], [67, 0, 0], [68, 0, 0], [69, 0, 1], [70, 0, 1]]
    }, 
    {
      "op": "Activation", 
      "name": "conv_5_relu", 
      "attrs": {"act_type": "relu"}, 
      "inputs": [[71, 0, 0]]
    }, 
    {
      "op": "null", 
      "name": "conv_6_dw_conv2d_weight", 
      "attrs": {
        "kernel": "(3, 3)", 
        "no_bias": "True", 
        "num_filter": "256", 
        "num_group": "256", 
        "pad": "(1, 1)", 
        "stride": "(1, 1)"
      }, 
      "inputs": []
    }, 
    {
      "op": "Convolution", 
      "name": "conv_6_dw_conv2d", 
      "attrs": {
        "kernel": "(3, 3)", 
        "no_bias": "True", 
        "num_filter": "256", 
        "num_group": "256", 
        "pad": "(1, 1)", 
        "stride": "(1, 1)"
      }, 
      "inputs": [[72, 0, 0], [73, 0, 0]]
    }, 
    {
      "op": "null", 
      "name": "conv_6_dw_batchnorm_gamma", 
      "attrs": {"fix_gamma": "True"}, 
      "inputs": []
    }, 
    {
      "op": "null", 
      "name": "conv_6_dw_batchnorm_beta", 
      "attrs": {"fix_gamma": "True"}, 
      "inputs": []
    }, 
    {
      "op": "null", 
      "name": "conv_6_dw_batchnorm_moving_mean", 
      "attrs": {
        "__init__": "[\"zero\", {}]", 
        "fix_gamma": "True"
      }, 
      "inputs": []
    }, 
    {
      "op": "null", 
      "name": "conv_6_dw_batchnorm_moving_var", 
      "attrs": {
        "__init__": "[\"one\", {}]", 
        "fix_gamma": "True"
      }, 
      "inputs": []
    }, 
    {
      "op": "BatchNorm", 
      "name": "conv_6_dw_batchnorm", 
      "attrs": {"fix_gamma": "True"}, 
      "inputs": [[74, 0, 0], [75, 0, 0], [76, 0, 0], [77, 0, 1], [78, 0, 1]]
    }, 
    {
      "op": "Activation", 
      "name": "conv_6_dw_relu", 
      "attrs": {"act_type": "relu"}, 
      "inputs": [[79, 0, 0]]
    }, 
    {
      "op": "null", 
      "name": "conv_6_conv2d_weight", 
      "attrs": {
        "kernel": "(1, 1)", 
        "no_bias": "True", 
        "num_filter": "256", 
        "num_group": "1", 
        "pad": "(0, 0)", 
        "stride": "(1, 1)"
      }, 
      "inputs": []
    }, 
    {
      "op": "Convolution", 
      "name": "conv_6_conv2d", 
      "attrs": {
        "kernel": "(1, 1)", 
        "no_bias": "True", 
        "num_filter": "256", 
        "num_group": "1", 
        "pad": "(0, 0)", 
        "stride": "(1, 1)"
      }, 
      "inputs": [[80, 0, 0], [81, 0, 0]]
    }, 
    {
      "op": "null", 
      "name": "conv_6_batchnorm_gamma", 
      "attrs": {"fix_gamma": "True"}, 
      "inputs": []
    }, 
    {
      "op": "null", 
      "name": "conv_6_batchnorm_beta", 
      "attrs": {"fix_gamma": "True"}, 
      "inputs": []
    }, 
    {
      "op": "null", 
      "name": "conv_6_batchnorm_moving_mean", 
      "attrs": {
        "__init__": "[\"zero\", {}]", 
        "fix_gamma": "True"
      }, 
      "inputs": []
    }, 
    {
      "op": "null", 
      "name": "conv_6_batchnorm_moving_var", 
      "attrs": {
        "__init__": "[\"one\", {}]", 
        "fix_gamma": "True"
      }, 
      "inputs": []
    }, 
    {
      "op": "BatchNorm", 
      "name": "conv_6_batchnorm", 
      "attrs": {"fix_gamma": "True"}, 
      "inputs": [[82, 0, 0], [83, 0, 0], [84, 0, 0], [85, 0, 1], [86, 0, 1]]
    }, 
    {
      "op": "Activation", 
      "name": "conv_6_relu", 
      "attrs": {"act_type": "relu"}, 
      "inputs": [[87, 0, 0]]
    }, 
    {
      "op": "null", 
      "name": "conv_6_relu_cls_pred_conv_weight", 
      "attrs": {
        "kernel": "(3, 3)", 
        "num_filter": "20", 
        "pad": "(1, 1)", 
        "stride": "(1, 1)"
      }, 
      "inputs": []
    }, 
    {
      "op": "null", 
      "name": "conv_6_relu_cls_pred_conv_bias", 
      "attrs": {
        "__init__": "[\"constant\", {\"value\": 0.0}]", 
        "__lr_mult__": "2.0"
      }, 
      "inputs": []
    }, 
    {
      "op": "Convolution", 
      "name": "conv_6_relu_cls_pred_conv", 
      "attrs": {
        "kernel": "(3, 3)", 
        "num_filter": "20", 
        "pad": "(1, 1)", 
        "stride": "(1, 1)"
      }, 
      "inputs": [[88, 0, 0], [89, 0, 0], [90, 0, 0]]
    }, 
    {
      "op": "transpose", 
      "name": "transpose1", 
      "attrs": {"axes": "(0, 2, 3, 1)"}, 
      "inputs": [[91, 0, 0]]
    }, 
    {
      "op": "Flatten", 
      "name": "flatten1", 
      "inputs": [[92, 0, 0]]
    }, 
    {
      "op": "null", 
      "name": "conv_7_dw_conv2d_weight", 
      "attrs": {
        "kernel": "(3, 3)", 
        "no_bias": "True", 
        "num_filter": "256", 
        "num_group": "256", 
        "pad": "(1, 1)", 
        "stride": "(2, 2)"
      }, 
      "inputs": []
    }, 
    {
      "op": "Convolution", 
      "name": "conv_7_dw_conv2d", 
      "attrs": {
        "kernel": "(3, 3)", 
        "no_bias": "True", 
        "num_filter": "256", 
        "num_group": "256", 
        "pad": "(1, 1)", 
        "stride": "(2, 2)"
      }, 
      "inputs": [[88, 0, 0], [94, 0, 0]]
    }, 
    {
      "op": "null", 
      "name": "conv_7_dw_batchnorm_gamma", 
      "attrs": {"fix_gamma": "True"}, 
      "inputs": []
    }, 
    {
      "op": "null", 
      "name": "conv_7_dw_batchnorm_beta", 
      "attrs": {"fix_gamma": "True"}, 
      "inputs": []
    }, 
    {
      "op": "null", 
      "name": "conv_7_dw_batchnorm_moving_mean", 
      "attrs": {
        "__init__": "[\"zero\", {}]", 
        "fix_gamma": "True"
      }, 
      "inputs": []
    }, 
    {
      "op": "null", 
      "name": "conv_7_dw_batchnorm_moving_var", 
      "attrs": {
        "__init__": "[\"one\", {}]", 
        "fix_gamma": "True"
      }, 
      "inputs": []
    }, 
    {
      "op": "BatchNorm", 
      "name": "conv_7_dw_batchnorm", 
      "attrs": {"fix_gamma": "True"}, 
      "inputs": [[95, 0, 0], [96, 0, 0], [97, 0, 0], [98, 0, 1], [99, 0, 1]]
    }, 
    {
      "op": "Activation", 
      "name": "conv_7_dw_relu", 
      "attrs": {"act_type": "relu"}, 
      "inputs": [[100, 0, 0]]
    }, 
    {
      "op": "null", 
      "name": "conv_7_conv2d_weight", 
      "attrs": {
        "kernel": "(1, 1)", 
        "no_bias": "True", 
        "num_filter": "512", 
        "num_group": "1", 
        "pad": "(0, 0)", 
        "stride": "(1, 1)"
      }, 
      "inputs": []
    }, 
    {
      "op": "Convolution", 
      "name": "conv_7_conv2d", 
      "attrs": {
        "kernel": "(1, 1)", 
        "no_bias": "True", 
        "num_filter": "512", 
        "num_group": "1", 
        "pad": "(0, 0)", 
        "stride": "(1, 1)"
      }, 
      "inputs": [[101, 0, 0], [102, 0, 0]]
    }, 
    {
      "op": "null", 
      "name": "conv_7_batchnorm_gamma", 
      "attrs": {"fix_gamma": "True"}, 
      "inputs": []
    }, 
    {
      "op": "null", 
      "name": "conv_7_batchnorm_beta", 
      "attrs": {"fix_gamma": "True"}, 
      "inputs": []
    }, 
    {
      "op": "null", 
      "name": "conv_7_batchnorm_moving_mean", 
      "attrs": {
        "__init__": "[\"zero\", {}]", 
        "fix_gamma": "True"
      }, 
      "inputs": []
    }, 
    {
      "op": "null", 
      "name": "conv_7_batchnorm_moving_var", 
      "attrs": {
        "__init__": "[\"one\", {}]", 
        "fix_gamma": "True"
      }, 
      "inputs": []
    }, 
    {
      "op": "BatchNorm", 
      "name": "conv_7_batchnorm", 
      "attrs": {"fix_gamma": "True"}, 
      "inputs": [[103, 0, 0], [104, 0, 0], [105, 0, 0], [106, 0, 1], [107, 0, 1]]
    }, 
    {
      "op": "Activation", 
      "name": "conv_7_relu", 
      "attrs": {"act_type": "relu"}, 
      "inputs": [[108, 0, 0]]
    }, 
    {
      "op": "null", 
      "name": "conv_8_dw_conv2d_weight", 
      "attrs": {
        "kernel": "(3, 3)", 
        "no_bias": "True", 
        "num_filter": "512", 
        "num_group": "512", 
        "pad": "(1, 1)", 
        "stride": "(1, 1)"
      }, 
      "inputs": []
    }, 
    {
      "op": "Convolution", 
      "name": "conv_8_dw_conv2d", 
      "attrs": {
        "kernel": "(3, 3)", 
        "no_bias": "True", 
        "num_filter": "512", 
        "num_group": "512", 
        "pad": "(1, 1)", 
        "stride": "(1, 1)"
      }, 
      "inputs": [[109, 0, 0], [110, 0, 0]]
    }, 
    {
      "op": "null", 
      "name": "conv_8_dw_batchnorm_gamma", 
      "attrs": {"fix_gamma": "True"}, 
      "inputs": []
    }, 
    {
      "op": "null", 
      "name": "conv_8_dw_batchnorm_beta", 
      "attrs": {"fix_gamma": "True"}, 
      "inputs": []
    }, 
    {
      "op": "null", 
      "name": "conv_8_dw_batchnorm_moving_mean", 
      "attrs": {
        "__init__": "[\"zero\", {}]", 
        "fix_gamma": "True"
      }, 
      "inputs": []
    }, 
    {
      "op": "null", 
      "name": "conv_8_dw_batchnorm_moving_var", 
      "attrs": {
        "__init__": "[\"one\", {}]", 
        "fix_gamma": "True"
      }, 
      "inputs": []
    }, 
    {
      "op": "BatchNorm", 
      "name": "conv_8_dw_batchnorm", 
      "attrs": {"fix_gamma": "True"}, 
      "inputs": [[111, 0, 0], [112, 0, 0], [113, 0, 0], [114, 0, 1], [115, 0, 1]]
    }, 
    {
      "op": "Activation", 
      "name": "conv_8_dw_relu", 
      "attrs": {"act_type": "relu"}, 
      "inputs": [[116, 0, 0]]
    }, 
    {
      "op": "null", 
      "name": "conv_8_conv2d_weight", 
      "attrs": {
        "kernel": "(1, 1)", 
        "no_bias": "True", 
        "num_filter": "512", 
        "num_group": "1", 
        "pad": "(0, 0)", 
        "stride": "(1, 1)"
      }, 
      "inputs": []
    }, 
    {
      "op": "Convolution", 
      "name": "conv_8_conv2d", 
      "attrs": {
        "kernel": "(1, 1)", 
        "no_bias": "True", 
        "num_filter": "512", 
        "num_group": "1", 
        "pad": "(0, 0)", 
        "stride": "(1, 1)"
      }, 
      "inputs": [[117, 0, 0], [118, 0, 0]]
    }, 
    {
      "op": "null", 
      "name": "conv_8_batchnorm_gamma", 
      "attrs": {"fix_gamma": "True"}, 
      "inputs": []
    }, 
    {
      "op": "null", 
      "name": "conv_8_batchnorm_beta", 
      "attrs": {"fix_gamma": "True"}, 
      "inputs": []
    }, 
    {
      "op": "null", 
      "name": "conv_8_batchnorm_moving_mean", 
      "attrs": {
        "__init__": "[\"zero\", {}]", 
        "fix_gamma": "True"
      }, 
      "inputs": []
    }, 
    {
      "op": "null", 
      "name": "conv_8_batchnorm_moving_var", 
      "attrs": {
        "__init__": "[\"one\", {}]", 
        "fix_gamma": "True"
      }, 
      "inputs": []
    }, 
    {
      "op": "BatchNorm", 
      "name": "conv_8_batchnorm", 
      "attrs": {"fix_gamma": "True"}, 
      "inputs": [[119, 0, 0], [120, 0, 0], [121, 0, 0], [122, 0, 1], [123, 0, 1]]
    }, 
    {
      "op": "Activation", 
      "name": "conv_8_relu", 
      "attrs": {"act_type": "relu"}, 
      "inputs": [[124, 0, 0]]
    }, 
    {
      "op": "null", 
      "name": "conv_9_dw_conv2d_weight", 
      "attrs": {
        "kernel": "(3, 3)", 
        "no_bias": "True", 
        "num_filter": "512", 
        "num_group": "512", 
        "pad": "(1, 1)", 
        "stride": "(1, 1)"
      }, 
      "inputs": []
    }, 
    {
      "op": "Convolution", 
      "name": "conv_9_dw_conv2d", 
      "attrs": {
        "kernel": "(3, 3)", 
        "no_bias": "True", 
        "num_filter": "512", 
        "num_group": "512", 
        "pad": "(1, 1)", 
        "stride": "(1, 1)"
      }, 
      "inputs": [[125, 0, 0], [126, 0, 0]]
    }, 
    {
      "op": "null", 
      "name": "conv_9_dw_batchnorm_gamma", 
      "attrs": {"fix_gamma": "True"}, 
      "inputs": []
    }, 
    {
      "op": "null", 
      "name": "conv_9_dw_batchnorm_beta", 
      "attrs": {"fix_gamma": "True"}, 
      "inputs": []
    }, 
    {
      "op": "null", 
      "name": "conv_9_dw_batchnorm_moving_mean", 
      "attrs": {
        "__init__": "[\"zero\", {}]", 
        "fix_gamma": "True"
      }, 
      "inputs": []
    }, 
    {
      "op": "null", 
      "name": "conv_9_dw_batchnorm_moving_var", 
      "attrs": {
        "__init__": "[\"one\", {}]", 
        "fix_gamma": "True"
      }, 
      "inputs": []
    }, 
    {
      "op": "BatchNorm", 
      "name": "conv_9_dw_batchnorm", 
      "attrs": {"fix_gamma": "True"}, 
      "inputs": [[127, 0, 0], [128, 0, 0], [129, 0, 0], [130, 0, 1], [131, 0, 1]]
    }, 
    {
      "op": "Activation", 
      "name": "conv_9_dw_relu", 
      "attrs": {"act_type": "relu"}, 
      "inputs": [[132, 0, 0]]
    }, 
    {
      "op": "null", 
      "name": "conv_9_conv2d_weight", 
      "attrs": {
        "kernel": "(1, 1)", 
        "no_bias": "True", 
        "num_filter": "512", 
        "num_group": "1", 
        "pad": "(0, 0)", 
        "stride": "(1, 1)"
      }, 
      "inputs": []
    }, 
    {
      "op": "Convolution", 
      "name": "conv_9_conv2d", 
      "attrs": {
        "kernel": "(1, 1)", 
        "no_bias": "True", 
        "num_filter": "512", 
        "num_group": "1", 
        "pad": "(0, 0)", 
        "stride": "(1, 1)"
      }, 
      "inputs": [[133, 0, 0], [134, 0, 0]]
    }, 
    {
      "op": "null", 
      "name": "conv_9_batchnorm_gamma", 
      "attrs": {"fix_gamma": "True"}, 
      "inputs": []
    }, 
    {
      "op": "null", 
      "name": "conv_9_batchnorm_beta", 
      "attrs": {"fix_gamma": "True"}, 
      "inputs": []
    }, 
    {
      "op": "null", 
      "name": "conv_9_batchnorm_moving_mean", 
      "attrs": {
        "__init__": "[\"zero\", {}]", 
        "fix_gamma": "True"
      }, 
      "inputs": []
    }, 
    {
      "op": "null", 
      "name": "conv_9_batchnorm_moving_var", 
      "attrs": {
        "__init__": "[\"one\", {}]", 
        "fix_gamma": "True"
      }, 
      "inputs": []
    }, 
    {
      "op": "BatchNorm", 
      "name": "conv_9_batchnorm", 
      "attrs": {"fix_gamma": "True"}, 
      "inputs": [[135, 0, 0], [136, 0, 0], [137, 0, 0], [138, 0, 1], [139, 0, 1]]
    }, 
    {
      "op": "Activation", 
      "name": "conv_9_relu", 
      "attrs": {"act_type": "relu"}, 
      "inputs": [[140, 0, 0]]
    }, 
    {
      "op": "null", 
      "name": "conv_10_dw_conv2d_weight", 
      "attrs": {
        "kernel": "(3, 3)", 
        "no_bias": "True", 
        "num_filter": "512", 
        "num_group": "512", 
        "pad": "(1, 1)", 
        "stride": "(1, 1)"
      }, 
      "inputs": []
    }, 
    {
      "op": "Convolution", 
      "name": "conv_10_dw_conv2d", 
      "attrs": {
        "kernel": "(3, 3)", 
        "no_bias": "True", 
        "num_filter": "512", 
        "num_group": "512", 
        "pad": "(1, 1)", 
        "stride": "(1, 1)"
      }, 
      "inputs": [[141, 0, 0], [142, 0, 0]]
    }, 
    {
      "op": "null", 
      "name": "conv_10_dw_batchnorm_gamma", 
      "attrs": {"fix_gamma": "True"}, 
      "inputs": []
    }, 
    {
      "op": "null", 
      "name": "conv_10_dw_batchnorm_beta", 
      "attrs": {"fix_gamma": "True"}, 
      "inputs": []
    }, 
    {
      "op": "null", 
      "name": "conv_10_dw_batchnorm_moving_mean", 
      "attrs": {
        "__init__": "[\"zero\", {}]", 
        "fix_gamma": "True"
      }, 
      "inputs": []
    }, 
    {
      "op": "null", 
      "name": "conv_10_dw_batchnorm_moving_var", 
      "attrs": {
        "__init__": "[\"one\", {}]", 
        "fix_gamma": "True"
      }, 
      "inputs": []
    }, 
    {
      "op": "BatchNorm", 
      "name": "conv_10_dw_batchnorm", 
      "attrs": {"fix_gamma": "True"}, 
      "inputs": [[143, 0, 0], [144, 0, 0], [145, 0, 0], [146, 0, 1], [147, 0, 1]]
    }, 
    {
      "op": "Activation", 
      "name": "conv_10_dw_relu", 
      "attrs": {"act_type": "relu"}, 
      "inputs": [[148, 0, 0]]
    }, 
    {
      "op": "null", 
      "name": "conv_10_conv2d_weight", 
      "attrs": {
        "kernel": "(1, 1)", 
        "no_bias": "True", 
        "num_filter": "512", 
        "num_group": "1", 
        "pad": "(0, 0)", 
        "stride": "(1, 1)"
      }, 
      "inputs": []
    }, 
    {
      "op": "Convolution", 
      "name": "conv_10_conv2d", 
      "attrs": {
        "kernel": "(1, 1)", 
        "no_bias": "True", 
        "num_filter": "512", 
        "num_group": "1", 
        "pad": "(0, 0)", 
        "stride": "(1, 1)"
      }, 
      "inputs": [[149, 0, 0], [150, 0, 0]]
    }, 
    {
      "op": "null", 
      "name": "conv_10_batchnorm_gamma", 
      "attrs": {"fix_gamma": "True"}, 
      "inputs": []
    }, 
    {
      "op": "null", 
      "name": "conv_10_batchnorm_beta", 
      "attrs": {"fix_gamma": "True"}, 
      "inputs": []
    }, 
    {
      "op": "null", 
      "name": "conv_10_batchnorm_moving_mean", 
      "attrs": {
        "__init__": "[\"zero\", {}]", 
        "fix_gamma": "True"
      }, 
      "inputs": []
    }, 
    {
      "op": "null", 
      "name": "conv_10_batchnorm_moving_var", 
      "attrs": {
        "__init__": "[\"one\", {}]", 
        "fix_gamma": "True"
      }, 
      "inputs": []
    }, 
    {
      "op": "BatchNorm", 
      "name": "conv_10_batchnorm", 
      "attrs": {"fix_gamma": "True"}, 
      "inputs": [[151, 0, 0], [152, 0, 0], [153, 0, 0], [154, 0, 1], [155, 0, 1]]
    }, 
    {
      "op": "Activation", 
      "name": "conv_10_relu", 
      "attrs": {"act_type": "relu"}, 
      "inputs": [[156, 0, 0]]
    }, 
    {
      "op": "null", 
      "name": "conv_11_dw_conv2d_weight", 
      "attrs": {
        "kernel": "(3, 3)", 
        "no_bias": "True", 
        "num_filter": "512", 
        "num_group": "512", 
        "pad": "(1, 1)", 
        "stride": "(1, 1)"
      }, 
      "inputs": []
    }, 
    {
      "op": "Convolution", 
      "name": "conv_11_dw_conv2d", 
      "attrs": {
        "kernel": "(3, 3)", 
        "no_bias": "True", 
        "num_filter": "512", 
        "num_group": "512", 
        "pad": "(1, 1)", 
        "stride": "(1, 1)"
      }, 
      "inputs": [[157, 0, 0], [158, 0, 0]]
    }, 
    {
      "op": "null", 
      "name": "conv_11_dw_batchnorm_gamma", 
      "attrs": {"fix_gamma": "True"}, 
      "inputs": []
    }, 
    {
      "op": "null", 
      "name": "conv_11_dw_batchnorm_beta", 
      "attrs": {"fix_gamma": "True"}, 
      "inputs": []
    }, 
    {
      "op": "null", 
      "name": "conv_11_dw_batchnorm_moving_mean", 
      "attrs": {
        "__init__": "[\"zero\", {}]", 
        "fix_gamma": "True"
      }, 
      "inputs": []
    }, 
    {
      "op": "null", 
      "name": "conv_11_dw_batchnorm_moving_var", 
      "attrs": {
        "__init__": "[\"one\", {}]", 
        "fix_gamma": "True"
      }, 
      "inputs": []
    }, 
    {
      "op": "BatchNorm", 
      "name": "conv_11_dw_batchnorm", 
      "attrs": {"fix_gamma": "True"}, 
      "inputs": [[159, 0, 0], [160, 0, 0], [161, 0, 0], [162, 0, 1], [163, 0, 1]]
    }, 
    {
      "op": "Activation", 
      "name": "conv_11_dw_relu", 
      "attrs": {"act_type": "relu"}, 
      "inputs": [[164, 0, 0]]
    }, 
    {
      "op": "null", 
      "name": "conv_11_conv2d_weight", 
      "attrs": {
        "kernel": "(1, 1)", 
        "no_bias": "True", 
        "num_filter": "512", 
        "num_group": "1", 
        "pad": "(0, 0)", 
        "stride": "(1, 1)"
      }, 
      "inputs": []
    }, 
    {
      "op": "Convolution", 
      "name": "conv_11_conv2d", 
      "attrs": {
        "kernel": "(1, 1)", 
        "no_bias": "True", 
        "num_filter": "512", 
        "num_group": "1", 
        "pad": "(0, 0)", 
        "stride": "(1, 1)"
      }, 
      "inputs": [[165, 0, 0], [166, 0, 0]]
    }, 
    {
      "op": "null", 
      "name": "conv_11_batchnorm_gamma", 
      "attrs": {"fix_gamma": "True"}, 
      "inputs": []
    }, 
    {
      "op": "null", 
      "name": "conv_11_batchnorm_beta", 
      "attrs": {"fix_gamma": "True"}, 
      "inputs": []
    }, 
    {
      "op": "null", 
      "name": "conv_11_batchnorm_moving_mean", 
      "attrs": {
        "__init__": "[\"zero\", {}]", 
        "fix_gamma": "True"
      }, 
      "inputs": []
    }, 
    {
      "op": "null", 
      "name": "conv_11_batchnorm_moving_var", 
      "attrs": {
        "__init__": "[\"one\", {}]", 
        "fix_gamma": "True"
      }, 
      "inputs": []
    }, 
    {
      "op": "BatchNorm", 
      "name": "conv_11_batchnorm", 
      "attrs": {"fix_gamma": "True"}, 
      "inputs": [[167, 0, 0], [168, 0, 0], [169, 0, 0], [170, 0, 1], [171, 0, 1]]
    }, 
    {
      "op": "Activation", 
      "name": "conv_11_relu", 
      "attrs": {"act_type": "relu"}, 
      "inputs": [[172, 0, 0]]
    }, 
    {
      "op": "null", 
      "name": "conv_12_dw_conv2d_weight", 
      "attrs": {
        "kernel": "(3, 3)", 
        "no_bias": "True", 
        "num_filter": "512", 
        "num_group": "512", 
        "pad": "(1, 1)", 
        "stride": "(1, 1)"
      }, 
      "inputs": []
    }, 
    {
      "op": "Convolution", 
      "name": "conv_12_dw_conv2d", 
      "attrs": {
        "kernel": "(3, 3)", 
        "no_bias": "True", 
        "num_filter": "512", 
        "num_group": "512", 
        "pad": "(1, 1)", 
        "stride": "(1, 1)"
      }, 
      "inputs": [[173, 0, 0], [174, 0, 0]]
    }, 
    {
      "op": "null", 
      "name": "conv_12_dw_batchnorm_gamma", 
      "attrs": {"fix_gamma": "True"}, 
      "inputs": []
    }, 
    {
      "op": "null", 
      "name": "conv_12_dw_batchnorm_beta", 
      "attrs": {"fix_gamma": "True"}, 
      "inputs": []
    }, 
    {
      "op": "null", 
      "name": "conv_12_dw_batchnorm_moving_mean", 
      "attrs": {
        "__init__": "[\"zero\", {}]", 
        "fix_gamma": "True"
      }, 
      "inputs": []
    }, 
    {
      "op": "null", 
      "name": "conv_12_dw_batchnorm_moving_var", 
      "attrs": {
        "__init__": "[\"one\", {}]", 
        "fix_gamma": "True"
      }, 
      "inputs": []
    }, 
    {
      "op": "BatchNorm", 
      "name": "conv_12_dw_batchnorm", 
      "attrs": {"fix_gamma": "True"}, 
      "inputs": [[175, 0, 0], [176, 0, 0], [177, 0, 0], [178, 0, 1], [179, 0, 1]]
    }, 
    {
      "op": "Activation", 
      "name": "conv_12_dw_relu", 
      "attrs": {"act_type": "relu"}, 
      "inputs": [[180, 0, 0]]
    }, 
    {
      "op": "null", 
      "name": "conv_12_conv2d_weight", 
      "attrs": {
        "kernel": "(1, 1)", 
        "no_bias": "True", 
        "num_filter": "512", 
        "num_group": "1", 
        "pad": "(0, 0)", 
        "stride": "(1, 1)"
      }, 
      "inputs": []
    }, 
    {
      "op": "Convolution", 
      "name": "conv_12_conv2d", 
      "attrs": {
        "kernel": "(1, 1)", 
        "no_bias": "True", 
        "num_filter": "512", 
        "num_group": "1", 
        "pad": "(0, 0)", 
        "stride": "(1, 1)"
      }, 
      "inputs": [[181, 0, 0], [182, 0, 0]]
    }, 
    {
      "op": "null", 
      "name": "conv_12_batchnorm_gamma", 
      "attrs": {"fix_gamma": "True"}, 
      "inputs": []
    }, 
    {
      "op": "null", 
      "name": "conv_12_batchnorm_beta", 
      "attrs": {"fix_gamma": "True"}, 
      "inputs": []
    }, 
    {
      "op": "null", 
      "name": "conv_12_batchnorm_moving_mean", 
      "attrs": {
        "__init__": "[\"zero\", {}]", 
        "fix_gamma": "True"
      }, 
      "inputs": []
    }, 
    {
      "op": "null", 
      "name": "conv_12_batchnorm_moving_var", 
      "attrs": {
        "__init__": "[\"one\", {}]", 
        "fix_gamma": "True"
      }, 
      "inputs": []
    }, 
    {
      "op": "BatchNorm", 
      "name": "conv_12_batchnorm", 
      "attrs": {"fix_gamma": "True"}, 
      "inputs": [[183, 0, 0], [184, 0, 0], [185, 0, 0], [186, 0, 1], [187, 0, 1]]
    }, 
    {
      "op": "Activation", 
      "name": "conv_12_relu", 
      "attrs": {"act_type": "relu"}, 
      "inputs": [[188, 0, 0]]
    }, 
    {
      "op": "null", 
      "name": "conv_12_relu_cls_pred_conv_weight", 
      "attrs": {
        "kernel": "(3, 3)", 
        "num_filter": "20", 
        "pad": "(1, 1)", 
        "stride": "(1, 1)"
      }, 
      "inputs": []
    }, 
    {
      "op": "null", 
      "name": "conv_12_relu_cls_pred_conv_bias", 
      "attrs": {
        "__init__": "[\"constant\", {\"value\": 0.0}]", 
        "__lr_mult__": "2.0"
      }, 
      "inputs": []
    }, 
    {
      "op": "Convolution", 
      "name": "conv_12_relu_cls_pred_conv", 
      "attrs": {
        "kernel": "(3, 3)", 
        "num_filter": "20", 
        "pad": "(1, 1)", 
        "stride": "(1, 1)"
      }, 
      "inputs": [[189, 0, 0], [190, 0, 0], [191, 0, 0]]
    }, 
    {
      "op": "transpose", 
      "name": "transpose3", 
      "attrs": {"axes": "(0, 2, 3, 1)"}, 
      "inputs": [[192, 0, 0]]
    }, 
    {
      "op": "Flatten", 
      "name": "flatten4", 
      "inputs": [[193, 0, 0]]
    }, 
    {
      "op": "null", 
      "name": "conv_13_dw_conv2d_weight", 
      "attrs": {
        "kernel": "(3, 3)", 
        "no_bias": "True", 
        "num_filter": "512", 
        "num_group": "512", 
        "pad": "(1, 1)", 
        "stride": "(2, 2)"
      }, 
      "inputs": []
    }, 
    {
      "op": "Convolution", 
      "name": "conv_13_dw_conv2d", 
      "attrs": {
        "kernel": "(3, 3)", 
        "no_bias": "True", 
        "num_filter": "512", 
        "num_group": "512", 
        "pad": "(1, 1)", 
        "stride": "(2, 2)"
      }, 
      "inputs": [[189, 0, 0], [195, 0, 0]]
    }, 
    {
      "op": "null", 
      "name": "conv_13_dw_batchnorm_gamma", 
      "attrs": {"fix_gamma": "True"}, 
      "inputs": []
    }, 
    {
      "op": "null", 
      "name": "conv_13_dw_batchnorm_beta", 
      "attrs": {"fix_gamma": "True"}, 
      "inputs": []
    }, 
    {
      "op": "null", 
      "name": "conv_13_dw_batchnorm_moving_mean", 
      "attrs": {
        "__init__": "[\"zero\", {}]", 
        "fix_gamma": "True"
      }, 
      "inputs": []
    }, 
    {
      "op": "null", 
      "name": "conv_13_dw_batchnorm_moving_var", 
      "attrs": {
        "__init__": "[\"one\", {}]", 
        "fix_gamma": "True"
      }, 
      "inputs": []
    }, 
    {
      "op": "BatchNorm", 
      "name": "conv_13_dw_batchnorm", 
      "attrs": {"fix_gamma": "True"}, 
      "inputs": [[196, 0, 0], [197, 0, 0], [198, 0, 0], [199, 0, 1], [200, 0, 1]]
    }, 
    {
      "op": "Activation", 
      "name": "conv_13_dw_relu", 
      "attrs": {"act_type": "relu"}, 
      "inputs": [[201, 0, 0]]
    }, 
    {
      "op": "null", 
      "name": "conv_13_conv2d_weight", 
      "attrs": {
        "kernel": "(1, 1)", 
        "no_bias": "True", 
        "num_filter": "1024", 
        "num_group": "1", 
        "pad": "(0, 0)", 
        "stride": "(1, 1)"
      }, 
      "inputs": []
    }, 
    {
      "op": "Convolution", 
      "name": "conv_13_conv2d", 
      "attrs": {
        "kernel": "(1, 1)", 
        "no_bias": "True", 
        "num_filter": "1024", 
        "num_group": "1", 
        "pad": "(0, 0)", 
        "stride": "(1, 1)"
      }, 
      "inputs": [[202, 0, 0], [203, 0, 0]]
    }, 
    {
      "op": "null", 
      "name": "conv_13_batchnorm_gamma", 
      "attrs": {"fix_gamma": "True"}, 
      "inputs": []
    }, 
    {
      "op": "null", 
      "name": "conv_13_batchnorm_beta", 
      "attrs": {"fix_gamma": "True"}, 
      "inputs": []
    }, 
    {
      "op": "null", 
      "name": "conv_13_batchnorm_moving_mean", 
      "attrs": {
        "__init__": "[\"zero\", {}]", 
        "fix_gamma": "True"
      }, 
      "inputs": []
    }, 
    {
      "op": "null", 
      "name": "conv_13_batchnorm_moving_var", 
      "attrs": {
        "__init__": "[\"one\", {}]", 
        "fix_gamma": "True"
      }, 
      "inputs": []
    }, 
    {
      "op": "BatchNorm", 
      "name": "conv_13_batchnorm", 
      "attrs": {"fix_gamma": "True"}, 
      "inputs": [[204, 0, 0], [205, 0, 0], [206, 0, 0], [207, 0, 1], [208, 0, 1]]
    }, 
    {
      "op": "Activation", 
      "name": "conv_13_relu", 
      "attrs": {"act_type": "relu"}, 
      "inputs": [[209, 0, 0]]
    }, 
    {
      "op": "null", 
      "name": "conv_14_dw_conv2d_weight", 
      "attrs": {
        "kernel": "(3, 3)", 
        "no_bias": "True", 
        "num_filter": "1024", 
        "num_group": "1024", 
        "pad": "(1, 1)", 
        "stride": "(1, 1)"
      }, 
      "inputs": []
    }, 
    {
      "op": "Convolution", 
      "name": "conv_14_dw_conv2d", 
      "attrs": {
        "kernel": "(3, 3)", 
        "no_bias": "True", 
        "num_filter": "1024", 
        "num_group": "1024", 
        "pad": "(1, 1)", 
        "stride": "(1, 1)"
      }, 
      "inputs": [[210, 0, 0], [211, 0, 0]]
    }, 
    {
      "op": "null", 
      "name": "conv_14_dw_batchnorm_gamma", 
      "attrs": {"fix_gamma": "True"}, 
      "inputs": []
    }, 
    {
      "op": "null", 
      "name": "conv_14_dw_batchnorm_beta", 
      "attrs": {"fix_gamma": "True"}, 
      "inputs": []
    }, 
    {
      "op": "null", 
      "name": "conv_14_dw_batchnorm_moving_mean", 
      "attrs": {
        "__init__": "[\"zero\", {}]", 
        "fix_gamma": "True"
      }, 
      "inputs": []
    }, 
    {
      "op": "null", 
      "name": "conv_14_dw_batchnorm_moving_var", 
      "attrs": {
        "__init__": "[\"one\", {}]", 
        "fix_gamma": "True"
      }, 
      "inputs": []
    }, 
    {
      "op": "BatchNorm", 
      "name": "conv_14_dw_batchnorm", 
      "attrs": {"fix_gamma": "True"}, 
      "inputs": [[212, 0, 0], [213, 0, 0], [214, 0, 0], [215, 0, 1], [216, 0, 1]]
    }, 
    {
      "op": "Activation", 
      "name": "conv_14_dw_relu", 
      "attrs": {"act_type": "relu"}, 
      "inputs": [[217, 0, 0]]
    }, 
    {
      "op": "null", 
      "name": "conv_14_conv2d_weight", 
      "attrs": {
        "kernel": "(1, 1)", 
        "no_bias": "True", 
        "num_filter": "1024", 
        "num_group": "1", 
        "pad": "(0, 0)", 
        "stride": "(1, 1)"
      }, 
      "inputs": []
    }, 
    {
      "op": "Convolution", 
      "name": "conv_14_conv2d", 
      "attrs": {
        "kernel": "(1, 1)", 
        "no_bias": "True", 
        "num_filter": "1024", 
        "num_group": "1", 
        "pad": "(0, 0)", 
        "stride": "(1, 1)"
      }, 
      "inputs": [[218, 0, 0], [219, 0, 0]]
    }, 
    {
      "op": "null", 
      "name": "conv_14_batchnorm_gamma", 
      "attrs": {"fix_gamma": "True"}, 
      "inputs": []
    }, 
    {
      "op": "null", 
      "name": "conv_14_batchnorm_beta", 
      "attrs": {"fix_gamma": "True"}, 
      "inputs": []
    }, 
    {
      "op": "null", 
      "name": "conv_14_batchnorm_moving_mean", 
      "attrs": {
        "__init__": "[\"zero\", {}]", 
        "fix_gamma": "True"
      }, 
      "inputs": []
    }, 
    {
      "op": "null", 
      "name": "conv_14_batchnorm_moving_var", 
      "attrs": {
        "__init__": "[\"one\", {}]", 
        "fix_gamma": "True"
      }, 
      "inputs": []
    }, 
    {
      "op": "BatchNorm", 
      "name": "conv_14_batchnorm", 
      "attrs": {"fix_gamma": "True"}, 
      "inputs": [[220, 0, 0], [221, 0, 0], [222, 0, 0], [223, 0, 1], [224, 0, 1]]
    }, 
    {
      "op": "Activation", 
      "name": "conv_14_relu", 
      "attrs": {"act_type": "relu"}, 
      "inputs": [[225, 0, 0]]
    }, 
    {
      "op": "null", 
      "name": "conv_14_relu_cls_pred_conv_weight", 
      "attrs": {
        "kernel": "(3, 3)", 
        "num_filter": "30", 
        "pad": "(1, 1)", 
        "stride": "(1, 1)"
      }, 
      "inputs": []
    }, 
    {
      "op": "null", 
      "name": "conv_14_relu_cls_pred_conv_bias", 
      "attrs": {
        "__init__": "[\"constant\", {\"value\": 0.0}]", 
        "__lr_mult__": "2.0"
      }, 
      "inputs": []
    }, 
    {
      "op": "Convolution", 
      "name": "conv_14_relu_cls_pred_conv", 
      "attrs": {
        "kernel": "(3, 3)", 
        "num_filter": "30", 
        "pad": "(1, 1)", 
        "stride": "(1, 1)"
      }, 
      "inputs": [[226, 0, 0], [227, 0, 0], [228, 0, 0]]
    }, 
    {
      "op": "transpose", 
      "name": "transpose5", 
      "attrs": {"axes": "(0, 2, 3, 1)"}, 
      "inputs": [[229, 0, 0]]
    }, 
    {
      "op": "Flatten", 
      "name": "flatten7", 
      "inputs": [[230, 0, 0]]
    }, 
    {
      "op": "null", 
      "name": "multi_feat_3_conv_1x1_conv_weight", 
      "attrs": {
        "kernel": "(1, 1)", 
        "num_filter": "256", 
        "pad": "(0, 0)", 
        "stride": "(1, 1)"
      }, 
      "inputs": []
    }, 
    {
      "op": "null", 
      "name": "multi_feat_3_conv_1x1_conv_bias", 
      "attrs": {
        "__init__": "[\"constant\", {\"value\": 0.0}]", 
        "__lr_mult__": "2.0"
      }, 
      "inputs": []
    }, 
    {
      "op": "Convolution", 
      "name": "multi_feat_3_conv_1x1_conv", 
      "attrs": {
        "kernel": "(1, 1)", 
        "num_filter": "256", 
        "pad": "(0, 0)", 
        "stride": "(1, 1)"
      }, 
      "inputs": [[226, 0, 0], [232, 0, 0], [233, 0, 0]]
    }, 
    {
      "op": "Activation", 
      "name": "multi_feat_3_conv_1x1_relu", 
      "attrs": {"act_type": "relu"}, 
      "inputs": [[234, 0, 0]]
    }, 
    {
      "op": "null", 
      "name": "multi_feat_3_conv_3x3_conv_weight", 
      "attrs": {
        "kernel": "(3, 3)", 
        "num_filter": "512", 
        "pad": "(1, 1)", 
        "stride": "(2, 2)"
      }, 
      "inputs": []
    }, 
    {
      "op": "null", 
      "name": "multi_feat_3_conv_3x3_conv_bias", 
      "attrs": {
        "__init__": "[\"constant\", {\"value\": 0.0}]", 
        "__lr_mult__": "2.0"
      }, 
      "inputs": []
    }, 
    {
      "op": "Convolution", 
      "name": "multi_feat_3_conv_3x3_conv", 
      "attrs": {
        "kernel": "(3, 3)", 
        "num_filter": "512", 
        "pad": "(1, 1)", 
        "stride": "(2, 2)"
      }, 
      "inputs": [[235, 0, 0], [236, 0, 0], [237, 0, 0]]
    }, 
    {
      "op": "Activation", 
      "name": "multi_feat_3_conv_3x3_relu", 
      "attrs": {"act_type": "relu"}, 
      "inputs": [[238, 0, 0]]
    }, 
    {
      "op": "null", 
      "name": "multi_feat_3_conv_3x3_relu_cls_pred_conv_weight", 
      "attrs": {
        "kernel": "(3, 3)", 
        "num_filter": "30", 
        "pad": "(1, 1)", 
        "stride": "(1, 1)"
      }, 
      "inputs": []
    }, 
    {
      "op": "null", 
      "name": "multi_feat_3_conv_3x3_relu_cls_pred_conv_bias", 
      "attrs": {
        "__init__": "[\"constant\", {\"value\": 0.0}]", 
        "__lr_mult__": "2.0"
      }, 
      "inputs": []
    }, 
    {
      "op": "Convolution", 
      "name": "multi_feat_3_conv_3x3_relu_cls_pred_conv", 
      "attrs": {
        "kernel": "(3, 3)", 
        "num_filter": "30", 
        "pad": "(1, 1)", 
        "stride": "(1, 1)"
      }, 
      "inputs": [[239, 0, 0], [240, 0, 0], [241, 0, 0]]
    }, 
    {
      "op": "transpose", 
      "name": "transpose7", 
      "attrs": {"axes": "(0, 2, 3, 1)"}, 
      "inputs": [[242, 0, 0]]
    }, 
    {
      "op": "Flatten", 
      "name": "flatten10", 
      "inputs": [[243, 0, 0]]
    }, 
    {
      "op": "null", 
      "name": "multi_feat_4_conv_1x1_conv_weight", 
      "attrs": {
        "kernel": "(1, 1)", 
        "num_filter": "128", 
        "pad": "(0, 0)", 
        "stride": "(1, 1)"
      }, 
      "inputs": []
    }, 
    {
      "op": "null", 
      "name": "multi_feat_4_conv_1x1_conv_bias", 
      "attrs": {
        "__init__": "[\"constant\", {\"value\": 0.0}]", 
        "__lr_mult__": "2.0"
      }, 
      "inputs": []
    }, 
    {
      "op": "Convolution", 
      "name": "multi_feat_4_conv_1x1_conv", 
      "attrs": {
        "kernel": "(1, 1)", 
        "num_filter": "128", 
        "pad": "(0, 0)", 
        "stride": "(1, 1)"
      }, 
      "inputs": [[239, 0, 0], [245, 0, 0], [246, 0, 0]]
    }, 
    {
      "op": "Activation", 
      "name": "multi_feat_4_conv_1x1_relu", 
      "attrs": {"act_type": "relu"}, 
      "inputs": [[247, 0, 0]]
    }, 
    {
      "op": "null", 
      "name": "multi_feat_4_conv_3x3_conv_weight", 
      "attrs": {
        "kernel": "(3, 3)", 
        "num_filter": "256", 
        "pad": "(1, 1)", 
        "stride": "(2, 2)"
      }, 
      "inputs": []
    }, 
    {
      "op": "null", 
      "name": "multi_feat_4_conv_3x3_conv_bias", 
      "attrs": {
        "__init__": "[\"constant\", {\"value\": 0.0}]", 
        "__lr_mult__": "2.0"
      }, 
      "inputs": []
    }, 
    {
      "op": "Convolution", 
      "name": "multi_feat_4_conv_3x3_conv", 
      "attrs": {
        "kernel": "(3, 3)", 
        "num_filter": "256", 
        "pad": "(1, 1)", 
        "stride": "(2, 2)"
      }, 
      "inputs": [[248, 0, 0], [249, 0, 0], [250, 0, 0]]
    }, 
    {
      "op": "Activation", 
      "name": "multi_feat_4_conv_3x3_relu", 
      "attrs": {"act_type": "relu"}, 
      "inputs": [[251, 0, 0]]
    }, 
    {
      "op": "null", 
      "name": "multi_feat_4_conv_3x3_relu_cls_pred_conv_weight", 
      "attrs": {
        "kernel": "(3, 3)", 
        "num_filter": "30", 
        "pad": "(1, 1)", 
        "stride": "(1, 1)"
      }, 
      "inputs": []
    }, 
    {
      "op": "null", 
      "name": "multi_feat_4_conv_3x3_relu_cls_pred_conv_bias", 
      "attrs": {
        "__init__": "[\"constant\", {\"value\": 0.0}]", 
        "__lr_mult__": "2.0"
      }, 
      "inputs": []
    }, 
    {
      "op": "Convolution", 
      "name": "multi_feat_4_conv_3x3_relu_cls_pred_conv", 
      "attrs": {
        "kernel": "(3, 3)", 
        "num_filter": "30", 
        "pad": "(1, 1)", 
        "stride": "(1, 1)"
      }, 
      "inputs": [[252, 0, 0], [253, 0, 0], [254, 0, 0]]
    }, 
    {
      "op": "transpose", 
      "name": "transpose9", 
      "attrs": {"axes": "(0, 2, 3, 1)"}, 
      "inputs": [[255, 0, 0]]
    }, 
    {
      "op": "Flatten", 
      "name": "flatten13", 
      "inputs": [[256, 0, 0]]
    }, 
    {
      "op": "null", 
      "name": "multi_feat_5_conv_1x1_conv_weight", 
      "attrs": {
        "kernel": "(1, 1)", 
        "num_filter": "128", 
        "pad": "(0, 0)", 
        "stride": "(1, 1)"
      }, 
      "inputs": []
    }, 
    {
      "op": "null", 
      "name": "multi_feat_5_conv_1x1_conv_bias", 
      "attrs": {
        "__init__": "[\"constant\", {\"value\": 0.0}]", 
        "__lr_mult__": "2.0"
      }, 
      "inputs": []
    }, 
    {
      "op": "Convolution", 
      "name": "multi_feat_5_conv_1x1_conv", 
      "attrs": {
        "kernel": "(1, 1)", 
        "num_filter": "128", 
        "pad": "(0, 0)", 
        "stride": "(1, 1)"
      }, 
      "inputs": [[252, 0, 0], [258, 0, 0], [259, 0, 0]]
    }, 
    {
      "op": "Activation", 
      "name": "multi_feat_5_conv_1x1_relu", 
      "attrs": {"act_type": "relu"}, 
      "inputs": [[260, 0, 0]]
    }, 
    {
      "op": "null", 
      "name": "multi_feat_5_conv_3x3_conv_weight", 
      "attrs": {
        "kernel": "(3, 3)", 
        "num_filter": "256", 
        "pad": "(1, 1)", 
        "stride": "(2, 2)"
      }, 
      "inputs": []
    }, 
    {
      "op": "null", 
      "name": "multi_feat_5_conv_3x3_conv_bias", 
      "attrs": {
        "__init__": "[\"constant\", {\"value\": 0.0}]", 
        "__lr_mult__": "2.0"
      }, 
      "inputs": []
    }, 
    {
      "op": "Convolution", 
      "name": "multi_feat_5_conv_3x3_conv", 
      "attrs": {
        "kernel": "(3, 3)", 
        "num_filter": "256", 
        "pad": "(1, 1)", 
        "stride": "(2, 2)"
      }, 
      "inputs": [[261, 0, 0], [262, 0, 0], [263, 0, 0]]
    }, 
    {
      "op": "Activation", 
      "name": "multi_feat_5_conv_3x3_relu", 
      "attrs": {"act_type": "relu"}, 
      "inputs": [[264, 0, 0]]
    }, 
    {
      "op": "null", 
      "name": "multi_feat_5_conv_3x3_relu_cls_pred_conv_weight", 
      "attrs": {
        "kernel": "(3, 3)", 
        "num_filter": "30", 
        "pad": "(1, 1)", 
        "stride": "(1, 1)"
      }, 
      "inputs": []
    }, 
    {
      "op": "null", 
      "name": "multi_feat_5_conv_3x3_relu_cls_pred_conv_bias", 
      "attrs": {
        "__init__": "[\"constant\", {\"value\": 0.0}]", 
        "__lr_mult__": "2.0"
      }, 
      "inputs": []
    }, 
    {
      "op": "Convolution", 
      "name": "multi_feat_5_conv_3x3_relu_cls_pred_conv", 
      "attrs": {
        "kernel": "(3, 3)", 
        "num_filter": "30", 
        "pad": "(1, 1)", 
        "stride": "(1, 1)"
      }, 
      "inputs": [[265, 0, 0], [266, 0, 0], [267, 0, 0]]
    }, 
    {
      "op": "transpose", 
      "name": "transpose11", 
      "attrs": {"axes": "(0, 2, 3, 1)"}, 
      "inputs": [[268, 0, 0]]
    }, 
    {
      "op": "Flatten", 
      "name": "flatten16", 
      "inputs": [[269, 0, 0]]
    }, 
    {
      "op": "null", 
      "name": "multi_feat_6_conv_1x1_conv_weight", 
      "attrs": {
        "kernel": "(1, 1)", 
        "num_filter": "128", 
        "pad": "(0, 0)", 
        "stride": "(1, 1)"
      }, 
      "inputs": []
    }, 
    {
      "op": "null", 
      "name": "multi_feat_6_conv_1x1_conv_bias", 
      "attrs": {
        "__init__": "[\"constant\", {\"value\": 0.0}]", 
        "__lr_mult__": "2.0"
      }, 
      "inputs": []
    }, 
    {
      "op": "Convolution", 
      "name": "multi_feat_6_conv_1x1_conv", 
      "attrs": {
        "kernel": "(1, 1)", 
        "num_filter": "128", 
        "pad": "(0, 0)", 
        "stride": "(1, 1)"
      }, 
      "inputs": [[265, 0, 0], [271, 0, 0], [272, 0, 0]]
    }, 
    {
      "op": "Activation", 
      "name": "multi_feat_6_conv_1x1_relu", 
      "attrs": {"act_type": "relu"}, 
      "inputs": [[273, 0, 0]]
    }, 
    {
      "op": "null", 
      "name": "multi_feat_6_conv_3x3_conv_weight", 
      "attrs": {
        "kernel": "(3, 3)", 
        "num_filter": "256", 
        "pad": "(1, 1)", 
        "stride": "(2, 2)"
      }, 
      "inputs": []
    }, 
    {
      "op": "null", 
      "name": "multi_feat_6_conv_3x3_conv_bias", 
      "attrs": {
        "__init__": "[\"constant\", {\"value\": 0.0}]", 
        "__lr_mult__": "2.0"
      }, 
      "inputs": []
    }, 
    {
      "op": "Convolution", 
      "name": "multi_feat_6_conv_3x3_conv", 
      "attrs": {
        "kernel": "(3, 3)", 
        "num_filter": "256", 
        "pad": "(1, 1)", 
        "stride": "(2, 2)"
      }, 
      "inputs": [[274, 0, 0], [275, 0, 0], [276, 0, 0]]
    }, 
    {
      "op": "Activation", 
      "name": "multi_feat_6_conv_3x3_relu", 
      "attrs": {"act_type": "relu"}, 
      "inputs": [[277, 0, 0]]
    }, 
    {
      "op": "null", 
      "name": "multi_feat_6_conv_3x3_relu_cls_pred_conv_weight", 
      "attrs": {
        "kernel": "(3, 3)", 
        "num_filter": "20", 
        "pad": "(1, 1)", 
        "stride": "(1, 1)"
      }, 
      "inputs": []
    }, 
    {
      "op": "null", 
      "name": "multi_feat_6_conv_3x3_relu_cls_pred_conv_bias", 
      "attrs": {
        "__init__": "[\"constant\", {\"value\": 0.0}]", 
        "__lr_mult__": "2.0"
      }, 
      "inputs": []
    }, 
    {
      "op": "Convolution", 
      "name": "multi_feat_6_conv_3x3_relu_cls_pred_conv", 
      "attrs": {
        "kernel": "(3, 3)", 
        "num_filter": "20", 
        "pad": "(1, 1)", 
        "stride": "(1, 1)"
      }, 
      "inputs": [[278, 0, 0], [279, 0, 0], [280, 0, 0]]
    }, 
    {
      "op": "transpose", 
      "name": "transpose13", 
      "attrs": {"axes": "(0, 2, 3, 1)"}, 
      "inputs": [[281, 0, 0]]
    }, 
    {
      "op": "Flatten", 
      "name": "flatten19", 
      "inputs": [[282, 0, 0]]
    }, 
    {
      "op": "null", 
      "name": "multi_feat_7_conv_1x1_conv_weight", 
      "attrs": {
        "kernel": "(1, 1)", 
        "num_filter": "128", 
        "pad": "(0, 0)", 
        "stride": "(1, 1)"
      }, 
      "inputs": []
    }, 
    {
      "op": "null", 
      "name": "multi_feat_7_conv_1x1_conv_bias", 
      "attrs": {
        "__init__": "[\"constant\", {\"value\": 0.0}]", 
        "__lr_mult__": "2.0"
      }, 
      "inputs": []
    }, 
    {
      "op": "Convolution", 
      "name": "multi_feat_7_conv_1x1_conv", 
      "attrs": {
        "kernel": "(1, 1)", 
        "num_filter": "128", 
        "pad": "(0, 0)", 
        "stride": "(1, 1)"
      }, 
      "inputs": [[278, 0, 0], [284, 0, 0], [285, 0, 0]]
    }, 
    {
      "op": "Activation", 
      "name": "multi_feat_7_conv_1x1_relu", 
      "attrs": {"act_type": "relu"}, 
      "inputs": [[286, 0, 0]]
    }, 
    {
      "op": "null", 
      "name": "multi_feat_7_conv_3x3_conv_weight", 
      "attrs": {
        "kernel": "(3, 3)", 
        "num_filter": "256", 
        "pad": "(1, 1)", 
        "stride": "(2, 2)"
      }, 
      "inputs": []
    }, 
    {
      "op": "null", 
      "name": "multi_feat_7_conv_3x3_conv_bias", 
      "attrs": {
        "__init__": "[\"constant\", {\"value\": 0.0}]", 
        "__lr_mult__": "2.0"
      }, 
      "inputs": []
    }, 
    {
      "op": "Convolution", 
      "name": "multi_feat_7_conv_3x3_conv", 
      "attrs": {
        "kernel": "(3, 3)", 
        "num_filter": "256", 
        "pad": "(1, 1)", 
        "stride": "(2, 2)"
      }, 
      "inputs": [[287, 0, 0], [288, 0, 0], [289, 0, 0]]
    }, 
    {
      "op": "Activation", 
      "name": "multi_feat_7_conv_3x3_relu", 
      "attrs": {"act_type": "relu"}, 
      "inputs": [[290, 0, 0]]
    }, 
    {
      "op": "null", 
      "name": "multi_feat_7_conv_3x3_relu_cls_pred_conv_weight", 
      "attrs": {
        "kernel": "(3, 3)", 
        "num_filter": "20", 
        "pad": "(1, 1)", 
        "stride": "(1, 1)"
      }, 
      "inputs": []
    }, 
    {
      "op": "null", 
      "name": "multi_feat_7_conv_3x3_relu_cls_pred_conv_bias", 
      "attrs": {
        "__init__": "[\"constant\", {\"value\": 0.0}]", 
        "__lr_mult__": "2.0"
      }, 
      "inputs": []
    }, 
    {
      "op": "Convolution", 
      "name": "multi_feat_7_conv_3x3_relu_cls_pred_conv", 
      "attrs": {
        "kernel": "(3, 3)", 
        "num_filter": "20", 
        "pad": "(1, 1)", 
        "stride": "(1, 1)"
      }, 
      "inputs": [[291, 0, 0], [292, 0, 0], [293, 0, 0]]
    }, 
    {
      "op": "transpose", 
      "name": "transpose15", 
      "attrs": {"axes": "(0, 2, 3, 1)"}, 
      "inputs": [[294, 0, 0]]
    }, 
    {
      "op": "Flatten", 
      "name": "flatten22", 
      "inputs": [[295, 0, 0]]
    }, 
    {
      "op": "Concat", 
      "name": "concat0", 
      "attrs": {
        "dim": "1", 
        "num_args": "8"
      }, 
      "inputs": [[93, 0, 0], [194, 0, 0], [231, 0, 0], [244, 0, 0], [257, 0, 0], [270, 0, 0], [283, 0, 0], [296, 0, 0]]
    }, 
    {
      "op": "Reshape", 
      "name": "reshape0", 
      "attrs": {"shape": "(0, -1, 5)"}, 
      "inputs": [[297, 0, 0]]
    }, 
    {
      "op": "transpose", 
      "name": "multibox_cls_pred", 
      "attrs": {"axes": "(0, 2, 1)"}, 
      "inputs": [[298, 0, 0]]
    }, 
    {
      "op": "_contrib_MultiBoxPrior", 
      "name": "conv_6_relu_anchors", 
      "attrs": {
        "clip": "False", 
        "ratios": "(1,2,0.5)", 
        "sizes": "(0.07,0.10247)", 
        "steps": "(-1.0, -1.0)"
      }, 
      "inputs": [[88, 0, 0]]
    }, 
    {
      "op": "Flatten", 
      "name": "flatten2", 
      "inputs": [[300, 0, 0]]
    }, 
    {
      "op": "_contrib_MultiBoxPrior", 
      "name": "conv_12_relu_anchors", 
      "attrs": {
        "clip": "False", 
        "ratios": "(1,2,0.5)", 
        "sizes": "(0.15,0.201246)", 
        "steps": "(-1.0, -1.0)"
      }, 
      "inputs": [[189, 0, 0]]
    }, 
    {
      "op": "Flatten", 
      "name": "flatten5", 
      "inputs": [[302, 0, 0]]
    }, 
    {
      "op": "_contrib_MultiBoxPrior", 
      "name": "conv_14_relu_anchors", 
      "attrs": {
        "clip": "False", 
        "ratios": "(1,2,0.5,3,0.333333333333)", 
        "sizes": "(0.27,0.3245)", 
        "steps": "(-1.0, -1.0)"
      }, 
      "inputs": [[226, 0, 0]]
    }, 
    {
      "op": "Flatten", 
      "name": "flatten8", 
      "inputs": [[304, 0, 0]]
    }, 
    {
      "op": "_contrib_MultiBoxPrior", 
      "name": "multi_feat_3_conv_3x3_relu_anchors", 
      "attrs": {
        "clip": "False", 
        "ratios": "(1,2,0.5,3,0.333333333333)", 
        "sizes": "(0.39,0.445982)", 
        "steps": "(-1.0, -1.0)"
      }, 
      "inputs": [[239, 0, 0]]
    }, 
    {
      "op": "Flatten", 
      "name": "flatten11", 
      "inputs": [[306, 0, 0]]
    }, 
    {
      "op": "_contrib_MultiBoxPrior", 
      "name": "multi_feat_4_conv_3x3_relu_anchors", 
      "attrs": {
        "clip": "False", 
        "ratios": "(1,2,0.5,3,0.333333333333)", 
        "sizes": "(0.51,0.566833)", 
        "steps": "(-1.0, -1.0)"
      }, 
      "inputs": [[252, 0, 0]]
    }, 
    {
      "op": "Flatten", 
      "name": "flatten14", 
      "inputs": [[308, 0, 0]]
    }, 
    {
      "op": "_contrib_MultiBoxPrior", 
      "name": "multi_feat_5_conv_3x3_relu_anchors", 
      "attrs": {
        "clip": "False", 
        "ratios": "(1,2,0.5,3,0.333333333333)", 
        "sizes": "(0.63,0.687386)", 
        "steps": "(-1.0, -1.0)"
      }, 
      "inputs": [[265, 0, 0]]
    }, 
    {
      "op": "Flatten", 
      "name": "flatten17", 
      "inputs": [[310, 0, 0]]
    }, 
    {
      "op": "_contrib_MultiBoxPrior", 
      "name": "multi_feat_6_conv_3x3_relu_anchors", 
      "attrs": {
        "clip": "False", 
        "ratios": "(1,2,0.5)", 
        "sizes": "(0.75,0.807775)", 
        "steps": "(-1.0, -1.0)"
      }, 
      "inputs": [[278, 0, 0]]
    }, 
    {
      "op": "Flatten", 
      "name": "flatten20", 
      "inputs": [[312, 0, 0]]
    }, 
    {
      "op": "_contrib_MultiBoxPrior", 
      "name": "multi_feat_7_conv_3x3_relu_anchors", 
      "attrs": {
        "clip": "False", 
        "ratios": "(1,2,0.5)", 
        "sizes": "(0.87,0.928062)", 
        "steps": "(-1.0, -1.0)"
      }, 
      "inputs": [[291, 0, 0]]
    }, 
    {
      "op": "Flatten", 
      "name": "flatten23", 
      "inputs": [[314, 0, 0]]
    }, 
    {
      "op": "Concat", 
      "name": "concat1", 
      "attrs": {
        "dim": "1", 
        "num_args": "8"
      }, 
      "inputs": [[301, 0, 0], [303, 0, 0], [305, 0, 0], [307, 0, 0], [309, 0, 0], [311, 0, 0], [313, 0, 0], [315, 0, 0]]
    }, 
    {
      "op": "Reshape", 
      "name": "multibox_anchors", 
      "attrs": {"shape": "(0, -1, 4)"}, 
      "inputs": [[316, 0, 0]]
    }, 
    {
      "op": "null", 
      "name": "label", 
      "inputs": []
    }, 
    {
      "op": "_contrib_MultiBoxTarget", 
      "name": "multibox_target", 
      "attrs": {
        "ignore_label": "-1", 
        "minimum_negative_samples": "0", 
        "negative_mining_ratio": "3", 
        "negative_mining_thresh": "0.5", 
        "overlap_threshold": "0.5", 
        "variances": "(0.1, 0.1, 0.2, 0.2)"
      }, 
      "inputs": [[317, 0, 0], [318, 0, 0], [299, 0, 0]]
    }, 
    {
      "op": "SoftmaxOutput", 
      "name": "cls_prob", 
      "attrs": {
        "grad_scale": "1.0", 
        "ignore_label": "-1", 
        "multi_output": "True", 
        "normalization": "valid", 
        "use_ignore": "True"
      }, 
      "inputs": [[299, 0, 0], [319, 2, 0]]
    }, 
    {
      "op": "null", 
      "name": "conv_6_relu_loc_pred_conv_weight", 
      "attrs": {
        "kernel": "(3, 3)", 
        "num_filter": "16", 
        "pad": "(1, 1)", 
        "stride": "(1, 1)"
      }, 
      "inputs": []
    }, 
    {
      "op": "null", 
      "name": "conv_6_relu_loc_pred_conv_bias", 
      "attrs": {
        "__init__": "[\"constant\", {\"value\": 0.0}]", 
        "__lr_mult__": "2.0"
      }, 
      "inputs": []
    }, 
    {
      "op": "Convolution", 
      "name": "conv_6_relu_loc_pred_conv", 
      "attrs": {
        "kernel": "(3, 3)", 
        "num_filter": "16", 
        "pad": "(1, 1)", 
        "stride": "(1, 1)"
      }, 
      "inputs": [[88, 0, 0], [321, 0, 0], [322, 0, 0]]
    }, 
    {
      "op": "transpose", 
      "name": "transpose0", 
      "attrs": {"axes": "(0, 2, 3, 1)"}, 
      "inputs": [[323, 0, 0]]
    }, 
    {
      "op": "Flatten", 
      "name": "flatten0", 
      "inputs": [[324, 0, 0]]
    }, 
    {
      "op": "null", 
      "name": "conv_12_relu_loc_pred_conv_weight", 
      "attrs": {
        "kernel": "(3, 3)", 
        "num_filter": "16", 
        "pad": "(1, 1)", 
        "stride": "(1, 1)"
      }, 
      "inputs": []
    }, 
    {
      "op": "null", 
      "name": "conv_12_relu_loc_pred_conv_bias", 
      "attrs": {
        "__init__": "[\"constant\", {\"value\": 0.0}]", 
        "__lr_mult__": "2.0"
      }, 
      "inputs": []
    }, 
    {
      "op": "Convolution", 
      "name": "conv_12_relu_loc_pred_conv", 
      "attrs": {
        "kernel": "(3, 3)", 
        "num_filter": "16", 
        "pad": "(1, 1)", 
        "stride": "(1, 1)"
      }, 
      "inputs": [[189, 0, 0], [326, 0, 0], [327, 0, 0]]
    }, 
    {
      "op": "transpose", 
      "name": "transpose2", 
      "attrs": {"axes": "(0, 2, 3, 1)"}, 
      "inputs": [[328, 0, 0]]
    }, 
    {
      "op": "Flatten", 
      "name": "flatten3", 
      "inputs": [[329, 0, 0]]
    }, 
    {
      "op": "null", 
      "name": "conv_14_relu_loc_pred_conv_weight", 
      "attrs": {
        "kernel": "(3, 3)", 
        "num_filter": "24", 
        "pad": "(1, 1)", 
        "stride": "(1, 1)"
      }, 
      "inputs": []
    }, 
    {
      "op": "null", 
      "name": "conv_14_relu_loc_pred_conv_bias", 
      "attrs": {
        "__init__": "[\"constant\", {\"value\": 0.0}]", 
        "__lr_mult__": "2.0"
      }, 
      "inputs": []
    }, 
    {
      "op": "Convolution", 
      "name": "conv_14_relu_loc_pred_conv", 
      "attrs": {
        "kernel": "(3, 3)", 
        "num_filter": "24", 
        "pad": "(1, 1)", 
        "stride": "(1, 1)"
      }, 
      "inputs": [[226, 0, 0], [331, 0, 0], [332, 0, 0]]
    }, 
    {
      "op": "transpose", 
      "name": "transpose4", 
      "attrs": {"axes": "(0, 2, 3, 1)"}, 
      "inputs": [[333, 0, 0]]
    }, 
    {
      "op": "Flatten", 
      "name": "flatten6", 
      "inputs": [[334, 0, 0]]
    }, 
    {
      "op": "null", 
      "name": "multi_feat_3_conv_3x3_relu_loc_pred_conv_weight", 
      "attrs": {
        "kernel": "(3, 3)", 
        "num_filter": "24", 
        "pad": "(1, 1)", 
        "stride": "(1, 1)"
      }, 
      "inputs": []
    }, 
    {
      "op": "null", 
      "name": "multi_feat_3_conv_3x3_relu_loc_pred_conv_bias", 
      "attrs": {
        "__init__": "[\"constant\", {\"value\": 0.0}]", 
        "__lr_mult__": "2.0"
      }, 
      "inputs": []
    }, 
    {
      "op": "Convolution", 
      "name": "multi_feat_3_conv_3x3_relu_loc_pred_conv", 
      "attrs": {
        "kernel": "(3, 3)", 
        "num_filter": "24", 
        "pad": "(1, 1)", 
        "stride": "(1, 1)"
      }, 
      "inputs": [[239, 0, 0], [336, 0, 0], [337, 0, 0]]
    }, 
    {
      "op": "transpose", 
      "name": "transpose6", 
      "attrs": {"axes": "(0, 2, 3, 1)"}, 
      "inputs": [[338, 0, 0]]
    }, 
    {
      "op": "Flatten", 
      "name": "flatten9", 
      "inputs": [[339, 0, 0]]
    }, 
    {
      "op": "null", 
      "name": "multi_feat_4_conv_3x3_relu_loc_pred_conv_weight", 
      "attrs": {
        "kernel": "(3, 3)", 
        "num_filter": "24", 
        "pad": "(1, 1)", 
        "stride": "(1, 1)"
      }, 
      "inputs": []
    }, 
    {
      "op": "null", 
      "name": "multi_feat_4_conv_3x3_relu_loc_pred_conv_bias", 
      "attrs": {
        "__init__": "[\"constant\", {\"value\": 0.0}]", 
        "__lr_mult__": "2.0"
      }, 
      "inputs": []
    }, 
    {
      "op": "Convolution", 
      "name": "multi_feat_4_conv_3x3_relu_loc_pred_conv", 
      "attrs": {
        "kernel": "(3, 3)", 
        "num_filter": "24", 
        "pad": "(1, 1)", 
        "stride": "(1, 1)"
      }, 
      "inputs": [[252, 0, 0], [341, 0, 0], [342, 0, 0]]
    }, 
    {
      "op": "transpose", 
      "name": "transpose8", 
      "attrs": {"axes": "(0, 2, 3, 1)"}, 
      "inputs": [[343, 0, 0]]
    }, 
    {
      "op": "Flatten", 
      "name": "flatten12", 
      "inputs": [[344, 0, 0]]
    }, 
    {
      "op": "null", 
      "name": "multi_feat_5_conv_3x3_relu_loc_pred_conv_weight", 
      "attrs": {
        "kernel": "(3, 3)", 
        "num_filter": "24", 
        "pad": "(1, 1)", 
        "stride": "(1, 1)"
      }, 
      "inputs": []
    }, 
    {
      "op": "null", 
      "name": "multi_feat_5_conv_3x3_relu_loc_pred_conv_bias", 
      "attrs": {
        "__init__": "[\"constant\", {\"value\": 0.0}]", 
        "__lr_mult__": "2.0"
      }, 
      "inputs": []
    }, 
    {
      "op": "Convolution", 
      "name": "multi_feat_5_conv_3x3_relu_loc_pred_conv", 
      "attrs": {
        "kernel": "(3, 3)", 
        "num_filter": "24", 
        "pad": "(1, 1)", 
        "stride": "(1, 1)"
      }, 
      "inputs": [[265, 0, 0], [346, 0, 0], [347, 0, 0]]
    }, 
    {
      "op": "transpose", 
      "name": "transpose10", 
      "attrs": {"axes": "(0, 2, 3, 1)"}, 
      "inputs": [[348, 0, 0]]
    }, 
    {
      "op": "Flatten", 
      "name": "flatten15", 
      "inputs": [[349, 0, 0]]
    }, 
    {
      "op": "null", 
      "name": "multi_feat_6_conv_3x3_relu_loc_pred_conv_weight", 
      "attrs": {
        "kernel": "(3, 3)", 
        "num_filter": "16", 
        "pad": "(1, 1)", 
        "stride": "(1, 1)"
      }, 
      "inputs": []
    }, 
    {
      "op": "null", 
      "name": "multi_feat_6_conv_3x3_relu_loc_pred_conv_bias", 
      "attrs": {
        "__init__": "[\"constant\", {\"value\": 0.0}]", 
        "__lr_mult__": "2.0"
      }, 
      "inputs": []
    }, 
    {
      "op": "Convolution", 
      "name": "multi_feat_6_conv_3x3_relu_loc_pred_conv", 
      "attrs": {
        "kernel": "(3, 3)", 
        "num_filter": "16", 
        "pad": "(1, 1)", 
        "stride": "(1, 1)"
      }, 
      "inputs": [[278, 0, 0], [351, 0, 0], [352, 0, 0]]
    }, 
    {
      "op": "transpose", 
      "name": "transpose12", 
      "attrs": {"axes": "(0, 2, 3, 1)"}, 
      "inputs": [[353, 0, 0]]
    }, 
    {
      "op": "Flatten", 
      "name": "flatten18", 
      "inputs": [[354, 0, 0]]
    }, 
    {
      "op": "null", 
      "name": "multi_feat_7_conv_3x3_relu_loc_pred_conv_weight", 
      "attrs": {
        "kernel": "(3, 3)", 
        "num_filter": "16", 
        "pad": "(1, 1)", 
        "stride": "(1, 1)"
      }, 
      "inputs": []
    }, 
    {
      "op": "null", 
      "name": "multi_feat_7_conv_3x3_relu_loc_pred_conv_bias", 
      "attrs": {
        "__init__": "[\"constant\", {\"value\": 0.0}]", 
        "__lr_mult__": "2.0"
      }, 
      "inputs": []
    }, 
    {
      "op": "Convolution", 
      "name": "multi_feat_7_conv_3x3_relu_loc_pred_conv", 
      "attrs": {
        "kernel": "(3, 3)", 
        "num_filter": "16", 
        "pad": "(1, 1)", 
        "stride": "(1, 1)"
      }, 
      "inputs": [[291, 0, 0], [356, 0, 0], [357, 0, 0]]
    }, 
    {
      "op": "transpose", 
      "name": "transpose14", 
      "attrs": {"axes": "(0, 2, 3, 1)"}, 
      "inputs": [[358, 0, 0]]
    }, 
    {
      "op": "Flatten", 
      "name": "flatten21", 
      "inputs": [[359, 0, 0]]
    }, 
    {
      "op": "Concat", 
      "name": "multibox_loc_pred", 
      "attrs": {
        "dim": "1", 
        "num_args": "8"
      }, 
      "inputs": [[325, 0, 0], [330, 0, 0], [335, 0, 0], [340, 0, 0], [345, 0, 0], [350, 0, 0], [355, 0, 0], [360, 0, 0]]
    }, 
    {
      "op": "elemwise_sub", 
      "name": "_minus0", 
      "inputs": [[361, 0, 0], [319, 0, 0]]
    }, 
    {
      "op": "elemwise_mul", 
      "name": "_mul0", 
      "inputs": [[319, 1, 0], [362, 0, 0]]
    }, 
    {
      "op": "smooth_l1", 
      "name": "loc_loss_", 
      "attrs": {"scalar": "1.0"}, 
      "inputs": [[363, 0, 0]]
    }, 
    {
      "op": "MakeLoss", 
      "name": "loc_loss", 
      "attrs": {
        "grad_scale": "1.0", 
        "normalization": "valid"
      }, 
      "inputs": [[364, 0, 0]]
    }, 
    {
      "op": "MakeLoss", 
      "name": "cls_label", 
      "attrs": {"grad_scale": "0"}, 
      "inputs": [[319, 2, 0]]
    }, 
    {
      "op": "_contrib_MultiBoxDetection", 
      "name": "detection", 
      "attrs": {
        "force_suppress": "False", 
        "nms_threshold": "0.45", 
        "nms_topk": "400", 
        "variances": "(0.1, 0.1, 0.2, 0.2)"
      }, 
      "inputs": [[320, 0, 0], [361, 0, 0], [317, 0, 0]]
    }, 
    {
      "op": "MakeLoss", 
      "name": "det_out", 
      "attrs": {"grad_scale": "0"}, 
      "inputs": [[367, 0, 0]]
    }
  ], 
  "arg_nodes": [
    0, 
    1, 
    3, 
    4, 
    5, 
    6, 
    9, 
    11, 
    12, 
    13, 
    14, 
    17, 
    19, 
    20, 
    21, 
    22, 
    25, 
    27, 
    28, 
    29, 
    30, 
    33, 
    35, 
    36, 
    37, 
    38, 
    41, 
    43, 
    44, 
    45, 
    46, 
    49, 
    51, 
    52, 
    53, 
    54, 
    57, 
    59, 
    60, 
    61, 
    62, 
    65, 
    67, 
    68, 
    69, 
    70, 
    73, 
    75, 
    76, 
    77, 
    78, 
    81, 
    83, 
    84, 
    85, 
    86, 
    89, 
    90, 
    94, 
    96, 
    97, 
    98, 
    99, 
    102, 
    104, 
    105, 
    106, 
    107, 
    110, 
    112, 
    113, 
    114, 
    115, 
    118, 
    120, 
    121, 
    122, 
    123, 
    126, 
    128, 
    129, 
    130, 
    131, 
    134, 
    136, 
    137, 
    138, 
    139, 
    142, 
    144, 
    145, 
    146, 
    147, 
    150, 
    152, 
    153, 
    154, 
    155, 
    158, 
    160, 
    161, 
    162, 
    163, 
    166, 
    168, 
    169, 
    170, 
    171, 
    174, 
    176, 
    177, 
    178, 
    179, 
    182, 
    184, 
    185, 
    186, 
    187, 
    190, 
    191, 
    195, 
    197, 
    198, 
    199, 
    200, 
    203, 
    205, 
    206, 
    207, 
    208, 
    211, 
    213, 
    214, 
    215, 
    216, 
    219, 
    221, 
    222, 
    223, 
    224, 
    227, 
    228, 
    232, 
    233, 
    236, 
    237, 
    240, 
    241, 
    245, 
    246, 
    249, 
    250, 
    253, 
    254, 
    258, 
    259, 
    262, 
    263, 
    266, 
    267, 
    271, 
    272, 
    275, 
    276, 
    279, 
    280, 
    284, 
    285, 
    288, 
    289, 
    292, 
    293, 
    318, 
    321, 
    322, 
    326, 
    327, 
    331, 
    332, 
    336, 
    337, 
    341, 
    342, 
    346, 
    347, 
    351, 
    352, 
    356, 
    357
  ], 
  "node_row_ptr": [
    0, 
    1, 
    2, 
    3, 
    4, 
    5, 
    6, 
    7, 
    10, 
    11, 
    12, 
    13, 
    14, 
    15, 
    16, 
    17, 
    20, 
    21, 
    22, 
    23, 
    24, 
    25, 
    26, 
    27, 
    30, 
    31, 
    32, 
    33, 
    34, 
    35, 
    36, 
    37, 
    40, 
    41, 
    42, 
    43, 
    44, 
    45, 
    46, 
    47, 
    50, 
    51, 
    52, 
    53, 
    54, 
    55, 
    56, 
    57, 
    60, 
    61, 
    62, 
    63, 
    64, 
    65, 
    66, 
    67, 
    70, 
    71, 
    72, 
    73, 
    74, 
    75, 
    76, 
    77, 
    80, 
    81, 
    82, 
    83, 
    84, 
    85, 
    86, 
    87, 
    90, 
    91, 
    92, 
    93, 
    94, 
    95, 
    96, 
    97, 
    100, 
    101, 
    102, 
    103, 
    104, 
    105, 
    106, 
    107, 
    110, 
    111, 
    112, 
    113, 
    114, 
    115, 
    116, 
    117, 
    118, 
    119, 
    120, 
    121, 
    122, 
    125, 
    126, 
    127, 
    128, 
    129, 
    130, 
    131, 
    132, 
    135, 
    136, 
    137, 
    138, 
    139, 
    140, 
    141, 
    142, 
    145, 
    146, 
    147, 
    148, 
    149, 
    150, 
    151, 
    152, 
    155, 
    156, 
    157, 
    158, 
    159, 
    160, 
    161, 
    162, 
    165, 
    166, 
    167, 
    168, 
    169, 
    170, 
    171, 
    172, 
    175, 
    176, 
    177, 
    178, 
    179, 
    180, 
    181, 
    182, 
    185, 
    186, 
    187, 
    188, 
    189, 
    190, 
    191, 
    192, 
    195, 
    196, 
    197, 
    198, 
    199, 
    200, 
    201, 
    202, 
    205, 
    206, 
    207, 
    208, 
    209, 
    210, 
    211, 
    212, 
    215, 
    216, 
    217, 
    218, 
    219, 
    220, 
    221, 
    222, 
    225, 
    226, 
    227, 
    228, 
    229, 
    230, 
    231, 
    232, 
    235, 
    236, 
    237, 
    238, 
    239, 
    240, 
    241, 
    242, 
    243, 
    244, 
    245, 
    246, 
    247, 
    250, 
    251, 
    252, 
    253, 
    254, 
    255, 
    256, 
    257, 
    260, 
    261, 
    262, 
    263, 
    264, 
    265, 
    266, 
    267, 
    270, 
    271, 
    272, 
    273, 
    274, 
    275, 
    276, 
    277, 
    280, 
    281, 
    282, 
    283, 
    284, 
    285, 
    286, 
    287, 
    288, 
    289, 
    290, 
    291, 
    292, 
    293, 
    294, 
    295, 
    296, 
    297, 
    298, 
    299, 
    300, 
    301, 
    302, 
    303, 
    304, 
    305, 
    306, 
    307, 
    308, 
    309, 
    310, 
    311, 
    312, 
    313, 
    314, 
    315, 
    316, 
    317, 
    318, 
    319, 
    320, 
    321, 
    322, 
    323, 
    324, 
    325, 
    326, 
    327, 
    328, 
    329, 
    330, 
    331, 
    332, 
    333, 
    334, 
    335, 
    336, 
    337, 
    338, 
    339, 
    340, 
    341, 
    342, 
    343, 
    344, 
    345, 
    346, 
    347, 
    348, 
    349, 
    350, 
    351, 
    352, 
    353, 
    354, 
    355, 
    356, 
    357, 
    358, 
    359, 
    360, 
    361, 
    362, 
    363, 
    364, 
    365, 
    366, 
    367, 
    368, 
    369, 
    370, 
    371, 
    372, 
    373, 
    376, 
    377, 
    378, 
    379, 
    380, 
    381, 
    382, 
    383, 
    384, 
    385, 
    386, 
    387, 
    388, 
    389, 
    390, 
    391, 
    392, 
    393, 
    394, 
    395, 
    396, 
    397, 
    398, 
    399, 
    400, 
    401, 
    402, 
    403, 
    404, 
    405, 
    406, 
    407, 
    408, 
    409, 
    410, 
    411, 
    412, 
    413, 
    414, 
    415, 
    416, 
    417, 
    418, 
    419, 
    420, 
    421, 
    422, 
    423, 
    424, 
    425
  ], 
  "heads": [[320, 0, 0], [365, 0, 0], [366, 0, 0], [368, 0, 0]], 
  "attrs": {"mxnet_version": ["int", 10001]}
}